torch/trained_models/k_16_c_4_fsc22_mixup_2_fold1.pt (torch, 386194 bytes, 41 tensors)

sfeb.1.weight f4 [8]
0.6930982 0.6732422 0.66838574 0.6711143 0.8689407 0.56675255 0.6304559 0.821131
00000000: e26e 313f 9a59 2c3f 541b 2b3f 26ce 2b3f
00000010: e672 5e3f b216 113f 8f65 213f a435 523f

sfeb.1.bias f4 [8]
0.35433435 0.69372755 0.40734088 0.34350282 0.045586877 0.11571593 0.17987655 0.12631543
00000000: 506b b53e 2198 313f fc8e d03e 9adf af3e
00000010: 4eb9 3a3d 79fc ec3d 8f31 383e d558 013e

sfeb.1.running_mean f4 [8]
4.1390424e-05 -4.1368883e-05 -9.191513e-06 -1.5114931e-06 8.701364e-06 0.00016319122 -0.00017587512 -3.8654416e-06
00000000: a19a 2d38 8083 2db8 3f35 1ab7 82de cab5
00000010: 13fc 1137 4f1e 2b39 1e6b 38b9 e4b3 81b6

sfeb.1.running_var f4 [8]
0.0025626617 0.0023922385 0.00067593844 0.0014588572 0.005208441 0.0025955713 0.0038238082 0.0034927935
00000000: 54f2 273b 1ac7 1c3b 7631 313a 2037 bf3a
00000010: 92ab aa3b 761a 2a3b db98 7a3b 5ae7 643b

sfeb.3.weight f4 [64, 8, 1, 5]
-0.051889848 0.13266084 -0.06596611 0.040890254 -0.018011168 0.11506236 -0.096070744 0.13730077
-0.074490294 0.015405907 -0.028473672 -0.05390244 -0.008696002 -0.06534993 -0.01699711 0.032385398
-0.08561023 0.04832298 -0.072907686 0.014309849 -0.007179308 -0.050005022 -0.0021078805 -0.06810235
-0.02640279 0.00045818122 -0.0136267515 0.004947619 -0.024264516 0.00048658898 -0.040057544 0.043022927
-0.032217935 -0.019261586 -0.017008895 -0.07563961 0.022303138 -0.10555731 0.008578441 -0.060445968
-0.029968154 -0.026919758 0.12491717 -0.16291916 0.22027373 0.018208314 0.018503943 -0.1796899
0.30910164 -0.2174663 0.0057357294 -0.021863414 -0.03836403 -0.000691296 -0.05343279 0.096760765
-0.10284412 -0.08019392 0.08122049 -0.17575648 0.03012046 -0.09019398 -0.12216152 0.019599663
-0.10314695 0.030122878 -0.0028181258 -0.022600506 0.048590768 -0.039701913 0.014854507 0.02676434
0.054392 -0.048073657 0.029493049 -0.07311508 -0.029771881 -0.03651797 -0.18108445 0.08560253
0.025958031 -0.09878603 0.1530501 -0.18981898 0.05252788 -0.049115058 0.17766872 -0.25732183
0.21473889 -0.14208439 0.04206778 -0.026495237 -0.043824516 0.042337537 -0.04101825 0.10179882
-0.0032301124 -0.19771253 0.22682697 -0.16455072 -0.10990239 -0.007823496 -0.20040372 0.013488121
-0.06274907 0.054111768 -0.015747402 -0.006846744 0.038650062 -0.028434252 -0.048157223 -0.04354239
0.11292668 -0.084741294 0.06708293 -0.12166279 -0.035468653 0.07133046 -0.19711663 0.08663793
0.04183025 -0.14551316 -0.18823366 0.30105716 -0.30365652 -0.09178617 0.043760955 0.070577666
-0.24885541 0.17414258 -0.008663616 -0.010996545 -0.052011095 -0.020016003 -0.0040301066 -0.11633561
0.10015748 -0.114842586 -0.16034378 0.15776902 -0.12546995 0.036571816 -0.10910753 -0.20770413
0.010677519 -0.019102635 -0.014060523 -0.005080107 -0.04886992 0.008616832 -0.014988854 -0.03509537
-0.052131712 0.1320915 -0.08840322 0.046256773 -0.21392095 -0.084233396 0.0118216155 -0.2518021
0.28741917 -0.15108103 0.071685486 -0.06816651 -0.123979785 -0.44333002 0.01539705 0.17670274
0.029816795 0.10501019 0.026855556 0.049304485 -0.33093032 0.055225085 0.05084049 0.0718085
0.038540833 -0.024367332 -0.29174381 -0.10181141 -0.22021574 0.043280303 -0.15068115 -0.069293216
0.2735912 0.11029282 -0.030751063 -0.14904998 0.030197589 0.006934367 0.11795348 0.06466763
0.09953615 -0.15030998 -0.09038022 0.14216577 -0.26093274 0.21625315 -0.13741873 -0.13955957
-0.17416498 0.19479887 -0.022257574 -0.2716059 0.15095548 0.19406016 -0.21488227 -0.11616952
0.14873196 -0.18254977 0.007061523 -0.081921965 0.025946824 -0.0070037064 -0.06403125 0.21479529
-0.36748666 0.08860571 0.14659084 -0.33812854 0.14591128 -0.21041349 -0.058641236 0.066759296
-0.095440954 -0.017674282 -0.005062529 0.023044186 0.038223743 -0.03943868 -0.010781287 0.10823629
-0.08618576 -0.06385544 0.06595919 -0.13799512 0.19170962 -0.05924848 -0.21478727 0.14181928
0.06596565 -0.099931926 -0.12104197 0.06069109 0.06857515 -0.1249274 -0.101320155 0.15163115
-0.06555101 -0.02126548 -0.04981424 -0.0036860118 -0.06518592 -0.06921382 -0.008156302 -0.17470227
00000000: 738a 54bd 3ed8 073e 3d19 87bd 8a7c 273d
00000010: 288c 93bc d1a5 eb3d bdc0 c4bd 9398 0c3e
00000020: 5e8e 98bd 0f69 7c3c 9e41 e9bc cec8 5cbd
00000030: ad79 0ebc 2fd6 85bd 863d 8bbc 8da6 043d
00000040: 6b54 afbd 51ee 453d a050 95bd db73 6a3c
00000050: 6740 ebbb 11d2 4cbd 5e24 0abb 3f79 8bbd
00000060: aa4a d8bc 0b38 f039 bd42 5fbc a31f a23b
00000070: 61c6 c6bc de1c ff39 6113 24bd cf38 303d
00000080: f4f6 03bd 79ca 9dbc 3d56 8bbc f1e8 9abd
00000090: 12b5 b63c 6e2e d8bd 978c 0c3c 3196 77bd
000000a0: c67f f5bc d386 dcbc 93d4 ff3d 48d4 26be
000000b0: 708f 613e 9a29 953c 9595 973c a100 38be
000000c0: 9242 9e3e 7caf 5ebe c9f2 bb3b e71a b3bc
000000d0: 9a23 1dbd 1738 35ba 57dc 5abd 822a c63d
000000e0: f09f d2bd b63c a4bd ee56 a63d 82f9 33be
000000f0: 2fbf f63c 9fb7 b8bd d22f fabd 798f a03c
00000100: b53e d3bd 41c4 f63c 4eb0 38bb b224 b9bc
00000110: 1d07 473d 799e 22bd 5160 733c e440 db3c
00000120: 25ca 5e3d e2e8 44bd 689b f13c 5cbd 95bd
00000130: 29e4 f3bc de93 15bd 346e 39be 6150 af3d
00000140: f0a5 d43c 5550 cabd 2ab9 1c3e e85f 42be
00000150: 7927 573d df2c 49bd caee 353e b0bf 83be
00000160: 83e4 5b3e 927e 11be 444f 2c3d 8a0c d9bc
00000170: 5681 33bd 206a 2d3d c102 28bd e67b d03d
00000180: 4bb0 53bb 2775 4abe 5445 683e fc7f 28be
00000190: 8114 e1bd 1f2e 00bc a236 4dbe 48fd 5c3c
000001a0: 9682 80bd 4da4 5d3d b200 81bc a75a e0bb
000001b0: 874f 1e3d f3ee e8bc 8240 45bd 8159 32bd
000001c0: 1a46 e73d d88c adbd c662 893d 572a f9bd
000001d0: 9447 11bd b415 923d f1d8 49be 3a6f b13d
000001e0: 3256 2b3d 6701 15be 53c0 40be 2a24 9a3e
000001f0: de78 9bbe 63fa bbbd b03e 333d 068b 903d
00000200: f4d3 7ebe 6f52 323e d7f1 0dbc da2a 34bc
00000210: 9609 55bd 9af8 a3bc fc0e 84bb 5d41 eebd
00000220: 5d1f cd3d 9732 ebbd 2931 24be 348e 213e
00000230: 327b 00be 54cc 153d c573 dfbd 64b0 54be
00000240: c3f0 2e3c 217d 9cbc 1c5e 66bc 0777 a6bb
00000250: d32b 48bd 9d2d 0d3c cf93 75bc 2ac0 0fbd
00000260: 1088 55bd ff42 073e bf0c b5bd be77 3d3d
00000270: 180e 5bbe 8f82 acbd 73af 413c 34ec 80be
00000280: 9b28 933e fcb4 1abe d7cf 923d e29a 8bbd
00000290: 1de9 fdbd 27fc e2be e943 7c3c 90f1 343e
000002a0: 5a42 f43c 950f d73d 2f00 dc3c 80f3 493d
000002b0: b36f a9be b333 623d 1e3e 503d 5610 933d
000002c0: fedc 1d3d 009e c7bc 725f 95be 8082 d0bd
000002d0: 3c80 61be b046 313d 294c 1abe 9ae9 8dbd
000002e0: 2514 8c3e 34e1 e13d a7e9 fbbc 8fa0 18be
000002f0: ef60 f73c b039 e33b 9891 f13d 7670 843d
00000300: 9cd9 cb3d dcea 19be 4419 b9bd e793 113e
00000310: fa98 85be 7771 5d3e 7fb7 0cbe b4e8 0ebe
00000320: 4e58 32be 5b79 473e 8455 b6bc ee0f 8bbe
00000330: 1394 1a3e b5b7 463e 190a 5cbe 49ea edbd
00000340: 314d 183e 54ee 3abe 5964 e73b b4c6 a7bd
00000350: 6f8e d43c 597f e5bb d122 83bd 4cf3 5b3e
00000360: 3627 bcbe e976 b53d e91b 163e 2f1f adbe
00000370: c469 153e a276 57be cb31 70bd 19b9 883d
00000380: 8c76 c3bd a8c9 90bc 92e3 a5bb 29c7 bc3c
00000390: 8090 1c3d 748a 21bd ffa3 30bc fdaa dd3d
000003a0: 2982 b0bd a4c6 82bd 9d15 873d 984e 0dbe
000003b0: 874f 443e 89ae 72bd 32f1 5bbe 1339 113e
000003c0: 0019 873d 1ca9 ccbd dae4 f7bd 3897 783d
000003d0: 2171 8c3d f0d9 ffbd f180 cfbd 3245 1b3e
000003e0: 9c3f 86bd f234 aebc 040a 4cbd 0491 71bb
000003f0: 3280 85bd fabf 8dbd 03a2 05bc 27e5 32be

sfeb.4.weight f4 [64]
0.24344932 0.5223475 0.53387105 0.70915234 0.85306776 0.67108864 0.38463292 0.5403624
0.5518186 0.7321454 0.28252777 0.9280132 0.4799503 0.672717 0.45165753 0.39914653
0.7727445 0.22883542 0.33947393 0.0002256781 0.23970464 0.40002084 0.5742166 0.48824823
0.8068114 1.0486982 0.35503104 0.61391175 0.7668488 0.31811953 0.746804 0.74717426
1.0123892 5.986282e-05 1.2555819 0.22413339 1.1215919 0.8836713 1.0997888 0.72395986
1.0553706 1.2206635 0.65748835 0.7784163 0.17888744 0.3020035 0.24353032 0.21475871
0.2255398 0.1570035 0.23721948 0.23303178 -0.00029308026 0.22283614 0.294334 0.13887094
0.2507957 0.5253339 0.48799062 0.96105224 0.550495 0.94784963 0.6756773 0.3590555
00000000: c74a 793e 91b8 053f c6ab 083f 028b 353f
00000010: a662 5a3f 77cc 2b3f 9bee c43e 3155 0a3f
00000020: fc43 0d3f e26d 3b3f 7ba7 903e 4692 6d3f
00000030: 0cbc f53e 2e37 2c3f a83f e73e ef5c cc3e
00000040: 95d2 453f d553 6a3e 87cf ad3e 01a4 6c39
00000050: 2275 753e 88cf cc3e dcff 123f acfb f93e
00000060: 318b 4e3f be3b 863f a1c6 b53e 5229 1d3f
00000070: 3450 443f 90e0 a23e 8c2e 3f3f d046 3f3f
00000080: f895 813f 3715 7b38 e8b6 a03f 3983 653e
00000090: 5390 8f3f 4838 623f e1c5 8c3f 6f55 393f
000000a0: 6216 873f b43e 9c3f 2851 283f 4a46 473f
000000b0: 452e 373e 34a0 9a3e 0360 793e b5e9 5b3e
000000c0: e8f3 663e 87c5 203e aae9 723e e29f 6e3e
000000d0: 91a8 99b9 282f 643e f2b2 963e 2f34 0e3e
000000e0: 4b68 803e 487c 063f e8d9 f93e 8507 763f
000000f0: 3eed 0c3f 46a6 723f 30f9 2c3f 1fd6 b73e

sfeb.4.bias f4 [64]
-0.022372438 0.07066578 -0.014797967 -0.07509245 0.1008357 -0.028060727 0.027521241 0.023343809
0.017164271 0.07296378 0.090673715 0.020354692 0.1138052 -0.005898402 -0.004910206 -0.0141627835
0.055796523 -0.13009612 -0.050005585 -0.031048551 0.06965804 0.107386425 0.0027186908 -0.0037093407
-0.013379982 0.0127953105 0.22305878 -0.09074634 0.017770227 0.066216655 -0.17429575 -0.024028236
-0.04279465 -0.00028040318 -0.07573979 0.18537247 -0.10614352 0.014474854 -0.04768414 -0.020686448
0.088917606 -0.048936617 -0.02771894 0.04580152 0.23320259 0.06943024 0.23673774 -0.011189703
-0.060031638 0.027423395 -0.0014943185 0.0166757 -0.16440125 0.1323417 0.10055902 0.35231662
-0.04938838 0.107992746 0.07898473 0.032673378 0.071063675 -0.08423727 0.28705287 0.019405434
00000000: 6746 b7bc 38b9 903d 2c73 72bc 12ca 99bd
00000010: f382 ce3d 9cdf e5bc 3a74 e13c 843b bf3c
00000020: 169c 8c3c 096e 953d 24b3 b93d e2be a63c
00000030: b312 e93d 6247 c1bb cbe5 a0bb 050b 68bc
00000040: e58a 643d eb37 05be a8d2 4cbd 8859 febc
00000050: e0a8 8e3d 6aed db3d 102c 323b 6918 73bb
00000060: b637 5bbc 6ca3 513c 8569 643e 38d9 b9bd
00000070: de92 913c 999c 873d 967a 32be ddd6 c4bc
00000080: 7149 2fbd 1403 93b9 771d 9bbd 48d2 3d3e
00000090: c661 d9bd f027 6d3c 7250 43bd a076 a9bc
000000a0: 6f1a b63d c371 48bd d512 e3bc 609a 3b3d
000000b0: a9cc 6e3e 7131 8e3d 616b 723e 0455 37bc
000000c0: bce3 75bd 07a7 e03c 02dd c3ba 7a9b 883c
000000d0: cd58 28be 9584 073e e3f1 cd3d d862 b43e
000000e0: 784b 4abd 4d2b dd3d bfc2 a13d 85d4 053d
000000f0: d589 913d 9784 acbd 98f8 923e 25f8 9e3c

sfeb.4.running_mean f4 [64]
-0.12325943 -0.19245411 -0.20167682 -0.48759267 -0.33869538 -0.38078052 -0.45121366 -2.5077958e-05
-0.53938264 -0.08184083 -0.2124572 -0.22307341 -0.56156594 -0.36898783 -0.31524 -0.6017027
-0.5424712 -0.041604556 -0.6356886 -0.023176203 -0.36872026 -0.3332847 -0.34541738 -0.3389265
-0.617304 -0.24172184 -0.5472577 -0.26686484 -0.77913696 -0.40555644 -0.6644261 -0.3274655
-0.44185868 -0.0008190612 -0.74900824 -0.2431705 -0.7874139 -0.45767415 -0.41260713 -0.25629097
-0.71220124 -0.69800067 -0.20792086 0.12379561 -0.31124339 -0.10124511 0.16903007 -0.19041964
0.03910739 -0.079857014 -0.3129209 0.10366144 -0.082544915 -0.09748228 -0.078801565 -0.13341069
-0.33656332 0.0024789963 -0.3250408 -0.29714185 -0.15762071 0.030402627 -0.29477185 -0.17571539
00000000: 716f fcbd b112 45be 5e84 4ebe bfa5 f9be
00000010: 7b69 adbe aaf5 c2be 7a05 e7be 815e d2b7
00000020: fb14 0abf 2a9c a7bd 618e 59be 5b6d 64be
00000030: c9c2 0fbf f9eb bcbe 2367 a1be 3009 1abf
00000040: 64df 0abf 8a69 2abd 7dbc 22bf 05dc bdbc
00000050: e7c8 bcbe 4ba4 aabe 8cda b0be c687 adbe
00000060: a307 1ebf ee85 77be 1519 0cbf 82a2 88be
00000070: 8575 47bf 18a5 cfbe d417 2abf 8fa9 a7be
00000080: 4d3b e2be 44b6 56ba 01bf 3fbf b001 79be
00000090: f593 49bf 4454 eabe 3e41 d3be 9238 83be
000000a0: d252 36bf 2cb0 32bf 35e9 54be 8e88 fd3d
000000b0: 4b5b 9fbe 9959 cfbd 3816 2d3e 5efd 42be
000000c0: 122f 203d 138c a3bd 2b37 a0be 734c d43d
000000d0: 4f0d a9bd caa4 c7bd b762 a1bd d09c 08be
000000e0: 0752 acbe a876 223b bf6b a6be fa22 98be
000000f0: 5367 21be ee0e f93c 56ec 96be bcee 33be

sfeb.4.running_var f4 [64]
0.04465744 0.12702249 0.1647838 0.3329925 0.29357532 0.3456882 0.2910116 0.26626623
0.34997585 0.37805155 0.24885936 0.6500504 0.3261366 0.5497854 0.3845262 0.34159264
0.38866565 0.19343944 0.26538867 0.002939108 0.14629371 0.18533923 0.23872231 0.23968667
0.3164717 0.5070048 0.25838843 0.2931316 0.4530097 0.30865428 0.36364782 0.42377493
0.52284676 3.485795e-07 0.73976964 0.10606373 0.72755355 0.43347472 0.5921865 0.5009246
0.42196816 0.7877775 0.42411494 0.65806395 0.13558644 0.3077658 0.14913575 0.26027152
0.2960489 0.19022813 0.19064388 0.15265095 0.05678524 0.11898536 0.1507876 0.06450898
0.18232168 0.2593029 0.29654533 0.5670859 0.289951 0.44962355 0.12962943 0.06667383
00000000: b8ea 363d 2f12 023e 16bd 283e fe7d aa3e
00000010: 814f 963e 0bfe b03e 79ff 943e 0c54 883e
00000020: 0930 b33e f98f c13e fdd4 7e3e b469 263f
00000030: 60fb a63e bcbe 0c3f 9ee0 c43e 3be5 ae3e
00000040: 2fff c63e fd14 463e 06e1 873e 0d9e 403b
00000050: 05ce 153e 91c9 3d3e 9f73 743e 6c70 753e
00000060: 9408 a23e 11cb 013f 7d4b 843e 5815 963e
00000070: e3f0 e73e ef07 9e3e 0c30 ba3e 07f9 d83e
00000080: 49d9 053f 6724 bb34 8b61 3d3f f137 d93d
00000090: f340 3a3f 66f0 dd3e 8999 173f 983c 003f
000000a0: 360c d83e c9ab 493f 9825 d93e e176 283f
000000b0: 2cd7 0a3e 7b93 9d3e 0bb7 183e 4f42 853e
000000c0: b993 973e 2acb 423e 2638 433e 8850 1c3e
000000d0: a497 683d 99ae f33d 1168 1a3e 491d 843d
000000e0: 89b2 3a3e 5ac3 843e cad4 973e 8b2c 113f
000000f0: 7574 943e 0f35 e63e 94bd 043e 4a8c 883d

tfeb.0.weight f4 [32, 1, 3, 3]
-0.22248074 -0.31975672 -0.21875565 0.037085395 0.18795006 -0.045442056 -0.12612441 -0.15662944
-0.20538853 -0.3781904 -0.33360562 0.12045247 0.3738262 0.043628693 0.07382462 -0.32105696
-0.37292713 0.083574794 -0.13548815 -0.11663948 0.22327715 -0.32997006 -0.24000901 0.27266076
-0.25253895 -0.27828866 0.12139215 0.114899136 0.115929574 0.037790064 -0.21701954 -0.25312623
-0.2748763 0.026135495 -0.03700216 -0.04204757 0.6085426 -0.25913244 -0.61643493 0.59892166
-0.15181193 -0.585542 0.464202 -0.29581374 -0.6646103 -0.47660267 0.72061694 -0.49134603
-0.73710734 1.1447077 -0.65036166 0.116803296 -0.23351425 0.10192167 -0.10002687 -0.13170807
-0.12658292 -0.050697915 -0.07319258 -0.04960859 -0.06489612 -0.11578571 -0.14283423 -0.02730391
0.15495296 -0.2508002 0.054931737 0.1853707 -0.07344248 0.029214745 0.08127022 -0.044969216
0.10088473 0.09928722 0.14340316 -0.076355055 -0.29300788 -0.2904207 -0.11628843 -0.22060247
-0.121784 -0.035630506 -0.09212441 -0.12105698 0.2978855 -0.026038166 -0.108866975 0.2794494
-0.0070500765 -0.08999229 0.01503624 -0.061859798 0.1928573 -0.06717925 0.106997274 0.013342095
-0.29383534 -0.35637322 -0.2943357 -0.4432582 0.038354248 0.38693973 -0.27485257 0.16974074
0.42501572 -0.34296727 -0.033706 0.3461047 -0.59228843 0.27308327 0.20141591 -0.5343773
0.21710216 0.28199556 -0.6579315 0.16692151 0.11295874 0.14704376 0.08840724 0.18640193
0.15119131 0.049898785 0.12888868 -0.021675333 -0.11004014 0.009085363 0.06504388 -0.005430283
0.008069711 -0.26601207 0.39391837 -0.3218849 -0.21685033 0.23283975 -0.2519401 0.314337
-0.032148466 -0.092476465 0.34963524 -0.014170627 -0.097863846 0.30221832 -0.3835405 -0.19831437
0.04523449 -0.049110904 -0.15065517 -0.1342092 -0.23581746 -0.1862438 0.082676716 0.32450554
-0.07733933 0.011379557 0.110011585 -0.002320389 -0.12430355 -0.039400175 -0.06502743 0.10999074
0.19837968 0.119961366 -0.07290303 0.0016792928 0.054473206 -0.2167655 -0.41275716 -0.4379607
-0.00029904686 0.096980385 0.20105332 0.23045461 0.118438594 0.02695423 -0.015253986 -0.1611902
-0.128169 -0.22682573 -0.29582787 -0.26926643 -0.19336727 -0.33897677 -0.23838237 -0.014533662
0.07522652 -0.027198233 0.0020768314 0.17889889 0.095792815 -0.11978943 -0.13575031 -0.12863378
-0.073733486 -0.1003871 -0.06820036 0.1617843 0.027822444 0.09961898 -0.0813249 -0.19411254
-0.17705207 -0.098062254 -0.013087433 0.042544194 -0.11484863 -0.21144585 -0.20930777 -0.25582612
-0.23676029 -0.17721163 -0.08327244 -0.21841909 -0.2093508 0.21796735 0.06969854 -0.12012598
0.26201105 0.22536913 -0.5403053 0.26577532 0.24122602 -0.48094052 0.27357778 0.1705365
-0.51104015 0.3880286 -0.0003959161 -0.1748202 0.1242055 -0.1385413 -0.23964305 0.031560034
-0.14837722 -0.09941011 0.2840106 -0.7394274 0.16338599 0.28621596 -0.5375985 0.14933468
0.28983265 -0.8881193 0.18788321 -0.028250074 0.24693081 0.025140902 -0.10171834 -0.20032173
-0.1816958 -0.170064 -0.29821843 -0.20468591 -0.5947873 -0.34256342 0.7921874 0.24040972
00000000: fed1 63be 27b7 a3be 7b01 60be dbe6 173d
00000010: fb75 403e 7321 3abd c226 01be 7863 20be
00000020: 5f51 52be 2ca2 c1be 5bce aabe c9af f63d
00000030: 2666 bf3e 00b4 323d 5d31 973d 9461 a4be
00000040: 4ef0 bebe 4329 ab3d 68bd 0abe aee0 eebd
00000050: c4a2 643e d6f1 a8be ecc4 75be 319a 8b3e
00000060: c94c 81be da7b 8ebe 739c f83d 3d50 eb3d
00000070: 7c6c ed3d c1c9 1a3d 5f3a 5ebe c399 81be
00000080: 96bc 8cbe 1b1a d63c 948f 17bd 133a 2cbd
00000090: 73c9 1b3f 02ad 84be aece 1dbf ee52 193f
000000a0: 9674 1bbe 15e6 15bf e2ab ed3e e674 97be
000000b0: e723 2abf 4405 f4be 5a7a 383f b591 fbbe
000000c0: 11b3 3cbf c885 923f 1a7e 26bf 9136 ef3d
000000d0: 5c1e 6fbe 4fbc d03d e3da ccbd 7bde 06be
000000e0: f49e 01be 9ea8 4fbd fee5 95bd 6032 4bbd
000000f0: 42e8 84bd 0f21 edbd 2343 12be 73ac dfbc
00000100: fdab 1e3e e268 80be 1a00 613d d1d1 3d3e
00000110: 0369 96bd c353 ef3c 0071 a63d a431 38bd
00000120: a79c ce3d 1957 cb3d 47d8 123e 0a60 9cbd
00000130: 2105 96be 06b2 94be a128 eebd 9de5 61be
00000140: e469 f9bd 4bf1 11bd b9ab bcbd b9ec f7bd
00000150: 7384 983e fe4d d5bc a6f5 debd fe13 8f3e
00000160: 5404 e7bb e14d b8bd 905a 763c b360 7dbd
00000170: 627c 453e 4695 89bd 6321 db3d cd98 5a3c
00000180: 9671 96be 8d76 b6be 2bb3 96be bdf2 e2be
00000190: 5819 1d3d f71c c63e 7ab9 8cbe 84d0 2d3e
000001a0: a99b d93e 6899 afbe 4d0f 0abd a334 b13e
000001b0: 37a0 17bf 92d1 8b3e f93f 4e3e f3cc 08bf
000001c0: 0750 5e3e b961 903e 336e 28bf 79ed 2a3e
000001d0: e956 e73d a492 163e db0e b53d 26e0 3e3e
000001e0: e5d1 1a3e ab62 4c3d 65fb 033e 7890 b1bc
000001f0: ba5c e1bd c6da 143c ba35 853d 84f0 b1bb
00000200: d236 043c bc32 88be abaf c93e 19ce a4be
00000210: 030e 5ebe 8b6d 6e3e 4bfe 80be c7f0 a03e
00000220: 1cae 03bd 4d64 bdbd 6403 b33e eb2b 68bc
00000230: d76c c8bd 5cbc 9a3e 6c5f c4be ec12 4bbe
00000240: cd47 393d 8428 49bd 5945 1abe 236e 09be
00000250: 227a 71be b2b6 3ebe 6952 a93d 9725 a63e
00000260: 1564 9ebd 5271 3a3c c14d e13d ab11 18bb
00000270: dc92 febd 1462 21bd 1a2d 85bd d342 e13d
00000280: 0b24 4b3e 4eae f53d 2f4e 95bd b71b dc3a
00000290: 4c1f 5f3d c6f7 5dbe e854 d3be 633c e0be
000002a0: 64c9 9cb9 a79d c63d ece0 4d3e 4bfc 6b3e
000002b0: ef8f f23d 1ecf dc3c dbeb 79bc 0b0f 25be
000002c0: bc3e 03be 0145 68be c076 97be 4add 89be
000002d0: 1202 46be 5d8e adbe 821a 74be 991e 6ebc
000002e0: 5d10 9a3d d4ce debc 731b 083b 4531 373e
000002f0: 062f c43d 2954 f5bd 2102 0bbe 93b8 03be
00000300: 9501 97bd c097 cdbd a1ac 8bbd c9aa 253e
00000310: e5eb e33c 0905 cc3d ab8d a6bd 70c5 46be
00000320: 234d 35be ddd4 c8bd ac6c 56bc d242 2e3d
00000330: c235 ebbd 4385 58be c754 56be a4fb 82be
00000340: 4a71 72be f776 35be be8a aabd 41a9 5fbe
00000350: 0e60 56be d532 5f3e 1cbe 8e3d 9c04 f6bd
00000360: 5026 863e 2ac7 663e 7351 0abf b413 883e
00000370: f403 773e d63d f6be 6312 8c3e 1fa1 2e3e
00000380: 87d3 02bf afab c63e f692 cfb9 1104 33be
00000390: 745f fe3d c5dd 0dbe fd64 75be 1845 013d
000003a0: 33f0 17be 8797 cbbd d669 913e 1d4b 3dbf
000003b0: a84e 273e e68a 923e 0ea0 09bf 31eb 183e
000003c0: f264 943e c95b 63bf 7564 403e b36c e7bc
000003d0: 6edb 7c3e 4bf4 cd3c b451 d0bd 2421 4dbe
000003e0: 770e 3abe 4225 2ebe 16b0 98be 2f99 51be
000003f0: fb43 18bf 7964 afbe cbcc 4a3f f72d 763e

tfeb.1.weight f4 [32]
0.7784854 0.4795779 0.22444424 0.2650969 0.4594161 0.41549525 0.8451757 0.09274176
0.25062218 0.26817024 0.37938955 0.19815917 0.4033023 0.15189618 0.26951718 0.17192778
0.2879155 0.2234435 0.43785477 0.31150028 0.23043488 0.19420147 0.53244925 0.51933527
0.23898122 0.3699113 0.6547916 0.5538617 0.4445143 0.22963126 0.36492348 0.3891819
00000000: d24a 473f 3c8b f53e b6d4 653e c8ba 873e
00000010: 9638 eb3e cbbb d43e 6f5d 583f 64ef bd3d
00000020: 8d51 803e 9c4d 893e 593f c23e 3dea 4a3e
00000030: a47d ce3e ac8a 1b3e 28fe 893e d60d 303e
00000040: a969 933e 5fce 643e 802e e03e f77c 9f3e
00000050: 1ff7 6b3e c0dc 463e 984e 083f 28f3 043f
00000060: 7eb7 743e 0465 bd3e 6ca0 273f e1c9 0d3f
00000070: 6197 e33e 7524 6b3e 40d7 ba3e da42 c73e

tfeb.1.bias f4 [32]
-0.29772216 -0.059705984 0.45344698 0.17967378 0.21600628 -0.014846362 -0.39819446 0.124742135
0.38893375 -0.77883106 0.037050575 0.16652931 0.13088265 0.5562566 -0.028167771 0.15131055
-0.02111015 -0.4434178 -0.05086615 0.24531285 0.26886332 0.0510249 -0.059273522 -0.0845632
0.21267429 -0.46354303 -0.11574608 -0.17392337 0.004126828 0.09345251 -0.65990525 -0.032347582
00000000: 0a6f 98be 438e 74bd 342a e83e 67fc 373e
00000010: c030 5d3e 283e 73bc 25e0 cbbe ce78 ff3d
00000020: 5322 c73e 7961 47bf 58c2 173d a986 2a3e
00000030: 1a06 063e d566 0e3f 19c0 e6bc 27f1 1a3e
00000040: 31ef acbc a807 e3be 0659 50bd 4b33 7b3e
00000050: 74a8 893e 7cff 503d cbc8 72bd 792f adbd
00000060: 4ac7 593e 8355 edbe 480c edbd f818 32be
00000070: 583a 873b 0864 bf3d 8def 28bf e67e 04bd

tfeb.1.running_mean f4 [32]
-0.529929 -0.35489666 -0.37041852 -0.26638296 -0.44758677 -0.25054753 -0.42500874 0.05616878
-0.38861537 0.047451038 -0.37082097 0.13381085 -0.2673299 0.31284395 -0.1799768 0.073083416
-0.19034041 0.15759525 -0.39500117 -0.35939506 -0.22814439 -0.16830136 -0.52491057 -0.5033318
-0.04195123 -0.13093351 -0.4074682 -0.45593882 -0.18994404 -0.12434974 -0.0957904 -0.24280623
00000000: 6da9 07bf 04b5 b5be 7fa7 bdbe 5963 88be
00000010: 182a e5be c447 80be bf9a d9be 3c11 663d
00000020: 98f8 c6be 055c 423d 3fdc bdbe b605 093e
00000030: 77df 88be 152d a03e d74b 38be c2ac 953d
00000040: 99e8 42be a660 213e 983d cabe a102 b8be
00000050: af9e 69be 3157 2cbe 8a60 06bf 5ada 00bf
00000060: 0ed5 2bbd 6f13 06be ac9f d0be d070 e9be
00000070: b180 42be 14ab febd c22d c4bd 32a2 78be

tfeb.1.running_var f4 [32]
0.6205344 0.47758427 0.32277557 0.24067459 0.8235082 0.4324497 0.31689137 0.032650065
0.36687604 0.057038516 0.39071512 0.224908 0.38672864 0.19822864 0.112511724 0.12601002
0.1587571 0.10060328 0.49912125 0.34854847 0.20855902 0.09594928 0.5145403 0.5101625
0.22939171 0.10083208 0.57417935 0.4372745 0.18348064 0.13490167 0.07942069 0.38697767
00000000: 58db 1e3f ed85 f43e d742 a53e 6673 763e
00000010: 6fd1 523f 0c6a dd3e 963f a23e 13bc 053d
00000020: 2dd7 bb3e 38a1 693d d00b c83e 484e 663e
00000030: 4c01 c63e 73fc 4a3e 8c6c e63d c508 013e
00000040: 3991 223e 1809 ce3d d28c ff3e f274 b23e
00000050: 7f90 553e 0e81 c43d eab8 033f 029a 023f
00000060: a9e5 6a3e 0d81 ce3d 6bfd 123f 71e2 df3e
00000070: 59e2 3b3e aa23 0a3e 51a7 a23d f021 c63e

tfeb.4.weight f4 [32, 32, 3, 3]
0.034982834 0.031965017 0.07319535 0.024203703 0.017083723 0.0010644926 -0.03397223 -0.056232512
-0.07481683 0.03959961 0.023506079 0.0626136 0.03205507 -0.019400306 -0.028956423 -0.043136697
-0.092014864 -0.10408444 -0.06070871 -0.12578285 -0.078625895 0.025050204 0.022283148 0.06875118
0.013007192 -0.037959773 -0.026656486 0.054908924 0.055090424 0.076575905 -0.063827716 -0.05547789
-0.055823687 0.070018925 0.052306492 0.044477332 -0.11940176 -0.08099287 -0.008304824 0.003229422
0.0048775515 0.03785896 -0.034088634 -0.016557144 -0.04836703 0.092824124 0.024882767 0.0048829643
-0.002027431 0.014986306 0.019214682 -0.03737872 -0.093720995 -0.09081245 0.002254542 -0.0038497464
-0.011687416 -0.0039753206 0.0031136437 -0.009119565 0.10982658 0.089617826 0.05581599 0.042393167
0.017401226 0.037910815 0.008584807 -0.0045430684 -0.010881903 -0.01726884 -0.055455383 -0.03670197
0.0031701333 0.01889629 0.049161594 -0.013610918 0.010895289 0.014632785 0.023265136 -0.012675358
-0.020078238 0.047474086 -0.006984701 0.0026091465 -0.0068110675 -0.017117323 -0.0030770102 0.003098602
-0.038836453 -0.05882433 0.07298912 0.0890473 0.08782101 0.056280375 0.051122345 0.072368935
-0.053301763 -0.08069408 -0.07715424 0.03879978 0.060957264 -0.0011456904 -0.092241 -0.122101635
-0.10270829 -0.10583343 -0.14772503 -0.16091228 0.018207919 -0.005022758 -0.08475458 -0.0585293
-0.07417342 -0.006820291 -0.022859307 -0.063995615 -0.086230785 0.050331384 0.018488005 -0.0037233308
0.032113586 -0.029935705 -0.060143944 -0.13523087 -0.17369618 -0.1935432 -0.0010271865 0.02372504
0.017494997 -0.0028967762 0.016600693 0.0340911 0.006223626 -0.043712206 -0.029076662 0.093627915
0.08853961 0.052550957 0.0025303122 -0.017266236 -0.053152177 -0.15831238 -0.17303205 -0.20642322
-0.006276217 -0.012602082 0.0019057522 -0.08738277 -0.07807777 -0.07725475 0.07303208 0.050126567
0.048914686 -0.0032265289 -0.0218776 -0.032266892 0.052200958 0.034459483 0.01932431 0.0066037695
-0.029383432 -0.04323043 0.087043956 0.08742831 0.07516375 -0.09026493 -0.08566944 -0.08493784
0.083162606 0.08173273 0.05719546 0.021028602 -0.0069421963 0.03274431 0.049040515 0.054425705
0.06399583 -0.02766549 -0.05610885 -0.07913371 -0.03904209 -0.052352585 -0.049591627 0.0476669
0.03547494 0.05196403 0.037612155 0.009435177 0.009919739 -0.08038787 -0.10193457 -0.104380265
-0.029094683 -0.031271398 -0.024263877 0.046258412 0.05079685 0.03230838 0.0063500195 0.0028100857
-0.0048259227 0.0070014177 0.00913079 -0.0020279065 0.10863982 0.092573754 0.076704785 -0.076552756
-0.095615745 -0.108636394 0.045625508 0.049839173 0.04879189 0.11491176 0.11710291 0.1033007
0.02854692 -0.032976408 0.080581136 -0.007446474 -0.012355487 -0.008403868 -0.02685702 -0.093747295
-0.051741656 -0.034058962 -0.09190182 -0.053300995 -0.023234062 -0.041286223 -0.04925968 -0.018368809
-0.0005476332 -0.013152204 0.076055944 0.05374231 0.037057266 -0.038893316 -0.02522819 -0.016865259
0.0060846326 -0.012299063 -0.08252266 -0.013084852 -0.018797927 -0.00681621 0.054940272 0.08994032
0.090030484 -0.018934932 -0.06482003 -0.081869274 -0.050212305 -0.011181551 -0.028691346 0.055066857
00000000: 294a 0f3d c0ed 023d 72e7 953d d846 c63c
00000010: 2af3 8b3c 7286 8b3a 7726 0bbd 1054 66bd
00000020: 9139 99bd 3333 223d d28f c03c 8f3b 803d
00000030: 2d4c 033d 64ed 9ebc 0536 edbc 1bb0 30bd
00000040: 4a72 bcbd 392a d5bd b2a9 78bd 38cd 00be
00000050: 9d06 a1bd 1636 cd3c 268b b63c 6bcd 8c3d
00000060: 1e1c 553c b57b 1bbd b45e dabc 2ee8 603d
00000070: 7fa6 613d d4d3 9c3d 1bb8 82bd c93c 63bd
00000080: 61a7 64bd 1566 8f3d 553f 563d dd2d 363d
00000090: e988 f4bd 97df a5bd f510 08bc b6a4 533b
000000a0: ded3 9f3b ff11 1b3d 86a0 0bbd d9a2 87bc
000000b0: 821c 46bd 931a be3d f2d6 cb3c 4601 a03b
000000c0: a6de 04bb 2089 753c 1c68 9d3c 6e1a 19bd
000000d0: cbf0 bfbd e1fb b9bd f0c0 133b 074c 7cbb
000000e0: 937c 3fbc 6843 82bb 460e 4c3b 3a6a 15bc
000000f0: c2ec e03d 8d89 b73d 4f9f 643d 75a4 2d3d
00000100: 048d 8e3c 5f48 1b3d 4aa7 0c3c 05de 94bb
00000110: 024a 32bc 6277 8dbc 2f25 63bd ce54 16bd
00000120: 03c2 4f3b 64cc 9a3c ab5d 493d 5400 5fbc
00000130: 2782 323c 59be 6f3c 8796 be3c 4eac 4fbc
00000140: 1e7b a4bc 3074 423d ebdf e4bb 37fe 2a3b
00000150: 602f dfbb a139 8cbc aaa7 49bb ea11 4b3b
00000160: f912 1fbd c8f1 70bd 527b 953d 6e5e b63d
00000170: 80db b33d 4086 663d aa65 513d 2a36 943d
00000180: f352 5abd f042 a5bd 0b03 9ebd 85ec 1e3d
00000190: 53ae 793d fe2a 96ba d9e8 bcbd 6c10 fabd
000001a0: b958 d2bd 33bf d8bd 3b45 17be 30c6 24be
000001b0: c628 953c f395 a4bb cf93 adbd 6bbc 6fbd
000001c0: 3ce8 97bd bf7c dfbb 7143 bbbc 2210 83bd
000001d0: c499 b0bd 4828 4e3d 2874 973c 2003 74bb
000001e0: 8989 033d b93b f5bc 7f59 76bd f679 0abe
000001f0: 69dd 31be 3030 46be a9a2 86ba 045b c23c
00000200: ab51 8f3c d7d7 3dbb 2dfe 873c 1ca3 0b3d
00000210: 8fef cb3b 920b 33bd 2e32 eebc febf bf3d
00000220: 4154 b53d ac3f 573d 98d3 253b ec71 8dbc
00000230: 19b6 59bd a41c 22be 502f 31be 9c60 53be
00000240: b9a8 cdbb f778 4ebc 6fca f93a bdf5 b2bd
00000250: 3de7 9fbd bd37 9ebd d891 953d 8451 4d3d
00000260: c45a 483d 2c74 53bb a738 b3bc 4a2a 04bd
00000270: acd0 553d 6325 0d3d 044e 9e3c 6f64 d83b
00000280: 86b5 f0bc 6412 31bd 1a44 b23d 9d0d b33d
00000290: 74ef 993d d2dc b8bd 7673 afbd e4f3 adbd
000002a0: 2851 aa3d 7d63 a73d c945 6a3d 2d44 ac3c
000002b0: 5d7b e3bb e61e 063d b5de 483d 7ded 5e3d
000002c0: 3f10 833d bda2 e2bc 65d2 65bd db10 a2bd
000002d0: 99ea 1fbd aa6f 56bd 9720 4bbd 5e3e 433d
000002e0: 2c4e 113d 3cd8 543d 340f 1a3d 0096 1a3c
000002f0: 6786 223c 65a2 a4bd 12c3 d0bd 52c5 d5bd
00000300: f957 eebc 7016 00bd 0ac5 c6bc 7679 3d3d
00000310: 5c10 503d cb55 043d d313 d03b 6a29 383b
00000320: c622 9ebb 266c e53b 4f99 153c a0e6 04bb
00000330: 8e7e de3d 4f97 bd3d 6617 9d3d b1c7 9cbd
00000340: 30d2 c3bd c27c debd d0e1 3a3d 2924 4c3d
00000350: 01da 473d db56 eb3d a7d3 ef3d 518f d33d
00000360: 3bdb e93c 4512 07bd b907 a53d 8d01 f4bb
00000370: ab6e 4abc 61b0 09bc 4103 dcbc 95fe bfbd
00000380: 0fef 53bd 6981 0bbd 0537 bcbd 2552 5abd
00000390: 5c55 bebc be1b 29bd 85c4 49bd 2f7a 96bc
000003a0: 0b8f 0fba 587c 57bc 38c3 9b3d e520 5c3d
000003b0: 5cc9 173d 994e 1fbd 59ab cebc 0329 8abc
000003c0: 9961 c73b 0282 49bc a401 a9bd d961 56bc
000003d0: 1cfe 99bc 845a dfbb 0d09 613d a132 b83d
000003e0: e761 b83d 6e1d 9bbc 5dc0 84bd 14ab a7bd
000003f0: 6bab 4dbd d332 37bc 1d0a ebbc c98d 613d

tfeb.5.weight f4 [32]
0.37448323 0.7993074 0.42029354 0.4095742 0.49373093 0.51609427 0.3082677 0.41107503
0.52128357 0.42215368 0.56921023 0.33733514 0.34355554 0.54317135 0.41846493 0.31749377
0.50444293 0.30557495 0.14216685 0.16488561 0.36290717 0.18818164 0.77249426 0.6146085
0.6840657 0.76189226 0.6400695 0.29017177 0.7270488 0.32541925 0.5448333 0.4769024
00000000: 44bc bf3e 699f 4c3f b730 d73e b6b3 d13e
00000010: 4dca fc3e c11e 043f 44d5 9d3e 6d78 d23e
00000020: d772 053f 8724 d83e c3b7 113f 31b7 ac3e
00000030: 83e6 af3e 470d 0b3f 0941 d63e 8b8e a23e
00000040: 2c23 013f 5274 9c3e 3094 113e c6d7 283e
00000050: f8ce b93e b0b2 403e 2fc2 453f fc56 1d3f
00000060: ee1e 2f3f 5f0b 433f 98db 233f 6591 943e
00000070: df1f 3a3f 5a9d a63e 327a 0b3f 8d2c f43e

tfeb.5.bias f4 [32]
0.35442907 -0.12630817 -0.029927718 0.12472472 -0.15794085 -0.13907766 0.06829484 -0.008790092
-0.17401063 0.04148637 0.013947556 0.0036529836 0.01361683 -0.14235815 -0.01889789 -0.3936404
-0.059373338 0.09806969 0.108372614 0.11619205 -0.13185191 0.03361784 -0.2576728 -0.0696664
-0.076154694 -0.17278948 -0.26129603 -0.09066525 -0.13591321 0.04186665 -0.05887705 -0.16503303
00000000: ba77 b53e ee56 01be f92a f5bc ad6f ff3d
00000010: 3fbb 21be 606a 0ebe 2ade 8b3d 5104 10bc
00000020: d82f 32be 9ded 293d 4a84 643c e566 6f3b
00000030: 2019 5f3c 56c6 11be bfcf 9abc 3c8b c9be
00000040: 7531 73bd c3d8 c83d 76f2 dd3d 19f6 ed3d
00000050: 3004 07be dcb2 093d b0ed 83be 42ad 8ebd
00000060: fef6 9bbd baef 30be 98c8 85be b4ae b9bd
00000070: d52c 0bbe 5d7c 2b3d 1029 71bd 6bfe 28be

tfeb.5.running_mean f4 [32]
-0.78305227 -0.5985585 -0.37779924 -0.61611336 0.33403382 0.030435 -0.49573886 -0.20588695
-0.020490754 -1.7725474 -0.5234092 -0.6258747 0.2015733 0.025973983 -0.10080268 1.0986563
-0.24152589 -0.25932378 -0.52659416 0.069423914 0.6718554 0.10675169 -0.23548934 -0.231071
-0.9085006 -1.247851 0.15893166 0.9855186 -0.2730411 -0.21695672 -0.33621383 0.560505
00000000: 1d76 48bf 213b 19bf e76e c1be 9bb9 1dbf
00000010: 7b06 ab3e d252 f93c 7cd1 fdbe 07d4 52be
00000020: 3adc a7bc d5e2 e2bf 25fe 05bf 5339 20bf
00000030: 3b69 4e3e 64c7 d43c a371 cebd c5a0 8c3f
00000040: 9052 77be 16c6 84be e0ce 06bf 202e 8e3d
00000050: b7fe 2b3f a1a0 da3d 1e24 71be e09d 6cbe
00000060: 7f93 68bf 95b9 9fbf fbbe 223e f24a 7c3f
00000070: 0bcc 8bbe e729 5ebe 3824 acbe 417d 0f3f

tfeb.5.running_var f4 [32]
0.3550782 0.5812697 0.19324 0.2305561 0.16027021 0.140851 0.1546958 0.2642011
0.19446974 0.5209029 0.21389225 0.12905551 0.16424477 0.22940539 0.29808065 0.0836386
0.2647619 0.10828235 0.05938146 0.11430875 0.16945706 0.10774361 0.5077749 0.24262647
0.4530504 0.7489313 0.19706514 0.10814853 0.27263594 0.20140198 0.15801275 0.18809882
00000000: cfcc b53e 17ce 143f b5e0 453e e616 6c3e
00000010: e01d 243e 3f3b 103e 9368 1e3e 5e45 873e
00000020: 1323 473e e459 053f 9206 5b3e 2127 043e
00000030: c82f 283e 3fe9 6a3e 079e 983e b74a ab3d
00000040: df8e 873e 23c3 dd3d f939 733d b51a ea3d
00000050: 2786 2d3e afa8 dc3d 89fd 013f 1373 783e
00000060: 39f6 e73e f6b9 3f3f 72cb 493e fa7c dd3d
00000070: f096 8b3e 523c 4e3e 18ce 213e fa9c 403e

tfeb.8.weight f4 [48, 32, 3, 3]
0.003976904 0.014048731 0.017000584 -0.031286173 -0.01871313 -0.018629583 0.055301223 0.045013685
0.05830899 0.0016471718 -0.0017787208 0.0045693205 0.13140972 0.11872285 0.07123354 0.082994774
0.075493716 0.049742963 0.067717664 0.087469615 0.061638482 -0.06530193 -0.031806443 -0.03209761
-0.036748394 -0.016425572 -0.029268904 -0.017492503 -0.03364896 -0.05217308 -0.03890164 -0.03338862
-0.054475985 -0.031693477 -0.053225685 -0.04453891 -0.049253024 -0.059115775 -0.051943712 -0.024174625
-0.005854563 -0.0045002177 -0.09769642 -0.08825478 -0.09436623 -0.047889892 -0.056404777 -0.06924033
-0.020103488 -0.0337721 -0.016691092 0.06499923 0.044142798 0.027178008 0.044934474 0.03631388
0.019634584 0.0008925111 -0.012743402 -0.024593221 -0.002989048 0.02488147 0.0024675287 -0.008318429
0.07747376 0.0424465 -0.042471066 -0.0032272337 -0.013406827 -0.044862248 -0.016371164 -0.01854764
0.028656071 0.028356865 0.042711206 -0.058062814 -0.07392016 -0.042835474 -0.009779558 0.04910245
0.003992442 0.017323278 0.009766169 0.009558828 -0.0034459557 -0.036209323 -0.050328255 -0.007998689
-0.029120455 -0.03852352 -0.053264845 -0.06554245 -0.061502073 -0.088368446 -0.14694996 -0.10441159
-0.058473438 -0.043178596 -0.077249646 -0.024371278 -0.024944453 -0.032456495 -0.07770267 -0.09305894
-0.097504646 -0.061012127 -0.063253134 -0.06485538 0.017161418 0.016911237 0.005925852 0.0117420945
-0.015693778 -0.010916354 0.0022999705 -0.020953413 -0.0021274793 -0.011643477 0.0041897213 0.01672301
-0.016539626 -0.013484575 -0.018759038 0.04575145 0.069791175 -0.003510775 0.05963721 0.081477165
0.061676525 0.034032587 0.043451473 -0.01943783 0.03619353 0.03219527 0.022215499 -0.051813353
-0.035686497 -0.030118674 -0.037852053 -0.038929015 -0.048889264 -0.064403675 -0.0816412 -0.09010803
-0.02585805 0.01172613 0.010268565 0.015942987 0.032754503 0.0058365557 0.05753566 0.09520813
0.05522516 -0.013471538 0.017955126 0.025771122 -0.02138999 -0.014615682 -0.008158804 0.06256558
0.026268668 0.03249238 0.06879485 0.04111869 0.05107619 -0.023119906 -0.03376956 -0.022857161
-0.047411393 -0.032249775 0.0020172435 -0.040850054 -0.022317613 -0.044190392 0.018284677 0.0074410248
0.009779984 0.006736619 -0.020689072 -0.029273659 0.05396279 0.06781267 0.0661209 0.038820837
0.035634443 0.042791747 0.06722485 0.049802896 0.073030934 -0.038611915 -0.011632434 0.027927047
-0.0014552315 -0.0050349394 -0.006531059 -0.0029872353 -0.019333739 0.00015906172 0.082125895 0.10672983
0.10098362 0.13490632 0.17084849 0.17337802 0.01356419 0.048840888 0.04295321 0.0063019115
-0.029880311 -0.02264468 0.0076630176 -0.024918415 -0.054322947 -0.037274145 -0.09287425 -0.09782043
0.0069464995 0.02875064 0.0216944 0.079002574 0.08571912 0.090293996 -0.033544347 -0.037615556
-0.020952038 0.046718955 0.025290277 0.016282758 0.053787924 0.034055192 0.016083134 0.026421927
0.014696984 0.002326837 -0.032756332 0.0013770456 -0.041950982 -0.029211545 -0.010536506 0.015910983
0.048005484 0.029448658 0.05976253 0.02405508 0.017605694 0.014028976 -0.021742545 -0.056588106
-0.04816363 0.039528355 -0.01226828 -0.023343952 0.018239427 -0.022342974 -0.023774432 0.0025710284
00000000: b050 823b a62c 663c cf44 8b3c ee25 00bd
00000010: 474c 99bc 119d 98bc 8983 623d 4560 383d
00000020: 68d5 6e3d eae5 d73a f723 e9ba 3dba 953b
00000030: 4590 063e f724 f33d e4e2 913d 2af9 a93d
00000040: 739c 9a3d 47bf 4b3d 8faf 8a3d 4523 b33d
00000050: a278 7c3d 05bd 85bd 7947 02bd c978 03bd
00000060: 7c85 16bd ec8e 86bc 57c5 efbc 704c 8fbc
00000070: 7ed3 09bd 71b3 55bd 5357 1fbd 81c2 08bd
00000080: 3622 5fbd 05d1 01bd 2d03 5abd 6f6e 36bd
00000090: 8abd 49bd 6223 72bd eec2 54bd dd09 c6bc
000000a0: a2d7 bfbb 9076 93bb 1015 c8bd ecbe b4bd
000000b0: 1543 c1bd 3128 44bd b208 67bd e0cd 8dbd
000000c0: 12b0 a4bc 9d54 0abd c2bb 88bc 511e 853d
000000d0: 14cf 343d 6aa4 de3c 360d 383d ddbd 143d
000000e0: b5d8 a03c 68f7 693a b4c9 50bc b977 c9bc
000000f0: e7e3 43bb 39d4 cb3c 43b6 213b 054a 08bc
00000100: 90aa 9e3d 62dc 2d3d 24f6 2dbd ff7f 53bb
00000110: 4fa8 5bbc 7ac1 37bd d21c 86bc 38f1 97bc
00000120: 23c0 ea3c a84c e83c f2f1 2e3d 46d3 6dbd
00000130: 7463 97bd 4074 2fbd 703a 20bc a71f 493d
00000140: 08d3 823b 8ce9 8d3c 4802 203c a19c 1c3c
00000150: 8bd5 61bb 3a50 14bd 0025 4ebd ef0c 03bc
00000160: 058e eebc d7ca 1dbd 3d2c 5abd 1f3b 86bd
00000170: 99e9 7bbd 84fa b4bd 0d7a 16be bed5 d5bd
00000180: d881 6fbd 0adc 30bd 1035 9ebd 46a6 c7bc
00000190: 4f58 ccbc 1af1 04bd 9422 9fbd af95 bebd
000001a0: 84b0 c7bd dae7 79bd dc8a 81bd e6d2 84bd
000001b0: 1a96 8c3c 6f89 8a3c a62d c23b ea61 403c
000001c0: 3d90 80bc 82da 32bc 1abb 163b 7ea6 abbc
000001d0: 2e6d 0bbb 48c4 3ebc ee49 893b b2fe 883c
000001e0: 1c7e 87bc 68ee 5cbc 8eac 99bc df65 3b3d
000001f0: adee 8e3d 0815 66bb 2646 743d 80dd a63d
00000200: 86a0 7c3d c165 0b3d 2cfa 313d 163c 9fbc
00000210: ab3f 143d 30df 033d 47fd b53c 3d3a 54bd
00000220: 012c 12bd 70bb f6bc c10a 1bbd 0874 1fbd
00000230: 1c40 48bd 13e6 83bd 8033 a7bd 8f8a b8bd
00000240: 43d4 d3bc f41e 403c 7c3d 283c de9a 823c
00000250: 9629 063d 9440 bf3b 83aa 6b3d 7bfc c23d
00000260: c733 623d bab7 5cbc a116 933c f61d d33c
00000270: 0f3a afbc 9d76 6fbc 81ac 05bc 6222 803d
00000280: 6431 d73c bb16 053d 50e4 8c3d 126c 283d
00000290: 4435 513d f565 bdbc f351 0abd f13e bbbc
000002a0: 7332 42bd 5718 04bd bb33 043b 6352 27bd
000002b0: 6dd3 b6bc fc00 35bd bfc9 953c d7d3 f33b
000002c0: 3a3c 203c dbbe dc3b 217c a9bc 50cf efbc
000002d0: 1608 5d3d 5ee1 8a3d 656a 873d 9902 1f3d
000002e0: 6cf5 113d 6646 2f3d 2fad 893d 1ffe 4b3d
000002f0: 3e91 953d 8727 1ebd f795 3ebc 43c7 e43c
00000300: 77bd beba 22fc a4bb 7e02 d6bb 7ec5 43bb
00000310: ca61 9ebc cec9 2639 9f31 a83d 2b95 da3d
00000320: 80d0 ce3d e224 0a3e e8f2 2e3e 028a 313e
00000330: 563c 5e3c 620d 483d b5ef 2f3d 4480 ce3b
00000340: 8ec7 f4bc 5681 b9bc 0d1a fb3b b421 ccbc
00000350: bd81 5ebd c6ac 18bd db34 bebd 1456 c8bd
00000360: 769f e33b 7686 eb3c 74b8 b13c 1acc a13d
00000370: 828d af3d 0fec b83d cc65 09bd c512 1abd
00000380: 9ca3 abbc 605c 3f3d 8e2d cf3c 6b63 853c
00000390: ba50 5c3d 757d 0b3d c7c0 833c cc72 d83c
000003a0: 9ecb 703c d97d 183b 812b 06bd fc7d b43a
000003b0: cbd4 2bbd 0d4d efbc 4fa1 2cbc c057 823c
000003c0: 66a1 443d 503e f13c 8ec9 743d 290f c53c
000003d0: d139 903c cad9 653c 6c1d b2bc eec8 67bd
000003e0: 3a47 45bd 7ce8 213d e500 49bc d13b bfbc
000003f0: da6a 953c 9d08 b7bc 99c2 c2bc b37e 283b

tfeb.9.weight f4 [48]
0.52328134 0.3613759 0.28925774 0.31043667 0.4684528 0.40651733 0.33024848 0.33192194
0.31531125 0.42930236 0.4206446 0.33777353 0.55937415 0.4258229 0.29777488 0.51661986
0.41950563 0.37312907 0.47223073 0.4447035 0.512143 0.40567726 0.30408219 0.35918596
0.38808635 0.7139588 0.35132754 0.3420203 0.25771442 0.45044747 0.53624684 0.30247274
0.2612006 0.32444334 0.46764362 0.3258419 0.4225535 0.49106306 0.29280812 0.3829237
0.6464186 0.405807 0.45091712 0.58183116 0.38494548 0.36223704 0.5529901 0.3661904
00000000: c4f5 053f 4306 b93e 9719 943e 8ef1 9e3e
00000010: 0cd9 ef3e 0a23 d03e 5416 a93e acf1 a93e
00000020: 7a70 a13e 85cd db3e bb5e d73e a7f0 ac3e
00000030: 2533 0f3f 7605 da3e f375 983e 3341 043f
00000040: 71c9 d63e c60a bf3e 3ac8 f13e 2db0 e33e
00000050: ce1b 033f eeb4 cf3e a9b0 9b3e 39e7 b73e
00000060: 41b3 c63e 01c6 363f 34e1 b33e 491d af3e
00000070: 25f3 833e 0da1 e63e 7947 093f b5dd 9a3e
00000080: 16bc 853e 701d a63e fc6e ef3e c0d4 a63e
00000090: ef58 d83e 9e6c fb3e f2ea 953e 930e c43e
000000a0: b07b 253f efc5 cf3e 9cde e63e e3f2 143f
000000b0: 9317 c53e 2277 b93e c290 0d3f 4f7d bb3e

tfeb.9.bias f4 [48]
-0.50200653 -0.062269066 -0.047154505 -0.00088515517 -0.27424 -0.22934954 -0.023603117 -0.04345174
-0.18185993 -0.18682806 -0.18994674 -0.17595255 -0.4799777 -0.31372002 -0.0025682426 -0.2991763
-0.16592863 -0.1706632 -0.48396242 -0.38181514 -0.39948708 -0.14297906 -0.20368756 -0.20125678
-0.051926807 -0.34018114 -0.014039603 -0.059591357 0.15131554 -0.2204523 -0.31376696 -0.28740427
-0.18462096 -0.30144286 -0.2905751 -0.20374927 -0.090732 -0.24418601 -0.1160362 -0.28395584
-0.26037046 -0.1251462 -0.5425133 -0.49246424 -0.21750169 -0.08089987 -0.17415516 -0.14938478
00000000: 8083 00bf d90d 7fbd 1525 41bd c209 68ba
00000010: 2f69 8cbe 9bda 6abe 535b c1bc 74fa 31bd
00000020: 7d39 3abe db4f 3fbe 6681 42be e82c 34be
00000030: a3bf f5be e99f a0be f64f 28bb a32d 99be
00000040: 32e9 29be 55c2 2ebe ecc9 f7be 467d c3be
00000050: 9289 ccbe 1a69 12be 7993 50be 4216 4ebe
00000060: 34b1 54bd 392c aebe 5d06 66bc 1116 74bd
00000070: 76f2 1a3e 3fbe 61be 10a6 a0be a726 93be
00000080: 470d 3dbe b856 9abe 42c6 94be a6a3 50be
00000090: b3d1 b9bd e60b 7abe 63a4 edbd a962 91be
000000a0: 474f 85be 5326 00be 27e2 0abf 4624 fcbe
000000b0: c3b8 5ebe d5ae a5bd bb55 32be 53f8 18be

tfeb.9.running_mean f4 [48]
-0.14830895 -0.58200216 0.31603327 -0.518585 -0.46430653 0.17325027 -0.08774981 -0.27619037
0.30680087 -0.5655586 -0.18031898 0.31157014 0.38431722 -0.5713665 -0.4993719 -0.15079471
-0.5932583 0.033078834 0.11244179 -0.06990087 -0.018070815 -0.3036218 -0.4331929 -0.26296818
-0.5629583 -0.5943073 -0.45853832 -0.31290367 -0.18885054 0.02646892 -0.37619555 0.172817
0.059549678 0.021215945 -0.95385134 -0.216103 -0.34521958 -0.31810185 -0.17813759 -0.42463702
-0.9039312 -0.4821018 -0.1775884 0.04025339 -0.40883076 -0.85159016 -0.5310256 -0.34772393
00000000: 4dde 17be 18fe 14bf 1dcf a13e fdc1 04bf
00000010: 96b9 edbe 8568 313e 2cb6 b3bd d368 8dbe
00000020: 0115 9d3e 73c8 10bf 8aa5 38be 1f86 9f3e
00000030: 3ac5 c43e 1345 12bf acad ffbe ee69 1abe
00000040: c7df 17bf ac7d 073d e247 e63d 3028 8fbd
00000050: 3f09 94bc 5174 9bbe 76cb ddbe c4a3 86be
00000060: 091e 10bf 8624 18bf 89c5 eabe e934 a0be
00000070: 0962 41be 59d5 d83c b49c c0be f1f6 303e
00000080: 5dea 733d 10cd ad3c 9a2f 74bf 1b4a 5dbe
00000090: 9fc0 b0be 3fde a2be b369 36be 066a d9be
000000a0: 0968 67bf 0cd6 f6be bcd9 35be bde0 243d
000000b0: 4452 d1be d001 5abf 4bf1 07bf df08 b2be

tfeb.9.running_var f4 [48]
0.06938997 0.12055246 0.07921409 0.111118175 0.14924979 0.09878373 0.10847126 0.07130825
0.06839093 0.115087874 0.086510964 0.12358667 0.10577458 0.13583106 0.09255004 0.10311132
0.087457605 0.0988797 0.108789 0.07542481 0.09906198 0.1433812 0.071401566 0.09559724
0.19241557 0.26490802 0.15580638 0.108694404 0.09901272 0.10769715 0.19497074 0.046246763
0.053054243 0.04279611 0.104961134 0.05332827 0.21096665 0.18020467 0.07561135 0.08228362
0.22919731 0.14099833 0.07155899 0.08815983 0.07932309 0.12965582 0.1963519 0.10897755
00000000: 541c 8e3d 35e4 f63d ff3a a23d ed91 e33d
00000010: f0d4 183e 204f ca3d 2e26 de3d 0f0a 923d
00000020: 8b10 8c3d 31b3 eb3d a92c b13d 021b fd3d
00000030: 58a0 d83d 4c17 0b3e e08a bd3d 072c d33d
00000040: f91c b33d 7181 ca3d c4cc de3d 5378 9a3d
00000050: 02e1 ca3d 85d2 123e fc3a 923d 7cc8 c33d
00000060: 9608 453e 06a2 873e b58b 1f3e 2c9b de3d
00000070: 2ec7 ca3d 5390 dc3d 69a6 473e 3f6d 3d3d
00000080: 684f 593d f94a 2f3d ddf5 d63d be6e 5a3d
00000090: a407 583e 9387 383e 20da 9a3d 5184 a83d
000000a0: b3b2 6a3e de61 103e 858d 923d 248d b43d
000000b0: 2574 a23d 7fc4 043e 7910 493e 9f2f df3d

tfeb.12.weight f4 [60, 48, 3, 3]
0.053492356 0.05541081 0.090034395 -0.054749664 -0.04789795 -0.02176457 -0.109278336 -0.09982754
-0.058807988 -0.060749542 -0.05704386 -0.031778656 0.075417265 0.055068605 0.049311925 -0.036552437
-0.057075307 -0.024979416 -0.028807087 -0.020048983 -0.026508225 -0.0376485 -0.052822288 0.045040514
-0.026194565 0.011279384 0.051044982 0.048860725 -0.008832083 0.022843877 0.12326271 0.09290246
-0.012767817 0.012708663 -0.04352235 -0.14114255 -0.018662265 -0.027981495 -0.038347073 0.07812582
0.08495326 0.12625621 -0.13512787 -0.0961349 -0.0847188 -0.014617926 -0.024405224 0.006010973
-0.056432914 -0.06837546 -0.06500275 0.03561239 0.025710443 0.044393774 0.0012642939 0.016529974
-0.033530254 -0.025648724 0.031504948 -0.004702632 0.01666926 0.052380543 0.03268722 0.019363265
0.058282677 0.08727804 0.0010322817 0.014461672 -0.0034748968 -0.044570856 0.01257253 0.028664386
0.05285758 0.034613825 0.023507139 0.026670072 -0.041257016 -0.060825367 0.08094255 0.073739134
0.02956769 0.036038034 -0.0052077794 0.0865527 -0.0083535835 0.020330755 0.027320389 0.06329808
0.031601895 -0.093370475 0.038156163 0.041254327 0.031739447 0.019061508 0.001509179 -0.010443365
0.01341136 0.047520254 -0.0069600814 -0.09001732 -0.06620449 -0.053060096 -0.017495105 -0.0031152603
-0.0032001552 -0.10350663 -0.11902939 -0.13019827 0.0118182935 0.07300537 0.008564738 -0.010071851
-0.02085622 -0.0850639 0.054474127 0.08255282 -0.033386998 -0.032685913 -0.045496162 -0.061885785
-0.016354708 -0.057275236 -0.08469031 0.058249034 0.037075598 -0.04880328 0.056803446 0.12786514
0.092727914 -0.017319193 -0.021854388 -0.094074614 -0.04926408 -0.059631743 -0.040732246 0.038515702
0.076122165 0.15345332 -0.016192684 -0.0066236616 0.007997225 -0.06865395 -0.024035389 -0.001326989
-0.0031927584 -0.027124139 -0.048370194 0.07579036 0.086508416 0.0023694125 0.056723434 0.051031485
-0.08850984 -0.015685383 0.034415618 -0.010862678 -0.07775919 -0.057297964 -0.07923663 -0.10232158
-0.028647132 -0.055758856 -0.06280948 0.029281108 0.017726567 -0.0964525 -0.055242345 -0.031491064
-0.04245566 -0.017002288 -0.0075930473 -0.03964874 -0.01284219 0.030081304 -0.013714518 -0.08694475
-0.030307014 -0.056553677 -0.023295125 0.0057367333 0.060582478 0.03134733 0.018442096 -0.047479752
-0.05612965 -0.050503206 0.052966148 0.046288773 0.06746821 -0.061178498 -0.099375255 -0.066264555
-0.10477665 -0.14223365 -0.09934149 -0.078629725 -0.06903961 -0.090008 -0.023971519 -0.04979701
-0.07405707 -0.008957961 -0.00946924 0.031507485 0.0028787209 -0.002132914 0.03897736 -0.037334654
-0.03463705 -0.031768814 -0.040997304 -0.12237681 -0.13334769 0.030273328 -0.038685195 -0.068816766
0.008928677 0.009536899 0.059749138 0.031709004 0.0830982 0.12946092 0.015673315 0.043196384
0.05367058 0.11760274 -0.005269234 -0.077719904 0.044752896 -0.0057991184 -0.1381754 0.020874973
0.008680836 -0.21716735 -0.004917814 -0.03439108 -0.019997241 0.036553144 0.056611273 -0.014004252
0.07382616 0.09449633 -0.02163532 -0.06357154 -0.0707889 -0.03965103 0.06776416 0.050545752
-0.008586088 0.027029783 -0.011385929 0.018940767 -0.04928821 -0.104446895 -0.10894976 -0.06554355
00000000: cd1a 5b3d 72f6 623d f463 b83d 2f41 60bd
00000010: a430 44bd 9d4b b2bc 52cd dfbd 6272 ccbd
00000020: a5e0 70bd 83d4 78bd d3a6 69bd 562a 02bd
00000030: 5e74 9a3d 9e8f 613d 4dfb 493d 02b8 15bd
00000040: ccc7 69bd a2a1 ccbc d7fc ebbc c43d a4bc
00000050: c727 d9bc 5035 1abd 2f5c 58bd 677c 383d
00000060: fc95 d6bc 2acd 383c 8b14 513d 2f22 483d
00000070: 71b4 10bc 1523 bb3c 2971 fc3d a543 be3d
00000080: 1b30 51bc ff37 503c 7e44 32bd ac87 10be
00000090: 9be1 98bc 7339 e5bc d211 1dbd 6e00 a03d
000000a0: fafb ad3d 4f49 013e f65e 0abe 60e2 c4bd
000000b0: 0d81 adbd 0780 6fbc 77ed c7bc b2f7 c43b
000000c0: 3326 67bd 6f08 8cbd 2920 85bd 4cde 113d
000000d0: b59e d23c 3fd6 353d aab6 a53a de69 873c
000000e0: 0557 09bd 461d d2bc 550b 013d 8918 9abb
000000f0: f98d 883c fb8c 563d 09e3 053d b69f 9e3c
00000100: d1b9 6e3d d4be b23d a04d 873a a6f0 6c3c
00000110: 18bb 63bb ee8f 36bd 03fd 4d3c 93d1 ea3c
00000120: 3181 583d 3ac7 0d3d 0b92 c03c 327b da3c
00000130: 1efd 28bd 0524 79bd 35c5 a53d 8b04 973d
00000140: f137 f23c 9e9c 133d 05a6 aabb 8b42 b13d
00000150: 78dd 08bc af8c a63c 02cf df3c 6ca2 813d
00000160: fd70 013d 0539 bfbd a349 1c3d 4cfa 283d
00000170: 3901 023d e126 9c3c a5cf c53a a61a 2bbc
00000180: 52bb 5b3c 99a4 423d 6511 e4bb 005b b8bd
00000190: 3896 87bd 8b55 59bd e551 8fbc 6529 4cbb
000001a0: b2b9 51bb 49fb d3bd aec5 f3bd b252 05be
000001b0: 84a1 413c d783 953d 1d53 0c3c 6804 25bc
000001c0: aada aabc fb35 aebd 4320 5f3d 7411 a93d
000001d0: cec0 08bd aae1 05bd 2f5a 3abd f37b 7dbd
000001e0: 4ffa 85bc 7099 6abd 1d72 adbd 8a96 6e3d
000001f0: 95dc 173d f3e5 47bd bbaa 683d 14ef 023e
00000200: 22e8 bd3d fbe0 8dbc f907 b3bc 31aa c0bd
00000210: 22c9 49bd 6a40 74bd dbd6 26bd a4c2 1d3d
00000220: f0e5 9b3d de22 1d3e 85a6 84bc 4d0b d9bb
00000230: cb06 033c 719a 8cbd dde5 c4bc 5dee adba
00000240: 993d 51bb 7133 debc d31f 46bd fa37 9b3d
00000250: 532b b13d 2548 1b3b d556 683d 6406 513d
00000260: a644 b5bd a27e 80bc 64f7 0c3d 60f9 31bc
00000270: 3640 9fbd 45b1 6abd d046 a2bd fa8d d1bd
00000280: 64ad eabc 6663 64bd 42a2 80bd efde ef3c
00000290: 4e37 913c e388 c5bd cc45 62bd c6fc 00bd
000002a0: fce5 2dbd 6248 8bbc 19cf f8bb b866 22bd
000002b0: 0d68 52bc 116d f63c dcb2 60bc 1710 b2bd
000002c0: 6a46 f8bc d4a4 67bd 6bd5 bebc 35fb bb3b
000002d0: 5525 783d 0f66 003d e113 973c 217a 42bd
000002e0: 34e8 65bd 73dc 4ebd 08f3 583d 4c99 3d3d
000002f0: c62c 8a3d 4e96 7abd 4185 cbbd b6b5 87bd
00000300: 2495 d6bd b3a5 11be 8d73 cbbd 9f08 a1bd
00000310: a464 8dbd 1d56 b8bd eb5f c4bc f3f7 4bbd
00000320: 3cab 97bd 69c4 12bc df24 1bbc fe0d 013d
00000330: eca8 3c3b 5cc8 0bbb b9a6 1f3d 39ec 18bd
00000340: 94df 0dbd 0420 02bd caec 27bd b1a0 fabd
00000350: 4c8c 08be c5ff f73c 5e74 1ebd ceef 8cbd
00000360: 9649 123c a740 1c3c 83bb 743d 4de1 013d
00000370: 642f aa3d 6791 043e 5365 803c b1ee 303d
00000380: afd5 5b3d b5d9 f03d 8aa9 acbb 9d2b 9fbd
00000390: d04e 373d 8806 bebb da7d 0dbe fe01 ab3c
000003a0: 113a 0e3c 1e61 5ebe 9d25 a1bb a9dd 0cbd
000003b0: 41d1 a3bc c0b8 153d 39e1 673d 1772 65bc
000003c0: 2b32 973d 4b87 c13d 8e3c b1bc cc31 82bd
000003d0: c5f9 90bd 1e69 22bd f0c7 8a3d 1009 4f3d
000003e0: aaac 0cbc 906d dd3c 0c8c 3abc ab29 9b3c
000003f0: 6fe2 49bd 41e8 d5bd 0d21 dfbd b23b 86bd
