torch/trained_models/k_16_c_4_fsc22_mixup_2_fold2.pt (torch, 387054 bytes, 42 tensors)

acfe.0.weight f4 [8, 1, 1, 9]
000000 d3 09 b2 be 87 10 52 3d a2 a0 db 3d ac 6a b0 3e
       -0.3477312 0.051285293 0.10723998 0.34456384
000010 e8 b7 a1 be 5b a2 0d bf c1 4c aa be 80 61 7a 3e
       -0.31585622 -0.5532586 -0.33261684 0.24451256
000020 6f be 63 3f c0 4b fa 3e 5a d7 c0 3e a5 c2 6a 3e
       0.88962454 0.48885918 0.376643 0.22925813
000030 26 ef bb 3e 7d de 8f bf d5 6e 53 bf 09 1f 68 3e
       0.36705893 -1.1239773 -0.8259099 0.22668089
000040 c2 ab 31 3e 95 07 b2 3d 77 84 b9 3d 68 0d 29 bc
       0.17350677 0.086928524 0.09058469 -0.010318138
000050 60 b0 6f bf 3d c9 8a 3f e6 5b 14 bf ae 88 04 be
       -0.936285 1.0842663 -0.57952726 -0.12942764
000060 12 1e 61 3f b1 4f 1a bf c9 9f 64 3e 49 22 c7 bd
       0.8793651 -0.6027785 0.22326578 -0.09723336
000070 bb c9 fe be e2 fe a6 be 8e f1 9a be d2 8c a3 be
       -0.49763283 -0.32616335 -0.30262417 -0.31943375
000080 3d 69 08 be c7 21 29 3f 44 b3 5b 3f 8d 7b 65 3e
       -0.13321395 0.66067165 0.8582041 0.22410412
000090 a0 5f 85 3e 39 74 c5 3d 1a 2c f7 3d fd d5 1f 3f
       0.2604952 0.09641308 0.120689586 0.62435895
0000a0 bc 58 a8 3e 53 2b c5 be ae 5b 0b be 0a 6d 07 bf
       0.328802 -0.38509616 -0.13609192 -0.52900755
0000b0 92 55 20 bf 01 80 38 bf ba c5 dc be 48 ad 88 3d
       -0.6263057 -0.7207032 -0.43119603 0.06673676
0000c0 b0 41 54 3e bf 98 25 3e 1f d5 35 bd 19 ec 2d 3e
       0.20728183 0.1617155 -0.0443927 0.16984595
0000d0 90 2a d6 3c 59 15 a1 bd de 51 8b 3e 58 7d 37 bf
       0.026143342 -0.078654 0.27210897 -0.71675634
0000e0 17 e8 06 3f 7d 38 3e bf fc 11 cd 3e 47 11 fc 3e
       0.5269789 -0.74304944 0.40052783 0.49231932
0000f0 e6 81 2e bf 5d 40 55 3f 57 88 b3 be 9a c3 15 3f
       -0.6816696 0.83301336 -0.35064957 0.5850159
000100 50 1b d8 3e 26 ea f0 bd 90 f9 47 be 99 cb 24 bd
       0.42208338 -0.1176341 -0.19528794 -0.04023323
000110 4a ef ca 3c 41 1b 43 be 74 e6 9a 3b 2f f7 b5 3d
       0.024772305 -0.19053365 0.004727179 0.08885037

acfe.1.weight f4 [8]
000000 94 40 28 3f df 56 54 3f dc 55 05 3f af 5c 59 3f
       0.6572354 0.82945055 0.52084136 0.8490705
000010 a2 bf 29 3f 15 0d 1f 3f 0f d9 f9 3e b6 70 14 3f
       0.66308033 0.62129337 0.48798415 0.57984483

acfe.1.bias f4 [8]
000000 77 49 17 3f f6 c9 d8 3d ca d8 82 3e 0b 08 73 3d
       0.59096473 0.10585396 0.25556022 0.059333842
000010 fa 55 fc 3e 17 85 ea 3d 0f dc 2d 3f 01 c2 07 3e
       0.49284345 0.11451166 0.6791391 0.132576

acfe.1.running_mean f4 [8]
000000 dc 0c f1 b6 f8 e5 76 b4 ce 2c 51 b6 73 e3 a6 b6
       -7.1838567e-06 -2.2994197e-07 -3.1169507e-06 -4.973664e-06
000010 38 9d a5 37 39 86 4f 38 b0 4c 03 b6 aa 21 3c b8
       1.9742743e-05 4.947765e-05 -1.956516e-06 -4.4854045e-05

acfe.1.running_var f4 [8]
000000 e2 e1 ee 3a 00 e4 51 3b 20 97 33 3a f3 06 95 3b
       0.0018225277 0.0032026768 0.00068508275 0.0045479476
000010 27 66 67 3b 16 68 1e 3b 9f ac 10 3a 1b f6 ed 3a
       0.003530869 0.0024170927 0.00055188866 0.001815501

acfe.3.weight f4 [64, 8, 1, 5]
000000 fc 97 8a bc 93 fe de bc e3 3e 8f bc b7 b0 72 bd
       -0.016918175 -0.027221 -0.017486041 -0.05925056
000010 43 08 29 bd f7 b5 92 3c 7b eb 60 3c 9e 54 85 3c
       -0.041267645 0.017909033 0.013728018 0.0162757
000020 4b f4 f2 bc 9a 7e 90 bc 68 3b 9c bc 53 5d 26 bd
       -0.029657504 -0.017638493 -0.019071296 -0.040616345
000030 95 22 7e bd 9e 65 cb bc a5 b7 63 bc 83 24 99 bc
       -0.0620447 -0.024828728 -0.013898765 -0.018694168
000040 71 c1 6f bc ad 1f 80 bb 48 f6 1e bc a6 8e 3b bd
       -0.014633522 -0.003910026 -0.009702273 -0.045790337
000050 78 05 c2 3b 92 b7 72 3c 9b 77 9c bc 6f 88 e2 bc
       0.005921062 0.014814274 -0.019100001 -0.027652947
000060 79 6a 19 bc ff 87 ad bc f1 09 41 bd 2e 39 13 bd
       -0.009363764 -0.021183012 -0.04712862 -0.035943203
000070 9d c1 22 bd be 0b aa bc 14 0f c6 3b 3a 70 b5 bc
       -0.039735425 -0.020757552 0.006044278 -0.02214824
000080 92 54 99 bb 77 c7 c1 bc 45 ae be bc e1 4c 63 3d
       -0.004679271 -0.023654683 -0.023276458 0.05549324
000090 4b 79 95 3d 4c 9a 87 3d e5 d1 60 3d 11 56 2a 3d
       0.072985254 0.06621227 0.05488767 0.041585986
0000a0 ee ec 41 3d 73 3c ab 3d 3b b0 c4 3c f1 68 22 3b
       0.047345094 0.08361139 0.024009814 0.0024781788
0000b0 47 37 52 bd 12 85 45 bd 19 c9 93 ba 7b 9a 2a bc
       -0.051322248 -0.04822261 -0.0011275142 -0.010412808
0000c0 26 d6 47 bd 76 b2 11 bd 41 01 25 bd 80 4d 21 bd
       -0.048788212 -0.035570584 -0.0402844 -0.03938055
0000d0 40 08 cb bc 2c d5 88 bb 2e b2 69 bb ca 6a 05 3d
       -0.024784207 -0.0041758027 -0.0035659182 0.032572545
0000e0 46 7b 39 3c b8 30 8b 3d 73 ed ee 3c a0 c7 0f 3c
       0.011320895 0.06796402 0.029165959 0.008775622
0000f0 eb ad b3 bd 6d cb 89 bd 98 88 41 bd 72 5c 45 bd
       -0.087734066 -0.067282535 -0.047249407 -0.048183866
000100 ba 13 69 bd 2d 45 d5 39 bd 9d 99 bd 4d d9 6c bd
       -0.05690358 0.00040678066 -0.07500789 -0.05782442
000110 93 fe 87 bd 33 cb c1 bd f6 62 f3 3a 88 17 72 bd
       -0.06640353 -0.09462585 0.0018568921 -0.059104472
000120 ee cc 15 bc 26 36 6c 3b bf c2 b6 bc 08 b6 5a 3d
       -0.009143097 0.0036043017 -0.022309659 0.053396255
000130 72 f9 c1 3d e8 e5 d3 3d 64 49 f0 3d f8 ed c7 3d
       0.09471406 0.103465855 0.11732748 0.09762186
000140 6b 63 71 bd 09 d6 e4 bc eb 69 84 bd a5 6b fc bc
       -0.058932703 -0.027934091 -0.06465515 -0.030813048
000150 bf a0 06 3d 1c 7c f7 bd eb a1 bd bc cb 89 80 ba
       0.032868143 -0.12084219 -0.023148498 -0.000980669
000160 bb 11 13 bd 9e cd 42 3c 35 8d df bc cc 42 59 3c
       -0.03590558 0.011889843 -0.027289012 0.0132605545
000170 93 e5 33 bd 28 94 0a bd 38 42 4a 3b 69 13 00 bd
       -0.04392011 -0.0338327 0.0030862223 -0.03126851
000180 57 fc 9f bd 14 6f 89 3b cf 46 cd bc 5d 8e 24 3b
       -0.07811802 0.0041941497 -0.025058178 0.002510927
000190 d0 26 ed bc 55 dc 80 3c 70 75 d7 3c ff 94 ce 3b
       -0.028949171 0.015730062 0.026301116 0.006304383
0001a0 13 4b 7a bb 00 f1 1a 3e 56 c0 24 3e ae 3a 36 3d
       -0.003819172 0.15130997 0.16088995 0.044489555
0001b0 d0 a1 90 3d 4c 87 e8 3d e3 c0 e2 3c c4 c3 4d bd
       0.07062113 0.11353931 0.027679866 -0.050235525
0001c0 fd d7 63 bd 53 af e6 bb 81 19 d3 bc eb f5 3a bd
       -0.055625904 -0.0070399432 -0.025768997 -0.045644682
0001d0 d8 ac 16 bd b2 a0 f4 bd 21 ec 1a be c3 9e ec bd
       -0.03678593 -0.11944713 -0.15129139 -0.11553719
0001e0 ba 03 7e 3c ce c5 7a 3d 0d 44 d0 bc 37 64 32 bd
       0.015503818 0.061223798 -0.025423074 -0.043552604
0001f0 82 4c 58 bd 46 a3 c7 bc fc 60 21 bd eb ef cc ba
       -0.05280734 -0.024369847 -0.039399132 -0.0015635466
000200 5e ee d8 bc 97 77 b2 3c 1d 6f ec bb be c2 93 3b
       -0.02648085 0.02178554 -0.007215394 0.004509299
000210 db 82 b9 bc bc 80 64 bc 7c 9c 37 bd c6 0c 17 3d
       -0.022645405 -0.013946708 -0.04482697 0.036877416
000220 ec 80 a2 bc 00 a3 f7 3c 5c 5a bd bb 67 25 f9 3b
       -0.019836865 0.030229092 -0.005778594 0.0076033357
000230 f4 0a 5b bd 93 d9 55 bd b7 3a 9e bd 19 c5 be bc
       -0.053477243 -0.052209448 -0.07726043 -0.023287343
000240 53 b1 25 3a 3b 6a 03 be df 46 0d be 61 d8 ff bd
       0.0006320674 -0.12833492 -0.13796566 -0.12492443
000250 c4 81 f2 bd 94 34 60 bd 4f d8 9d bc d5 3e e6 bc
       -0.11841157 -0.054737642 -0.019268183 -0.028106133
000260 65 db 1d bd 29 d5 44 bd 91 98 b4 3c f8 ee c9 3d
       -0.03853931 -0.048054848 0.022045406 0.09860033
000270 eb 7a 29 3e 3e 03 29 3e d2 b8 51 3e 4e bf 2d 3e
       0.16550796 0.16505143 0.2048066 0.16967508
000280 97 2f d4 bb 84 a4 03 3d 49 64 2a bc 3f e7 18 bd
       -0.0064753997 0.032139316 -0.010399886 -0.03732991
000290 5c 64 7f 3d 93 a8 bf bd 11 86 ae bd 76 4b a4 3b
       0.06235157 -0.09358325 -0.08521665 0.0050138785
0002a0 7e e6 81 3b 3e ef d2 3b 0a 8f 3f 3d 83 ca 14 bd
       0.0039642444 0.0064372113 0.046767272 -0.036325943
0002b0 8f 8b c3 3c 60 40 69 bc 24 e7 97 bc 95 30 08 3e
       0.023870258 -0.01423654 -0.018542834 0.13299783
0002c0 03 82 f0 bb d8 3d 75 bb 41 21 2f be 26 4d c7 bd
       -0.0073397174 -0.0037420895 -0.17102529 -0.09731512
0002d0 80 8c c0 bd a6 16 90 bd a1 81 ab bd 3f 37 60 be
       -0.09401798 -0.0703557 -0.08374334 -0.21896075
0002e0 f2 3e 48 be ab 30 dd bd 45 18 3c be e9 13 3f bd
       -0.19555262 -0.10800298 -0.18368633 -0.046649847
0002f0 e1 cc ee 3c f1 2d fe bd 53 5d e4 3b 63 bf 1a bd
       0.029150428 -0.124111064 0.006969133 -0.037780177
000300 47 29 47 bc 8e f7 0f bc 63 2a 42 bb 94 ee 68 3e
       -0.012155837 -0.008787049 -0.0029627315 0.2274726
000310 d6 57 08 3e 50 f4 fa 3d e8 f8 35 3e 57 47 1d 3e
       0.13314757 0.1225363 0.17770731 0.15359245
000320 04 9a cc bd af 87 29 be af fb 74 bd d0 56 04 bc
       -0.09990314 -0.16555665 -0.059810337 -0.008077338
000330 d8 59 71 bd f2 d3 13 be 29 04 d1 3c 1f 0b f5 3c
       -0.058923572 -0.1443632 0.025514679 0.02991253
000340 50 f0 01 3d a8 5e 6c 3d f9 ef ee bc 1b 74 bd bc
       0.03172332 0.05770746 -0.029167162 -0.023126652
000350 dc a1 98 bc 0d 14 26 bc 8e fd be 3b 45 54 37 be
       -0.018631868 -0.010136616 0.005828566 -0.1790324
000360 29 7c fd bd 6e 3e 09 be 36 49 d1 bd 5b ce 1d be
       -0.12377197 -0.13402721 -0.10219042 -0.1541075
000370 85 a3 8c 3d 20 93 d2 3d 4e 26 03 3e f1 93 af 3d
       0.068671264 0.10281968 0.12807581 0.085731395
000380 5d 9c 74 3d 9c 04 3b 3e 7f ab 86 3e d0 de 82 3e
       0.059719432 0.18263477 0.26302716 0.25560617
000390 f0 26 95 3e c5 31 8f 3e 95 9a 82 bc 80 ed bd bb
       0.2913127 0.2796766 -0.015942851 -0.0057961345
0003a0 58 4e 61 bc 46 b7 9e bc cb 51 14 3d 3a 68 ef bd
       -0.013751589 -0.019374501 0.036210816 -0.116898015
0003b0 54 49 20 be 8e 15 c0 be cb f8 8d be c3 10 3c be
       -0.15652972 -0.37516445 -0.27728876 -0.18365769
0003c0 1e 2f e2 3b 00 a3 7b bc 18 ae ab bd 93 97 36 be
       0.0069025895 -0.015358686 -0.08382815 -0.17831258
0003d0 03 4a 76 be 44 31 1b bd d1 7b 35 bc 33 67 cf bc
       -0.2405167 -0.03788878 -0.011076883 -0.025317764
0003e0 22 89 83 3b f5 85 12 bd f4 14 a8 bd 86 f3 60 3c
       0.0040141502 -0.035772283 -0.082071215 0.0137299355
0003f0 65 6f dd bb 3d b2 bb bc 7a 21 cc bd 10 5c a4 bd
       -0.006757664 -0.02291214 -0.09967323 -0.08025372

acfe.4.weight f4 [64]
000000 0b d4 13 3e e2 29 36 3e cf 59 6d 3e 6d 08 bb 3e
       0.14436357 0.17789415 0.2317879 0.36529866
000010 07 d8 d5 3e 41 70 68 3f 8b 6f 39 3f 65 d9 64 3f
       0.41766378 0.90796286 0.72435826 0.8939422
000020 81 ba 37 3f 54 ed 65 3f 69 fb 2e 3f e6 b7 80 3e
       0.7176896 0.8981526 0.6835237 0.25140303
000030 11 4b 08 3e c1 6d a5 38 e8 de 69 3e 23 26 05 b7
       0.13309886 7.8882564e-05 0.22838938 -7.936297e-06
000040 cd 71 bc 3e 7d 69 13 3f a0 ac 0d 3f ee 1b 0c 3f
       0.36805573 0.5758284 0.5534153 0.5473012
000050 4d 30 8c 3f b2 7c 18 3f 94 64 e5 3e 69 a4 8c 3e
       1.095224 0.5956527 0.44803298 0.27469185
000060 da 16 f6 bd 51 a9 a7 3e 29 e8 13 3f 10 32 b0 3f
       -0.12016077 0.32746366 0.57776123 1.3765278
000070 f4 d1 9d 3f 60 51 37 3f c0 9d 98 3e 20 72 60 b6
       1.2329698 0.71608543 0.29807854 -3.344503e-06
000080 ca a4 1f 3f 08 e2 41 3f 6b d2 1b 3f c6 45 1e 3f
       0.62360823 0.7573552 0.6086795 0.61825216
000090 53 9b 13 3f 7e 09 35 38 ee 3a 15 3f fd fd 78 3f
       0.5765888 4.3162603e-05 0.58293045 0.97262555
0000a0 97 50 12 3f 1a 52 36 3f 93 cd 06 3f 46 6b d5 3e
       0.5715422 0.7121903 0.5265743 0.41683406
0000b0 e9 4b ce 3e f1 fd fb 3e ee 79 0c 3f d6 c1 22 3f
       0.4029229 0.4921718 0.5487355 0.6357702
0000c0 64 ab 4c 3f 39 9e 11 3f a8 58 33 3f a1 bd 0b 3f
       0.7994902 0.56882054 0.70057154 0.54586226
0000d0 71 b2 81 3f 1d 4b 3b 3f b3 56 6c 3f e0 27 27 3f
       1.0132581 0.7316149 0.9231979 0.6529522
0000e0 2d b3 93 3e d5 94 dc 3e 5b 58 af 3e 1a 52 66 3e
       0.28847638 0.430823 0.34247097 0.22492257
0000f0 5e 23 4b 3e cc 8d e6 3d 3c 92 b6 35 d2 b4 1f 36
       0.1983771 0.11257514 1.3602616e-06 2.3798098e-06

acfe.4.bias f4 [64]
000000 64 1f 0a 3e 00 bd f2 bd b8 3e 2b 3d be 6a 21 3e
       0.13488537 -0.11852455 0.04180786 0.15763375
000010 a1 40 c5 bc 66 c6 4c bd 36 b0 6c 3e 41 c5 c7 bd
       -0.024078669 -0.049993895 0.23114094 -0.0975442
000020 00 7f 2a 3e 7f e2 63 3d 76 e3 f1 bd b6 bf dd bd
       0.16650009 0.055635925 -0.11810963 -0.108275816
000030 ab aa 07 3e f8 cb 83 b9 06 48 a4 3d 99 ef f7 b8
       0.13248698 -0.00025138236 0.0802155 -0.00011822506
000040 b4 b4 c7 bc b8 9e f6 bc 5e 06 3a 3e a2 89 46 3d
       -0.024378158 -0.03010498 0.18166491 0.0484711
000050 70 20 23 bd 64 4e 4a 3b c0 88 1a 3d 82 40 47 bd
       -0.039825857 0.0030869478 0.03772807 -0.048645504
000060 47 16 7c 3e a2 93 36 bd c1 eb 6a 3d a2 19 f6 3c
       0.24617873 -0.044574387 0.05735374 0.03004152
000070 47 ee 83 bc a7 bd 54 bd be e0 03 3e 2e f0 01 b9
       -0.01610483 -0.05193868 0.12878701 -0.00012391873
000080 06 f0 1c bd 65 ce 44 bd 36 1a f8 bc ff 55 85 ba
       -0.03831484 -0.048048396 -0.030285936 -0.0010172724
000090 02 e1 24 3b 3c 36 00 bb ab 26 19 3e 03 d7 82 bd
       0.002515853 -0.0019563576 0.14956157 -0.063886665
0000a0 a0 cc 9f 3c fa dd 0b bd bd 4e bf bb 74 66 4b bd
       0.019506752 -0.03414724 -0.0058382438 -0.049658254
0000b0 4f 4e 43 3e e7 b3 87 bd f9 31 e1 bc 67 ba 09 3d
       0.19072841 -0.066261105 -0.02748965 0.033625033
0000c0 09 2c 56 bd 21 b7 7b bd 3b 40 33 3e eb 84 8c bb
       -0.05228809 -0.061453942 0.1750497 -0.004288306
0000d0 f6 8e 13 bd ff 76 cd 3b 0a 9c 9d bb d1 e5 33 bd
       -0.03602501 0.006270289 -0.004809861 -0.043920342
0000e0 4b 8d d4 3d ee 40 dd 3c 4a 9c ce 3c 0c 46 56 bd
       0.10378512 0.0270085 0.025221009 -0.052312896
0000f0 0c 56 77 3d 08 9f 3c 3e 7a d9 39 ba 83 b6 a0 ba
       0.060384795 0.1842004 -0.00070895965 -0.0012261424

acfe.4.running_mean f4 [64]
000000 6a 12 57 be 82 b4 21 be cb 73 7b be 8d cf 48 be
       -0.21003118 -0.15791515 -0.2455589 -0.19610424
000010 a7 9e b7 be 74 f4 20 be 6a 94 c3 be e3 02 bc be
       -0.3586323 -0.15718251 -0.38199168 -0.36720952
000020 56 d2 a8 be 4f b8 9f be 36 c7 26 bf 2a 16 ac be
       -0.32972974 -0.31195304 -0.6514772 -0.3361066
000030 7f 7a 24 be b8 ae 17 ba c6 c7 97 be b7 06 e4 39
       -0.16062354 -0.0005786228 -0.29644603 0.00043492552
000040 16 a0 0b bf ec 78 c7 be b7 a0 d5 be 47 fc af be
       -0.54541147 -0.38959444 -0.41724178 -0.3437216
000050 69 b6 03 bf 92 a3 c6 be 08 d5 02 be 39 16 05 be
       -0.5145021 -0.3879667 -0.12776577 -0.12996759
000060 10 81 78 3e 16 77 61 be 48 59 c6 be a4 f8 f4 bd
       0.24267983 -0.22018084 -0.3873999 -0.11961487
000070 c2 94 3a bf 40 86 ed be 01 4b de be 25 f4 00 3a
       -0.72883236 -0.46391487 -0.43416598 0.0004919193
000080 49 a4 4a bf 27 0d ce be 46 de c1 be fb b2 0f bf
       -0.7915693 -0.4024441 -0.37864894 -0.5613248
000090 22 40 19 bf 31 00 1e bb f8 8b 4b bf b6 0f 0e bf
       -0.59863484 -0.0024109 -0.7951045 -0.55492723
0000a0 7b 91 2f bf 1f 41 a5 be 9d c9 11 bf a3 05 c4 be
       -0.6858136 -0.32276246 -0.5694826 -0.3828555
0000b0 f6 7c de be 48 a3 d6 be c8 92 0e bf d8 a4 83 be
       -0.43454713 -0.4192145 -0.5569272 -0.25711703
0000c0 47 4f ec be b0 7f 15 bf 9c 06 f0 be 0f 9e e8 be
       -0.46154234 -0.5839796 -0.46880043 -0.4543309
0000d0 41 7f 26 bf e8 d0 29 bf bf 68 88 be cf 18 79 be
       -0.65037924 -0.6633439 -0.26642415 -0.2432587
0000e0 a6 0c 82 be 0a ac 51 be a4 7b 6e be 10 f7 96 3d
       -0.25400275 -0.20475784 -0.23289353 0.07371342
0000f0 7f 40 66 bd 12 0e 9f 3d c4 2a 23 3a 94 78 ad ba
       -0.056213852 0.077663556 0.0006224329 -0.0013234788

acfe.4.running_var f4 [64]
000000 34 46 f4 3c ab 51 6e 3d 2f f0 b9 3d 74 ef 06 3e
       0.029818632 0.058183353 0.090790145 0.13177282
000010 a2 eb 34 3e f3 5d e6 3e 1f 57 65 3e 1d 03 c8 3e
       0.17668012 0.44993553 0.22396515 0.39064875
000020 56 cc 8c 3e cf 78 cb 3e f4 04 cb 3e 4a 93 ee 3d
       0.27499646 0.39740607 0.39652216 0.11649187
000030 d8 43 71 3d ad 3c 17 34 18 07 ea 3d c5 f7 e3 33
       0.05890259 1.4085045e-07 0.11427134 1.061558e-07
000040 75 2e 4c 3e 5b 21 bf 3e 32 81 62 3e c3 d1 9b 3e
       0.19939597 0.37330136 0.22119597 0.30433473
000050 86 61 23 3f a8 f8 aa 3e 97 76 80 3e ba b0 6b 3e
       0.63820684 0.33392835 0.25090477 0.23016635
000060 0e bd 7e 3d de bd 2a 3e d8 a1 99 3e fc f6 5c 3f
       0.062192015 0.16673991 0.3000629 0.8631437
000070 cd eb 56 3f 36 3b db 3e 5e 4f 05 3e 0c 1b 0c 34
       0.83953553 0.42818612 0.13018557 1.3048356e-07
000080 20 b7 e8 3e aa 13 b8 3e 83 e9 b1 3e 54 d6 bb 3e
       0.45452213 0.35952502 0.34748468 0.36686957
000090 be f6 99 3e e0 1f 14 37 52 e3 5b 3e 9d 43 cd 3e
       0.30071062 8.828909e-06 0.21473435 0.40090647
0000a0 f3 f9 61 3e 22 b9 7e 3e 8e a7 4d 3e 6c cf 0c 3e
       0.22068004 0.2487531 0.20083448 0.13751
0000b0 d1 a9 c8 3d ff 98 4c 3e 61 a5 6f 3e df 49 90 3e
       0.09798015 0.19980238 0.23402931 0.2818136
0000c0 20 c8 ab 3e 84 7b 96 3e ca 85 54 3e a5 7e ae 3e
       0.3355112 0.2939111 0.20754161 0.34080997
0000d0 c4 27 02 3f 81 57 09 3f 2b 33 18 3f 22 77 d6 3e
       0.5084193 0.53649145 0.59453076 0.41887766
0000e0 d0 b7 22 3e bb 44 91 3e 19 19 5c 3e a1 d7 08 3e
       0.15890431 0.2837275 0.21493949 0.13363506
0000f0 c6 5c 02 3e 20 f1 38 3d 58 b3 62 35 e2 0b 4d 36
       0.12730703 0.04515183 8.445254e-07 3.0554297e-06

tdfe.0.weight f4 [32, 1, 3, 3]
000000 71 45 59 bd fb 63 5b 3c b2 09 a3 bb fd 09 3d 3e
       -0.05304474 0.013390536 -0.004975521 0.18460841
000010 5c 39 b2 bd f5 fd 1e 3e e5 bb 9e be 1e 91 88 be
       -0.08702347 0.15526564 -0.31002727 -0.26673216
000020 5f ed bb be 48 54 5b 3e 6b 7c 68 3e 46 1a 07 bf
       -0.36704537 0.2141887 0.22703712 -0.52774465
000030 17 5d 15 3e 32 55 43 3e a5 ac f3 be c0 dc 5b 3e
       0.14586292 0.19075468 -0.47592655 0.21470928
000040 76 97 b8 3e 92 1f 4f bf ff 16 e8 bd fd 24 0c be
       0.36053056 -0.8090755 -0.11332511 -0.13685985
000050 84 c5 e7 bd b6 f8 29 be 00 7b 8f be f7 6b 5f be
       -0.1131697 -0.16598782 -0.2802353 -0.21818529
000060 47 02 a1 3e 66 ea 48 3e c5 1a 82 bd c8 b1 1b bb
       0.3144705 0.19620666 -0.06352762 -0.002375709
000070 9c 27 dd 3a 41 8e 69 bd c7 da 36 bd 1b 17 84 bd
       0.0016872766 -0.05702043 -0.044642236 -0.064497195
000080 48 d7 74 3d de 73 1d 3e 47 2f d0 3d d0 84 2c 3e
       0.05977562 0.15376231 0.101652674 0.16847539
000090 74 a6 fa bd 32 3e b7 3d a4 7d 10 bd f8 98 0b be
       -0.1223878 0.0894741 -0.03527607 -0.13632572
0000a0 46 74 8f 3d a0 dd 82 3c 0d 94 9c bd 23 bd 30 3e
       0.07004599 0.01597482 -0.07645426 0.1725965
0000b0 1d fa ec 3d 1c 2f 98 3e d8 0f 1d 3e 2a d0 b3 be
       0.11571143 0.29723442 0.15338075 -0.35119754
0000c0 95 24 ab 3e 14 47 57 3e bf 56 c0 be 9d bd 6f 3e
       0.33426347 0.21023208 -0.37566182 0.23412175
0000d0 5c 57 f7 3d a8 ac bc be bb 43 31 3d 58 e7 23 3e
       0.12077209 -0.36850476 0.043277483 0.1600622
0000e0 40 37 38 be 8b 2d 67 3d bc 76 97 3c 80 2f 64 bd
       -0.17989826 0.056439918 0.018489234 -0.055709362
0000f0 85 3d 93 bd 94 af 28 be 1d 95 89 3e 05 f3 f7 3d
       -0.07189468 -0.16473228 0.26871577 0.12106899
000100 09 e2 3a 3e 1c 2e 31 3d 4a 00 cd bd ba 9b 44 be
       0.18250288 0.043256864 -0.10009821 -0.1920003
000110 07 51 36 be eb f0 06 be 02 61 86 be 5c 34 68 be
       -0.17804347 -0.1317784 -0.26245886 -0.22676224
000120 82 c0 0f 3e d0 c3 65 bd e0 95 5b bc a2 de f5 be
       0.1403828 -0.056094944 -0.013402432 -0.48021418
000130 63 f7 71 be a7 31 1b 3e d5 dd 36 3e fb 81 9e bb
       -0.23629527 0.1515566 0.1785806 -0.004837272
000140 e3 6f 24 bd 34 af 84 bd 3a 70 8e be 76 73 5a be
       -0.040145766 -0.0647873 -0.27819997 -0.21333107
000150 3d 1a 8b bc 23 79 9d 3e 05 0e 01 bd 4c 43 b2 bd
       -0.016980285 0.30756482 -0.03150751 -0.08704242
000160 28 9a 97 be b3 9e 1d be 07 7e 5b bd bd 68 b5 bd
       -0.296098 -0.1539257 -0.053586986 -0.08857868
000170 67 df 03 be e1 80 00 3d 65 ce 0e bd fa e7 83 3d
       -0.1287819 0.03137291 -0.034864802 0.064407304
000180 50 7e 00 3e e8 ba 93 3d 70 c5 8d 3d d6 a6 1b be
       0.12548184 0.07213384 0.06922424 -0.15200362
000190 c5 c3 0f be 23 1e b4 bd 9b 29 42 be 0a f2 4f be
       -0.14039524 -0.087948106 -0.18961184 -0.20307174
0001a0 30 36 fd bd 53 dc 31 3e 3f 9c 1e bc 08 c5 c2 bd
       -0.12363851 0.17369203 -0.009680807 -0.09510237
0001b0 03 11 cf be 27 e5 56 3d 48 33 a7 3e 19 72 04 bf
       -0.40442666 0.05246463 0.32656312 -0.517366
0001c0 11 f7 aa bd c2 8a ab 3e 20 fb 14 bf 3f 73 9f bd
       -0.083479054 0.335043 -0.58195686 -0.07785653
0001d0 2d 60 c4 3e 86 c0 3a be 42 6c c7 be d5 c3 8d be
       0.38354626 -0.18237504 -0.38949782 -0.2768847
0001e0 95 e5 30 3d bf 42 0d 3d 06 06 9c 3e 06 a9 e6 bd
       0.043187696 0.034487482 0.30473346 -0.112627074
0001f0 48 59 8c bd f1 05 9e bd 20 0c bd 3e ac 38 bc bd
       -0.068529665 -0.07715977 0.36923313 -0.09190497
000200 a8 ca 96 be 6e 68 a2 3e f5 63 18 bd 2b 3c 9e be
       -0.2945149 0.317203 -0.0372047 -0.3090528
000210 6a fe 66 3e e1 98 c7 bd d1 34 8f be a9 36 c0 bd
       0.22557989 -0.09745956 -0.27969983 -0.093854256
000220 23 95 b1 bd b8 71 13 ba 67 ae 00 be 0c c9 3b be
       -0.08671024 -0.00056245504 -0.12566529 -0.18338412
000230 58 b7 06 be dd cd c7 bd 44 67 40 be fa e5 27 be
       -0.13155878 -0.09756062 -0.18789393 -0.16396323
000240 cd b9 07 bf f1 30 ad 3e 47 d3 a8 3e c5 37 01 bf
       -0.53017884 0.33826402 0.32973692 -0.5047572
000250 59 a8 ae 3e 3c 06 b2 3e 48 a8 de be cd 1b fe 3d
       0.34112814 0.3477038 -0.43487763 0.12407646
000260 09 b7 50 3e 39 f5 e1 3e c9 a8 29 be 75 b3 06 bf
       0.20382322 0.44132403 -0.16568293 -0.5261758
000270 09 72 a3 3e f9 97 75 bd 30 e3 c7 be 48 dd ed 3e
       0.3192294 -0.059959386 -0.39040518 0.46457887
000280 c3 c6 75 be dd 15 1c bf 01 e2 bb 3d 08 82 5c 3d
       -0.24001603 -0.6097086 0.09173966 0.053834945
000290 5a dc ee 3d 9e df f1 3d 47 68 b9 3c fa 7b b6 3d
       0.116631225 0.1181023 0.022632731 0.089103654
0002a0 19 59 65 bc bc 3e b4 bc 96 2f f1 3c 12 e9 12 be
       -0.013998293 -0.02200257 0.029441636 -0.14346722
0002b0 c2 3b 85 bd 08 2e 0f bd ab aa dc 3e 72 8a 8c bd
       -0.065055385 -0.03495601 0.4309896 -0.06862344
0002c0 4d ec 91 be d4 b3 54 be 24 0d 0b be 9c d7 f6 bd
       -0.28500596 -0.20771724 -0.13579232 -0.12052843
0002d0 98 70 32 bd 26 69 4e 3c 56 bd 0d 3d b2 57 96 bd
       -0.04356441 0.0125983115 0.034604393 -0.07340945
0002e0 ef 34 4a 3e 54 ab 88 3e 3f 33 de bc a2 f9 94 be
       0.19746755 0.26693213 -0.027124045 -0.29096705
0002f0 cb 64 ca be 38 7c 38 3e cf d5 ed 3d e2 53 98 3c
       -0.39530024 0.18016136 0.116130464 0.018594686
000300 04 80 fa 3d 29 d5 04 3e 42 88 b4 bd 12 53 ac 3d
       0.12231448 0.12971939 -0.088150516 0.08414282
000310 62 92 1b bc 47 27 f0 bd c3 e4 d4 3e a7 8b 8b be
       -0.00949535 -0.117262416 0.4158078 -0.27254984
000320 0b e8 4f be d8 b4 e7 3e 2e d7 e3 be a8 75 44 be
       -0.20303361 0.4525516 -0.44500107 -0.19185507
000330 fb bf 42 3f 01 87 2a bf 82 2c b8 be 98 85 05 3e
       0.7607419 -0.6661225 -0.35971457 0.13039243
000340 f2 36 36 3b 64 bb b4 bd ca 46 18 be 2e 3d 40 be
       0.0027803746 -0.088248044 -0.14870754 -0.18773338
000350 7a cf 62 be c9 a0 c2 bd 4f 9f 05 be 32 26 f1 bd
       -0.22149459 -0.095033236 -0.13049053 -0.11774863
000360 0a 6d 93 bc 1e 2d 52 bd f7 6c d3 3c 9c b6 45 be
       -0.01799633 -0.05131256 0.025808794 -0.19307941
000370 22 3a 80 be 9f 23 12 be 7e 80 f2 bd 19 72 73 be
       -0.25044352 -0.14271401 -0.11840914 -0.23773994
000380 66 42 44 be 3c 0e e6 be 2a 2e 35 3f 50 5b cb be
       -0.19165954 -0.44932735 0.70773566 -0.39718103
000390 22 1b 37 be 5d 28 59 3e c8 dc 46 be 17 72 2d bf
       -0.17881444 0.21206804 -0.19420159 -0.6775221
0003a0 6b 53 8b 3f 2b 10 21 bf 1b 3a e7 be 4b ed 94 be
       1.0884832 -0.62915295 -0.45161518 -0.2908729
0003b0 de 88 24 3f 5c 96 ab be e1 76 9a be b0 b2 ea 3e
       0.6427134 -0.33513153 -0.30168822 0.45839453
0003c0 aa 21 ff be fc d4 9c be c3 5b 04 3f 9d 27 a6 be
       -0.4983037 -0.30631244 0.5170252 -0.32452098
0003d0 0a 2b fd 3d fc fd 58 3d 7c 63 8f be c8 b2 ab 3d
       0.12361725 0.052976593 -0.28005588 0.08383709
0003e0 61 0e 87 3d fd f6 c8 be 0e c5 9b 3d 35 d0 43 3d
       0.065945394 -0.39250937 0.076059446 0.047805984
0003f0 40 44 01 be f0 ce 62 be 70 2c aa bd 6f 87 0a be
       -0.12623692 -0.22149253 -0.08309257 -0.13528226

tdfe.1.weight f4 [32]
000000 e0 e3 94 3e e6 68 e3 3e 69 e0 8d 3e 7f f8 ef 3d
       0.29080105 0.4441597 0.27710274 0.11717319
000010 2c 11 5a 3e ac 78 37 3e b0 13 4c be 2d 5f d7 3e
       0.21295613 0.17917126 -0.19929385 0.420648
000020 45 88 9f 3e 6c 88 04 3f fd 12 ea 3d 73 5f bd 3e
       0.31158653 0.51770663 0.11429403 0.36986884
000030 9b 0e 8f 3e b1 3a 94 3e 21 4f d7 3e f8 1d 85 3f
       0.2794083 0.28951028 0.42052558 1.0399771
000040 aa 36 48 3e 88 76 98 3e b1 db df 3d c7 32 f9 3e
       0.19552103 0.29777932 0.10930575 0.48671553
000050 9a 09 8c 3e 68 32 5a 3e 40 3e d0 3e cb 67 8d 3e
       0.27351075 0.21308291 0.40672493 0.2761825
000060 57 ac 14 3f c7 cb d4 3e 82 40 c8 3e ea 25 02 3f
       0.5807547 0.4156172 0.39111716 0.508391
000070 d0 aa 9f 3e f5 ed cd 3e 8f 13 a9 3e 85 0b ec 3e
       0.31185007 0.4022061 0.33022735 0.4610254

tdfe.1.bias f4 [32]
000000 65 86 8c 3e 80 cf a0 3b f4 f1 b9 3d 75 c0 7a 3e
       0.27446285 0.0049075484 0.09079352 0.24487479
000010 fa e4 e9 be 50 50 69 3e 2f e3 8d 3c 30 22 c4 3c
       -0.45682508 0.22784543 0.017320244 0.023942083
000020 4f 13 05 3e 13 f3 f7 bd 98 cd 1b 3e 8f 32 d0 bc
       0.12995647 -0.121069096 0.15215147 -0.025414733
000030 ee cd d8 3e 9e d2 a7 3e ee 4a 5f bf 91 3a c9 be
       0.42344612 0.32777876 -0.8722371 -0.39302495
000040 fc 26 53 3d f3 59 17 3f 0f 27 b1 3e 48 74 38 be
       0.05155085 0.59121627 0.34600112 -0.18013108
000050 27 8d d6 3d 04 cf 33 bf bc 3f 0e 3d ae 5f 8f 3e
       0.104761414 -0.70237756 0.03472875 0.28002685
000060 37 ee b4 bd 47 68 5e bc a4 be 96 3c 32 26 10 be
       -0.088344984 -0.013574666 0.018401451 -0.1407707
000070 86 0c 35 3c 1f 2c 85 3d 91 87 ae 3d 91 c6 08 be
       0.011050349 0.06502556 0.08521951 -0.13356997

tdfe.1.running_mean f4 [32]
000000 23 4b ad be 7c df 57 be 7d 36 8b be b0 d9 14 3e
       -0.33846387 -0.21081346 -0.2719001 0.14536166
000010 ab 28 32 3d 24 11 f5 3d a6 bc 0e 3d b4 d4 af be
       0.043495815 0.1196616 0.034847878 -0.34341967
000020 00 fe 2c be 69 84 c5 be 64 6b ce 3c df 5c c5 be
       -0.16893768 -0.38577583 0.025197692 -0.38547418
000030 e3 6d 86 be ee 47 ac be d3 e5 bb bd 33 4c fe be
       -0.26255712 -0.33648628 -0.09174695 -0.4966751
000040 72 38 d2 3d 62 45 b6 be 5a f4 66 3e ea 24 95 be
       0.10264672 -0.3559981 0.2255415 -0.29129726
000050 9c ba 14 be 47 32 50 3e 9e ba 75 be 7e 36 cb be
       -0.14524311 0.2033168 -0.2399697 -0.39690012
000060 1c bb 0b bf 38 8d 6f be 53 29 87 be 95 21 81 be
       -0.5458238 -0.23393714 -0.26398715 -0.25220934
000070 41 c3 8d be d7 af 8f be 6e 19 a7 be f9 e5 8a be
       -0.2768803 -0.28063843 -0.3263659 -0.2712858

tdfe.1.running_var f4 [32]
000000 55 34 ac 3e b0 a7 ad 3e ed ee 8a 3e 63 be 8c 3d
       0.33633676 0.33916998 0.2713541 0.06872251
000010 ba 43 d9 3c 90 03 34 3e b7 7e 4a 3c 4d a5 b1 3e
       0.026521552 0.17579484 0.012359313 0.34696427
000020 c7 95 e7 3d e4 67 9f 3e d5 de 11 3d df 42 a2 3e
       0.11307865 0.3113395 0.0356129 0.31691644
000030 45 43 ba 3e 53 36 9b 3e 94 2c 07 3e 05 f9 ef 3e
       0.36379448 0.30314884 0.13200599 0.46869674
000040 74 77 86 3e ae 4e ff 3e d0 22 d4 3d bd c7 42 3e
       0.2626301 0.49864715 0.103582025 0.19021507
000050 47 c0 13 3e 5e f8 d1 3d f1 a8 d8 3e 05 33 ac 3e
       0.14428817 0.102524504 0.42316392 0.33632675
000060 11 2f 19 3f b3 08 e0 3e 73 11 ec 3e c4 af 35 3e
       0.5983744 0.43756637 0.46107063 0.1774283
000070 79 f6 6f 3e 0d 10 db 3e 79 0b 57 3e e1 e9 38 3e
       0.23433866 0.42785683 0.2100047 0.18057968

tdfe.4.weight f4 [32, 32, 3, 3]
000000 9b d0 f4 3d a9 a3 34 3b fe 4f d8 bd cd 35 c7 3d
       0.11953851 0.002756337 -0.10562132 0.097270586
000010 78 42 90 bc b5 80 ed bd dd 1a 6f 3d d5 7b 7e 3d
       -0.01760982 -0.115968145 0.05837523 0.062129814
000020 c6 d1 6c ba e2 a6 84 3c f2 91 c2 bb 54 57 46 bd
       -0.0009033944 0.016192857 -0.005937808 -0.048423126
000030 02 b6 d1 ba a1 8b 52 bd 18 94 ab bd db 17 1a 3d
       -0.0015999677 -0.05140269 -0.08377856 0.037620407
000040 52 ce a7 3c 77 07 f4 bd 7e dd 7f 3b 17 37 3b 3a
       0.020484123 -0.11915486 0.0039041932 0.0007141693
000050 cc a7 3e 3d b9 8f 97 3d 97 db b8 bc 3e 72 9d bd
       0.046546742 0.0740046 -0.022565646 -0.076878056
000060 5b f9 51 3d 38 ed 15 bd 75 64 47 bd 7c 9c 62 bd
       0.051263195 -0.036603183 -0.048679788 -0.055325016
000070 fb 45 f5 bb 83 09 7c 3b 8f 3a 54 bd 58 d5 da bb
       -0.007485149 0.0038457818 -0.05181366 -0.0066782646
000080 d7 cc 23 ba ea 02 00 bd 68 42 1a 3c b3 10 fd 3c
       -0.000624848 -0.03125278 0.009415247 0.030891752
000090 03 86 72 3d f0 89 d2 bd 2b 48 29 bd c9 4f 3c 3d
       0.059209835 -0.10280216 -0.04132859 0.045974527
0000a0 00 76 06 be 0f c4 23 bd 7a 11 e9 3c ea 88 b9 bd
       -0.13130951 -0.039981898 0.028450716 -0.090593174
0000b0 fc 6d 56 3d c9 32 a8 bd 47 2c 5b 3c 81 a6 07 3d
       0.052350983 -0.082128115 0.013377256 0.033117775
0000c0 52 0f f8 bd c5 5f 0b bd ec 9c fa 3c f7 97 ca bd
       -0.12112297 -0.03402688 0.030592404 -0.09892266
0000d0 f5 79 2e bc 52 fd 2a bd 78 e8 46 bc 80 58 cd 3b
       -0.010649194 -0.04174549 -0.012140386 0.0062666535
0000e0 dc da d3 bb 6b a9 0a bd dc be 2f 3c 4f bd a3 bc
       -0.006465299 -0.033852976 0.010726657 -0.01998773
0000f0 d3 1f ba bc 43 ca df bc 05 50 2e bd e4 d2 05 3e
       -0.022720253 -0.027318126 -0.04255678 0.1306873
000100 f0 a8 53 bd e6 cd eb bd 51 59 fa 3d 30 c1 88 bd
       -0.051674783 -0.115138814 0.12224067 -0.066774726
000110 7d db 23 be 0c 5f 91 3d da 6c 66 bd d4 fc b4 bd
       -0.16001697 0.07098207 -0.056256153 -0.08837286
000120 9c 4d 4e bc 37 3a 57 3c 82 8b 64 bd fa 88 e4 3b
       -0.012591746 0.013136438 -0.055797108 0.0069743367
000130 b1 75 28 3d f0 c7 8e bd 51 0e 55 bc f0 55 83 bb
       0.041127864 -0.06971729 -0.013003902 -0.0040080473
000140 a7 b3 a9 bc f9 d0 0f 3e e1 db 69 bd cd 6b ca bd
       -0.020715548 0.1404456 -0.05709446 -0.098838426
000150 db 50 26 3e 21 a9 42 bd f4 ab e5 bd d9 26 02 3e
       0.16241781 -0.047524575 -0.11214438 0.12710132
000160 85 7c 20 3c ea 79 e6 bd 6e c7 36 bd 01 e8 55 ba
       0.009795313 -0.11253722 -0.044623785 -0.00081598765
000170 22 d3 14 3c 26 f6 1b bd ce 8d 84 bc 4b 1f ab bc
       0.009083541 -0.038076542 -0.016180899 -0.020888945
000180 ee 2d 83 bc 73 b9 12 bc e8 71 1b bc d6 23 76 3d
       -0.016013112 -0.008955347 -0.009487607 0.06009277
000190 66 4c 65 bc ba fc a1 b9 ff 0f 13 3e 54 b4 a8 bc
       -0.013995266 -0.0003089661 0.14361571 -0.0205938
0001a0 45 4a d6 bd 10 29 fd 3d c6 b2 f0 bb 24 b0 c9 bd
       -0.104633845 0.12361348 -0.00734553 -0.09848049
0001b0 37 f7 1f 3d 2c 45 f5 3c 45 9b 1d bd cf 82 ac 3d
       0.03905412 0.02994021 -0.038478155 0.08423387
0001c0 fb af ca 3d 2c d1 bb bc 3e dc 64 3d 3c 47 11 3d
       0.09896847 -0.02292689 0.0558741 0.035468325
0001d0 18 5e aa bc e2 f9 3f 3d ad e7 46 3d fd d8 95 bc
       -0.02079682 0.046869166 0.048560787 -0.018291945
0001e0 c8 45 01 3e 37 51 07 3d 51 39 99 bd d5 46 00 3e
       0.12624276 0.033036437 -0.07481635 0.1252702
0001f0 74 fa 0a 3d a3 5a dc bd a0 c1 f5 3a f0 8e 94 bc
       0.033930257 -0.10759475 0.0018749721 -0.018134564
000200 3e df 43 bd 05 a5 4e bc b9 50 63 bd 0e 18 57 bd
       -0.047820322 -0.012612586 -0.055496905 -0.052513175
000210 05 aa da ba a7 30 04 bd 60 e7 25 bd 3e 98 40 3e
       -0.001668275 -0.03227296 -0.04050386 0.18808076
000220 e0 4b 59 bd 6f 07 1e be e3 f3 89 3e aa 9a d7 bc
       -0.053050876 -0.15432523 0.26943883 -0.026318867
000230 32 de 37 be 16 0e 53 3e b8 cf 1d bd c5 36 59 be
       -0.17955855 0.20610842 -0.038528174 -0.21212299
000240 05 44 0f bd 58 36 bb 3c 79 b3 2f bc 39 6c c6 bc
       -0.034976978 0.022853062 -0.010723942 -0.024221526
000250 20 ac cc 3d 4b 51 db 3c a4 bf b6 bc 85 1f 00 3c
       0.09993768 0.026772162 -0.022308178 0.007820015
000260 10 e0 03 bc e0 2f 53 3c 27 fc 71 bc 9e b1 55 bd
       -0.008049026 0.012889832 -0.01476959 -0.052171342
000270 c6 62 07 bd d5 f0 c0 bd 51 19 0f be bc b4 10 bd
       -0.033053182 -0.09420935 -0.13974501 -0.03532861
000280 23 cb 4a 3c 89 cb ac bd 00 97 1d bd 0d 03 6a bb
       0.012377533 -0.08437259 -0.038474083 -0.0035707385
000290 92 4e 26 bc 31 e6 79 bd f9 ae 9c 3b 20 b7 bb 3c
       -0.010150569 -0.061010543 0.0047816006 0.02291447
0002a0 72 a1 33 bd 84 48 f1 ba a6 17 8f bb ab 39 61 3d
       -0.043855138 -0.0018408452 -0.004366833 0.054986637
0002b0 69 3f e0 bd 8b 4b 48 bd f6 d1 d4 3d 0f f9 92 bd
       -0.109495945 -0.04890017 0.10391609 -0.071764104
0002c0 53 15 44 bd dd 18 1e 3d 55 f1 39 bd c6 e2 4d bd
       -0.0478719 0.03859793 -0.045396168 -0.050265096
0002d0 93 c9 0c 3d 22 c9 36 bb 2c df 2a bd 7e 05 81 3b
       0.034371924 -0.002789088 -0.04171674 0.0039374223
0002e0 03 8e 84 3b 45 2f 55 bd dd 0d 4e bc 93 6f ec 3c
       0.0040452494 -0.052047033 -0.012576547 0.028861796
0002f0 47 df bb bb c0 9f 3f 3d 7f a5 71 bc 65 91 02 bd
       -0.005733404 0.04678321 -0.01474893 -0.03187694
000300 e5 97 93 3d 2a 3f f9 bc 5c 8c 34 bd 95 d3 5e 3d
       0.07206706 -0.030425627 -0.04407917 0.054401
000310 3c bc 95 bd 33 26 b0 bd 69 91 82 3c 54 e0 9e bc
       -0.073112935 -0.08601036 0.015938478 -0.019394077
000320 3c 84 e4 bc aa d7 e1 bc de fc 85 bd 4c 23 2a bd
       -0.027895086 -0.027568657 -0.06542371 -0.041537568
000330 42 8d e5 bc 7d d3 a7 3c 2f e2 97 bd c5 a9 e5 3d
       -0.028021459 0.020486588 -0.07416188 0.112140216
000340 61 9d b5 3c 3e bb b2 bd 49 6f ff 3d 14 39 13 bc
       0.02216977 -0.0872712 0.12472398 -0.008985776
000350 b4 b7 0f be 6e e7 93 3d b0 fc 02 3d e2 1c 48 bd
       -0.14034921 0.07221876 0.031979263 -0.04885567
000360 a0 a4 80 3e d3 b6 28 bc 7f 2c 1e be c7 7f 90 3e
       0.251256 -0.010297495 -0.15446661 0.28222486
000370 6d 0b 4b bc 49 bc 4e be 50 20 53 3e 4a 0d 8d 3c
       -0.012392861 -0.20189013 0.20617795 0.01721825
000380 58 80 e5 bd 97 36 62 bc c3 54 02 3b 94 b7 48 bc
       -0.1120612 -0.013806961 0.0019886948 -0.0122508
000390 69 0b cf ba bd da 22 bd 9e 37 c0 3c 42 5e 59 ba
       -0.0015796247 -0.039759386 0.02346402 -0.00082919386
0003a0 bd 4c ba bc 55 47 47 bd 1d 45 9e 3d 6a 6d c2 3c
       -0.02274167 -0.048652012 0.07728026 0.023733813
0003b0 8a 2d 8d bd 41 f8 ab 3d bc 05 9b 3d b7 42 bc bc
       -0.068934515 0.0839696 0.07569453 -0.02298103
0003c0 f8 18 36 3d 71 b0 17 3d 06 e8 63 bd f2 bf 9f bc
       0.044457406 0.037033502 -0.055641197 -0.019500706
0003d0 3c 64 94 3d 5d 5f 8c bd 54 b8 e8 3c d4 26 18 3e
       0.07245681 -0.068541266 0.028408207 0.14858562
0003e0 38 73 36 bd dc 10 77 3c 41 c3 63 3d eb 3c 31 bd
       -0.044543475 0.015079703 0.05560613 -0.043270987
0003f0 9c f2 8b 3c d0 8e 8b 3d a0 b5 dd 3c 73 9a a7 3d
       0.017083459 0.06814349 0.027064145 0.08183756

tdfe.5.weight f4 [32]
000000 c7 1a 10 3f 81 95 79 3e 65 06 75 3e da e3 96 3e
       0.5629086 0.24373437 0.2392822 0.29470712
000010 7e ba 10 3f 92 93 9f 3e 49 50 ae 3e 8e 52 37 3f
       0.56534564 0.31167275 0.34045628 0.71610343
000020 e3 38 bd 3e 2f 51 9f 3e b1 c9 8f 3e f4 e4 6b 3e
       0.36957464 0.31116626 0.28083566 0.23036557
000030 af b1 03 3e dd f3 0b 3f ca 9f 4f 3f dc 60 9d 3e
       0.1286075 0.5466898 0.81103194 0.3073796
000040 bd 24 8e 3e 0a 3a 7b 3f 2a e3 ef 3e 93 12 d2 3e
       0.27762404 0.98135436 0.46853 0.41029796
000050 39 be a0 3e 72 0e f1 3e b9 c4 3b 3e 38 a0 1d 3f
       0.31395128 0.47081333 0.18336762 0.615726
000060 cd ee d5 3e 7a e0 0a 3f 26 7f 5a 3e 2d 28 f4 3e
       0.41783753 0.54248774 0.21337566 0.47686902
000070 74 8b f1 3e 50 9d f9 3e 04 d4 07 3f 58 16 34 3f
       0.47176707 0.48752832 0.53057885 0.70346594

tdfe.5.bias f4 [32]
000000 00 d8 a7 be 33 9c 96 3d 4f 47 22 3f 17 65 3d be
       -0.32781982 0.073540114 0.6339006 -0.18495594
000010 f8 58 28 be 8d 77 50 bd 55 1b 81 3e 5f 90 4c bd
       -0.16440189 -0.050895263 0.25216165 -0.04994237
000020 94 59 c2 3d 68 e5 9d bc 53 7d 36 3d 7c b3 a5 3c
       0.09489742 -0.019274428 0.044553112 0.020227186
000030 08 e3 21 be fd 5d f6 bd fa aa 0b be 29 02 e5 3d
       -0.15809262 -0.120296456 -0.13639441 0.11182053
000040 81 e2 e8 bb 19 61 96 be 67 2d a4 bc 72 b6 a7 3c
       -0.0071070795 -0.29370955 -0.02004118 0.020472739
000050 1f cc 64 bd a6 3f 01 bd 14 0e 89 3d 5b 9b fe bd
       -0.055858728 -0.03155484 0.06692138 -0.124319755
000060 c8 f0 61 be eb 47 77 bd 69 b7 15 3e 8f 90 e5 bd
       -0.22064507 -0.06037132 0.14620747 -0.11209213
000070 c3 57 d8 bb eb 45 18 be 8c 82 56 bd f8 aa 06 be
       -0.006602259 -0.14870422 -0.052370593 -0.13151157

tdfe.5.running_mean f4 [32]
000000 37 2d 52 be 5d 84 03 bf b4 df 3a bd aa 5e 62 3f
       -0.2052506 -0.51373845 -0.045623496 0.88425696
000010 33 b2 54 be be da a6 bc 0f 27 0d 3e d9 da c1 bf
       -0.20771103 -0.020367976 0.13784431 -1.5144912
000020 e2 69 a3 be 5c 93 19 be 9f b0 67 be 13 40 d3 3d
       -0.3191672 -0.1499762 -0.2262597 0.103149556
000030 a6 0c fe be 01 9d be 3d c1 1c 3e bf 88 a5 55 bf
       -0.49619025 0.0930729 -0.74262625 -0.83455706
000040 e4 4f 80 3e 1b f9 15 bf ec 46 ef be 51 89 81 bd
       0.25060952 -0.5858323 -0.46733797 -0.06325019
000050 71 f1 0a bf f6 4f 2f bf 5f c4 a6 be 7b 23 10 be
       -0.5427466 -0.68481386 -0.32571694 -0.14076035
000060 6c c3 cc 3e af 63 fc bd 74 f9 18 bf 8d ea 40 3e
       0.39992845 -0.12323701 -0.59755635 0.18839474
000070 3b 14 e5 3d ae 00 46 3e 63 3f 7a bf bf d9 3b bf
       0.11185499 0.19336197 -0.9775297 -0.7337913

tdfe.5.running_var f4 [32]
000000 0b e4 cf 3d 40 94 07 3e 39 bb 88 3e 58 4e d2 3d
       0.101509176 0.13240147 0.2670534 0.10268849
000010 58 c2 05 3e e9 5c 49 3e 6c bf 0f 3e 54 2e 51 3f
       0.13062418 0.19664349 0.14037865 0.81711316
000020 09 52 be 3e 8b 68 3b 3e d2 ec 32 3e 63 f2 e3 3d
       0.37171963 0.18301599 0.17473152 0.11130216
000030 87 24 76 3e 0a 8d 92 3e cd d9 dd 3e 9b 6e 20 3e
       0.24037372 0.2862323 0.4333023 0.15667193
000040 83 e9 f3 3d 27 3b 53 3f 7f 4e 36 3e c7 d2 71 3e
       0.11909773 0.82512134 0.17803381 0.23615561
000050 42 32 f7 3d 58 9b 5c 3e 2a ce b6 3d 03 57 cd 3e
       0.12070133 0.21543634 0.089260414 0.40105447
000060 21 15 d7 3d e3 0c 78 3e d4 ce 62 3e a2 27 42 3e
       0.10502077 0.24223666 0.22149211 0.18960431
000070 41 29 e3 3e 21 6d 5b 3e 5c 47 a4 3e 90 88 c5 3e
       0.44367412 0.21428348 0.32085693 0.3858075

tdfe.8.weight f4 [48, 32, 3, 3]
000000 00 5a 9c 3b 7f bb ac bd 21 0a 24 3d 7f f6 42 bc
       0.004771471 -0.084341995 0.040048722 -0.01189959
000010 59 37 9b 3d 30 8b 15 3b bb 67 a8 3c c7 b1 18 bd
       0.07578916 0.0022818558 0.020557275 -0.037278917
000020 63 d6 c7 39 0c da 36 bd c7 72 8e bc 19 a1 b8 bd
       0.00038115968 -0.04464154 -0.017388714 -0.09015102
000030 12 99 c7 bd 1f 12 8c bc 25 7c 67 3b ed 4c de 3c
       -0.09745993 -0.017098485 0.0035321799 0.02713629
000040 d0 c6 88 3c 2d 15 8d bd 66 15 a3 bb b2 7e f7 bc
       0.016696364 -0.068888046 -0.004976916 -0.03021178
000050 39 b5 f2 3d a7 1c 86 bd 35 d3 f7 bd cd 4f 8f 3d
       0.11850972 -0.06548434 -0.121008314 0.06997643
000060 f6 16 8b bc 6a 01 48 3e 40 6a f9 3d 82 dc 83 3c
       -0.016978722 0.1953179 0.12178469 0.016096357
000070 d0 c6 fb 3c 8c 33 85 3c 4b a0 64 3d 7f 34 0c 3d
       0.03073445 0.016259931 0.05581693 0.03422975
000080 2a 8b d7 3a da 99 44 ba 0f 6d ed bc d3 13 57 bd
       0.0016444672 -0.00074997323 -0.028982667 -0.05250914
000090 7d eb c4 bd 16 1f 20 be 77 a8 c5 bd 2f e7 96 bd
       -0.09615228 -0.15636858 -0.09651273 -0.073683135
0000a0 d2 c6 ce bd 4e 27 88 3d 12 77 43 3d 71 21 1d 3e
       -0.10096516 0.06648122 0.047720976 0.15344788
0000b0 4f 1b c1 bb a3 89 eb bb c4 0e 52 bd 60 97 8b 3c
       -0.005893148 -0.0071880384 -0.051283613 0.017039955
0000c0 f8 98 3d bd 59 f5 64 bb ad 72 2b bd 29 2e 89 3c
       -0.04628846 -0.0034936278 -0.04185741 0.016745644
0000d0 61 0c a1 3d 0c 52 0d 3d 22 7c d6 3c fe f7 f6 3c
       0.07863689 0.034502074 0.026182238 0.030147549
0000e0 86 ff b2 3c 51 41 aa bd 5f 43 92 bd 3d f6 80 bd
       0.021850359 -0.08313239 -0.07141756 -0.06296966
0000f0 4b a1 c9 bd c6 0f 4b bd 9d e4 f2 3b a3 15 27 3d
       -0.09845217 -0.04957559 0.0074125067 0.04079212
000100 a1 e2 3d be 41 c2 f6 3d 44 6b 2c 3d c5 e8 85 be
       -0.18543483 0.1204877 0.042094484 -0.26154152
000110 b5 94 13 3e 68 37 0e 3c c3 a1 34 be df 70 60 3d
       0.14412196 0.008680202 -0.17639832 0.054795142
000120 60 a1 81 bd 8b dd ae bd bd ee 65 3c f6 1f 09 3d
       -0.06329608 -0.0853835 0.01403397 0.033477746
000130 02 b6 a8 3c 8a 2d 96 3d 2e 22 b8 bd 37 bb a6 bc
       0.0205946 0.07332905 -0.08990894 -0.020352943
000140 a8 44 61 3d 35 ee 8d 3d 61 91 18 3d 74 e2 b7 3d
       0.054997116 0.069302 0.03724802 0.089787394
000150 a2 21 fb 3c cd aa 93 bd 1b e0 d4 3c 43 df 5c bd
       0.030655686 -0.07210312 0.025985768 -0.053923856
000160 2a 69 91 bc 57 fb 4e 3c 72 16 74 bd 36 b4 0f 3b
       -0.017750341 0.012633166 -0.059591718 0.0021927482
000170 c7 b1 76 bc 66 65 fb bc 3b 38 f0 bd f4 b6 7b bd
       -0.015057034 -0.030687999 -0.11729475 -0.061453775
000180 21 e7 e5 bd 9b 15 40 be db 89 3f bd 85 2e 19 bd
       -0.11225725 -0.18758242 -0.04676233 -0.03739788
000190 d6 b6 65 bd 0e 19 1f bd 0d 16 4a bd 16 a5 8a 3c
       -0.05608257 -0.038842253 -0.049337436 0.016924422
0001a0 36 11 a0 3c 4d 73 31 bd 9e c3 77 bd 40 0e f4 bc
       0.019539457 -0.04332285 -0.06048929 -0.029791951
0001b0 52 e8 fc bb 6e 80 62 bc dc 97 64 3c 3c 99 d5 bc
       -0.0077181244 -0.013824565 0.013952222 -0.026074044
0001c0 07 86 37 bd 9b 82 36 bc 49 c0 79 3b b5 9d d4 3b
       -0.044805553 -0.011139537 0.0038108996 0.0064885267
0001d0 f4 cd 21 3c ca 77 40 bd b4 28 0c bd 1c f8 c0 3c
       0.009875763 -0.04698924 -0.034218505 0.023555808
0001e0 6d 9e 62 bd 78 ad ed bd a5 fe 20 bd 24 09 16 bd
       -0.055326868 -0.11605352 -0.039305348 -0.03662981
0001f0 60 20 d5 3b 63 8b b1 3a 3c 79 5b bd 5c eb 54 bd
       0.0065041035 0.0013545569 -0.053582415 -0.05198227
000200 34 36 87 bd e2 38 14 be ed 4a 12 be bf 67 b0 bd
       -0.06602135 -0.14474824 -0.14286394 -0.08613538
000210 4c ac 2c bc f6 b4 4c 3b e7 08 0b 3d 05 0c b8 bc
       -0.010539126 0.003123579 0.033944037 -0.022466669
000220 1a 4b 26 3d 71 65 a9 3c 57 e7 11 3c aa 25 ea 3b
       0.040598966 0.020678254 0.008905253 0.007145603
000230 5b f2 48 3d 07 4d 4e bd de 19 cd bd 98 b1 82 bc
       0.049059253 -0.050366428 -0.100146994 -0.015953824
000240 c0 9f 8a bd f0 e8 11 bd 96 3d ce bd 24 6f 60 bd
       -0.06768751 -0.035622537 -0.1007034 -0.054793492
000250 02 80 de bd 35 f6 1c bc 7c 3e ea 3b 81 e7 38 bd
       -0.10864259 -0.009580185 0.007148562 -0.045142654
000260 5d 0b 3a 3d f5 33 bc 3c b1 8b 43 be 87 c8 b0 3d
       0.045420993 0.022973994 -0.19096257 0.086319976
000270 66 28 e2 3d 57 20 22 be 09 b7 3b 3e 48 7b 94 3d
       0.11042862 -0.15832649 0.18331541 0.072500765
000280 a8 f2 ca bd 90 3d 0a 3e 21 ca ed 3c 5b 55 64 3d
       -0.09909564 0.13500047 0.029027047 0.055745464
000290 32 8f 73 bc 94 b9 2e 3d 8b 34 c1 3d 67 ce 8a 3d
       -0.014865683 0.04265745 0.0943385 0.067776494
0002a0 72 c1 cd bd 3e c6 dc bd 6f 94 d5 3c 97 e4 b8 bc
       -0.100466624 -0.10779999 0.026071755 -0.022569938
0002b0 eb 02 01 be 76 f3 a9 3c ce e8 0d 3d b0 1a 9c bd
       -0.1259877 0.020745974 0.034645848 -0.07622278
0002c0 e8 77 40 3d f4 b1 e9 3c d3 e0 9d 3d d5 83 92 3d
       0.04698935 0.028527237 0.077088974 0.07154051
0002d0 32 f0 35 bd 11 44 27 bd 70 e8 a1 bd 69 c0 50 bd
       -0.04441852 -0.040836398 -0.07905662 -0.050964747
0002e0 6d b7 9b bd 12 9b bb bd 2d 4c 65 bc 44 bd 93 bc
       -0.07603345 -0.09160437 -0.0139952125 -0.018034585
0002f0 f7 8f 94 bd 1d 84 11 bd b5 50 a9 3d a2 aa 4c bd
       -0.072540216 -0.035526384 0.08267347 -0.049967416
000300 3f 4d 95 bd bc 86 3e bd 0d 0c b5 bd 93 a8 97 bb
       -0.07290124 -0.04651521 -0.08840189 -0.00462825
000310 ff 65 fa bc c7 56 99 bd 65 ea a1 bc 98 f0 56 bd
       -0.030566214 -0.074872546 -0.019765088 -0.05247554
000320 29 72 7a 3c 1c 37 94 bc 38 7b 60 bc 70 f3 68 bd
       0.015286007 -0.018092684 -0.013701253 -0.056872785
000330 5e d1 9c bc e0 c5 ba bd 13 89 90 bd f0 1b 41 3d
       -0.019142803 -0.09119773 -0.07057395 0.047145784
000340 93 d0 ad 3d de 76 2a 3d 62 44 3e 3d 4e b4 41 3e
       0.08487048 0.041617267 0.046451934 0.18916437
000350 27 50 da 3c ed d3 5f bc 91 34 ec bd 28 af 28 bd
       0.026649548 -0.013661367 -0.11533464 -0.041182667
000360 4f 56 82 3d 55 1c 2f 3d 25 f6 1c 3d e4 82 d0 3c
       0.06364118 0.04275163 0.03832068 0.025453039
000370 0c b3 57 bd c7 73 8b bb 58 ca 48 bc 97 ee a5 bd
       -0.052660987 -0.004255745 -0.012255274 -0.08102148
000380 10 2e 6b ba 01 d2 65 bc ae 6b b7 bc 7b 74 58 bd
       -0.00089714024 -0.01402712 -0.022390213 -0.05284546
000390 94 23 71 3d 6b 29 af 3d b9 e1 e1 3d 93 ef f8 bc
       0.05887182 0.08552822 0.11029381 -0.030387675
0003a0 b7 2e 83 3b 3d 26 7c bd 5e c1 d5 3c 53 d3 a6 bc
       0.0040033716 -0.061559904 0.026093181 -0.02036444
0003b0 bc 92 e9 bc 97 71 49 bd 70 b9 a9 bd a6 8a 0d bd
       -0.028512351 -0.049180593 -0.082873225 -0.034556054
0003c0 61 09 df 3c ca 71 3d bd 76 ec 9a bc f2 88 b8 bc
       0.027226152 -0.046251096 -0.018911581 -0.022526238
0003d0 4f c0 15 bd a7 71 62 3d 2e bf c5 bc 2e 18 e3 3d
       -0.036560353 0.05528417 -0.024139013 0.11088596
0003e0 0c 8b ca 3c 94 79 cd bd 94 d3 61 bd 1e ad 0d bd
       0.024724506 -0.10032955 -0.055133417 -0.034588926
0003f0 7f 02 a7 3b c5 6e 4c 3d b4 ef 1c bc 7f c7 92 bc
       0.005096733 0.049910326 -0.009578634 -0.017917393

tdfe.9.weight f4 [48]
000000 df 00 b4 3e b4 e0 d6 3e 43 7e fc 3e cb eb fd 3e
       0.35156915 0.4196831 0.4931508 0.49593958
000010 91 d2 e2 3e 14 f7 ae 3e 3a 3b aa 3e 2b d1 e2 3e
       0.44301274 0.3417288 0.3324831 0.44300207
000020 4d 13 f1 3e 73 3f cf 3e 59 f4 81 3e cc 45 8e 3e
       0.47085038 0.40478095 0.25381735 0.27787626
000030 1c a5 9b 3e ce 44 28 3f 32 64 a1 3e 1e 0d da 3e
       0.30399406 0.6572999 0.31521755 0.42588133
000040 df 1b ad 3e c6 e6 ba 3e 93 b1 79 3e bd e5 21 3f
       0.33810326 0.3650419 0.24384145 0.6324118
000050 77 9d 02 3f 67 90 c5 3e 14 41 ae 3e 89 6e e7 3e
       0.5102152 0.38586733 0.34034026 0.4520152
000060 70 c4 ac 3e 81 5a bf 3e dc 15 a7 3e 94 9f f3 3e
       0.3374362 0.37373737 0.32633865 0.47582686
000070 eb 6b d3 3e 18 15 6d 3e c3 96 ca 3e 44 61 b8 3e
       0.41293272 0.23152578 0.39568147 0.36011708
000080 7b 78 c6 3e 41 01 a0 3e 3f e7 0d 3f 28 e0 9c 3e
       0.38763794 0.31250957 0.5543098 0.30639768
000090 1b a5 d0 3e 1c c5 f3 3e 25 34 e8 3e f0 f2 78 3e
       0.40750965 0.4761132 0.45352283 0.24311423
0000a0 20 c6 b8 3e 5a 5d 08 3f 3b b0 bf 3e 16 f0 12 3f
       0.36088657 0.53267443 0.3743914 0.5739759
0000b0 1b a6 a3 3e 2a c8 e5 3e 6e 20 93 3e 2f 60 df 3e
       0.31962666 0.44879276 0.2873568 0.4362807

tdfe.9.bias f4 [48]
000000 09 25 26 be 6c ec 1d be 4c b1 05 be 95 18 f0 be
       -0.16225065 -0.15422219 -0.13055915 -0.46893755
000010 96 b7 1f be b1 bb 9c bd 49 2e 77 bd fc 0f 0b be
       -0.15597376 -0.07652987 -0.060346875 -0.13580316
000020 d1 e5 9c be d2 58 0c be d1 99 4d be 3b 58 5f be
       -0.30644086 -0.13705757 -0.20078208 -0.21811001
000030 ce b2 42 bc e9 bb 28 bf 7e a0 54 be 4e ee 86 be
       -0.011883451 -0.6591173 -0.20764348 -0.26353687
000040 eb c6 21 bd a3 6f 5b be 8a 11 f0 3d 71 b8 44 be
       -0.039496344 -0.21429305 0.11722095 -0.19210984
000050 91 df 8a be 3d 12 80 be 41 b2 25 be 64 8b a4 be
       -0.27123693 -0.25013915 -0.1618128 -0.32137597
000060 fd 78 93 bd 67 b1 f2 bd 78 c2 37 be 1c 7c 72 be
       -0.07200811 -0.11850243 -0.17945278 -0.23680156
000070 81 5e 2c bd 0c b6 b8 bc 4d 34 3d be ef 6d cc bc
       -0.042082313 -0.022547744 -0.18476982 -0.024954764
000080 f3 21 06 be b5 52 02 3c 6f a9 69 be 4b e3 70 bd
       -0.13098888 0.007954289 -0.2281854 -0.058810513
000090 4c bb fd bd 65 bd d0 be 23 54 2b be c1 d8 9b bc
       -0.1238924 -0.40769497 -0.16731314 -0.019024255
0000a0 95 1e 04 be e1 bb 74 be 97 fe a5 bd 37 67 ef be
       -0.12902291 -0.23899795 -0.081052 -0.46758434
0000b0 8a 30 78 bd 2a 14 e3 be fb 6b 12 bd 94 16 87 be
       -0.060593165 -0.4435132 -0.03574751 -0.26384413

tdfe.9.running_mean f4 [48]
000000 7f 83 db be 7f f2 95 3b 74 a0 ae be fa 78 5d 3e
       -0.4287376 0.004576027 -0.3410679 0.2162818
000010 d5 ec df be 21 d1 90 be fd 3b 1d bf c3 82 05 bf
       -0.43735376 -0.28284553 -0.6141966 -0.5215265
000020 d9 ff 10 be cc bb 8e be 22 0b 7a bd 42 b1 2a bf
       -0.14160098 -0.27877653 -0.061045773 -0.66676724
000030 cf 72 25 be 71 5f 87 bb aa b5 81 be 24 70 95 be
       -0.16157077 -0.0041312505 -0.2533391 -0.2918712
000040 9f af 6b 3d 5e 36 04 bf 36 d2 ae be 8f 0a 16 bf
       0.057540532 -0.5164546 -0.34144753 -0.5860986
000050 5e a2 90 be e2 b8 29 be 40 cb 3f 3d 5a 8f de 3e
       -0.28248876 -0.16574433 0.046824694 0.43468744
000060 46 4b 26 be 3c 37 08 be 8d 7f 86 3d 7f fc 3d 3e
       -0.16239652 -0.1330232 0.06567297 0.18553351
000070 4a 87 19 bf 27 91 80 bd 60 bd d0 be 17 69 10 bf
       -0.5997206 -0.062776856 -0.40769482 -0.56410354
000080 12 05 57 bf 9e 44 f1 bd 9a 11 ad be 26 2a 9a be
       -0.8399211 -0.11780666 -0.3380249 -0.30110282
000090 40 ae 18 3e 19 e6 4f 3d d3 52 a1 be 05 89 89 be
       0.14910221 0.050756548 -0.31508502 -0.2686235
0000a0 c8 b8 e3 be 39 d4 8f be 93 e9 e8 be 1f 6c a9 3d
       -0.44476914 -0.280916 -0.45490703 0.082725756
0000b0 34 24 d6 be f0 ba 3e 3e a3 6a 8f 3e 37 72 f1 be
       -0.41824496 0.18625998 0.28011045 -0.47157452

tdfe.9.running_var f4 [48]
000000 43 84 69 3d 5d cd 0d 3e 5f 4c 25 3e a5 3c bc 3d
       0.0570109 0.13847871 0.16142415 0.091912545
000010 51 2c cb 3d 8d 66 45 3d 93 e9 8e 3d 45 2e d7 3d
       0.09920562 0.048193503 0.069781445 0.10506872
000020 19 2a 9e 3d f0 72 03 3e 6c 1c 65 3d af e7 a0 3d
       0.07722873 0.12836814 0.05593531 0.0785669
000030 d3 3b 8b 3d 1c bd 9f 3d 39 56 33 3d 71 e1 ef 3d
       0.0679852 0.077997416 0.0437834 0.117129214
000040 3b 98 08 3e 80 ee 5d 3d 0f f8 b9 3d b4 d4 82 3e
       0.13339321 0.05418253 0.090805165 0.25552905
000050 4f 22 08 3e fc a8 84 3d 35 bf b2 3d 34 07 d6 3d
       0.13294338 0.06477544 0.08727876 0.10450593
000060 c3 9d ad 3d 5f f5 b8 3d a7 e2 95 3d 4e 10 cc 3d
       0.08477356 0.09031176 0.07318621 0.09964047
000070 dc 05 03 3e 41 b5 90 3d 66 90 e4 3d e5 72 d4 3d
       0.12795204 0.070658214 0.11160354 0.10373477
000080 6a 3a af 3d 49 3b b2 3d f6 4d eb 3d cc a6 9f 3d
       0.085560635 0.08702714 0.11489479 0.07795486
000090 7b 90 d0 3d 76 5d bd 3d 01 88 14 3e 9a df 6d 3d
       0.101838075 0.09246342 0.14505006 0.05807457
0000a0 89 10 9b 3d 0d d8 d3 3d 00 95 c5 3d 25 c3 ff 3d
       0.07571513 0.10343943 0.0964756 0.12488393
0000b0 2f b6 e0 3d 50 d9 9e 3d 50 99 9b 3d 37 84 da 3d
       0.10972249 0.07756293 0.075976014 0.10669749
