torch/trained_models/k_16_c_4_us8k_mixup_2_b_64_e_500_newlr_schedule_fold10.pt (torch, 382250 bytes, 41 tensors)

acfe.1.weight f4 [8]
0	0x3fb407a1	1.4064828
1	0x3fcccead	1.6000572
2	0x3fe32371	1.7745191
3	0x3fc97041	1.5737382
4	0x3f081a22	0.53164876
5	0x3f081875	0.5316232
6	0x3f08206c	0.5317447
7	0x3f5728b6	0.84046495

acfe.1.bias f4 [8]
0	0x3db7770c	0.08958253
1	0x3e23e28d	0.16004391
2	0x3e996816	0.29962224
3	0x3ddc0bed	0.10744462
4	0xbd63303e	-0.05546593
5	0xbd7a91a6	-0.061174057
6	0xbce4548e	-0.02787235
7	0xbdc11af6	-0.094289705

acfe.1.running_mean f4 [8]
0	0xb08147a7	-9.40635e-10
1	0x30499817	7.3339507e-10
2	0x303fb15b	6.973743e-10
3	0x3026ddc2	6.0705585e-10
4	0x30df2f09	1.6238754e-09
5	0xb06c3802	-8.593589e-10
6	0xad53ffe2	-1.2050779e-11
7	0x2ffc8318	4.593168e-10

acfe.1.running_var f4 [8]
0	0x2d3c6db5	1.0710923e-11
1	0x2d8305d1	1.4895559e-11
2	0x2d51f54a	1.193474e-11
3	0x2d17340a	8.594911e-12
4	0x2d5df6d0	1.2617199e-11
5	0x2cb386b1	5.1024397e-12
6	0x2adf764e	3.9694848e-13
7	0x2c9c0e64	4.4353844e-12

acfe.3.weight f4 [64, 8, 1, 5]
0	0x3c8d047f	0.017214058
1	0x3c633fb1	0.013870166
2	0xbb105c30	-0.0022027604
3	0xbdd9e38e	-0.10639106
4	0xbdbdee56	-0.092739746
5	0x3dfd3f63	0.12365606
6	0x3d766811	0.06015784
7	0xbd4bedcd	-0.04978733
8	0xbd988b1b	-0.07448407
9	0x3ca81f38	0.020522699
10	0x3d8b0961	0.06788898
11	0x3e420f8a	0.1895124
12	0x3e817dc8	0.25291276
13	0x3c1d5a1f	0.009604006
14	0x3dda86ab	0.10670217
15	0x3d35f677	0.0444245
16	0x3cde1647	0.027110232
17	0x3d0e1c85	0.034695167
18	0x3e4d7c53	0.20066957
19	0x3e1d033f	0.1533327
20	0xbd2af09c	-0.04173337
21	0xbdc10fa3	-0.094268106
22	0x3daa7124	0.08322361
23	0xbe1c1580	-0.15242577
24	0x3db3668b	0.08759793
25	0x3c3b67a0	0.01143828
26	0xbe414512	-0.18874004
27	0x3d3f20aa	0.04666201
28	0xbdc55c36	-0.096367285
29	0x3e18702e	0.14886543
30	0xbdfb4498	-0.122689426
31	0x3d6ccab1	0.05781049
32	0xbd88133f	-0.06644296
33	0x3c4dd142	0.012562098
34	0xbe0678a5	-0.1313196
35	0xbddbbe24	-0.10729626
36	0x3e7bf7a8	0.24606192
37	0xbdeb62fe	-0.11493491
38	0x3dba37b6	0.09092657
39	0xbbd27b9a	-0.006423426
40	0x3d058c1a	0.032604314
41	0x3d749ad1	0.059717957
42	0x3dbae056	0.0912482
43	0x3bf15036	0.007364298
44	0xbdfbc8f9	-0.12294192
45	0xbdc798ae	-0.09745918
46	0xbc02da3d	-0.007986602
47	0x3e807c3e	0.2509479
48	0x3e905a6e	0.28193992
49	0x3cd89bad	0.02644142
50	0x3e838da3	0.25693998
51	0x3eadb60a	0.33927947
52	0x3cb59390	0.02216509
53	0xbdf0b8c7	-0.117539935
54	0xbea0bbf4	-0.31393397
55	0xbe31de37	-0.17369924
56	0x3cb207e6	0.021732282
57	0xbdbb7b23	-0.09154346
58	0xbd912819	-0.07087726
59	0xbe9ceb5b	-0.30648312
60	0x3d79d463	0.060993563
61	0xbd30d54f	-0.043172177
62	0xbe3f6e2a	-0.18694368
63	0xbd988b64	-0.07448462
64	0xbe5dd79a	-0.21664277
65	0x3d5c6b2c	0.053813145
66	0x3e8c2825	0.27374378
67	0xbe89005a	-0.2675808
68	0x3d86b167	0.065768056
69	0xbcd59da0	-0.026076138
70	0xbd0138b4	-0.031548217
71	0xbdeffe71	-0.11718453
72	0xbdcd7dbe	-0.10033749
73	0x3dde15d8	0.1084401
74	0xbd675f06	-0.056487106
75	0x3e806c2e	0.25082535
76	0x3b8dc665	0.004326629
77	0x3d8f0cd8	0.069848716
78	0x3e072e8f	0.13201354
79	0xbd2b8011	-0.04187018
80	0x3e7a318e	0.24432966
81	0x3d74838e	0.059695773
82	0x3e84541e	0.25845426
83	0xbda6ed11	-0.081506856
84	0xbe91c9b6	-0.28474206
85	0x3e79150b	0.24324434
86	0x3e01588c	0.12631434
87	0xbe8d6d8b	-0.27622637
88	0xbe35013f	-0.17676257
89	0xbea39954	-0.31952918
90	0x3ea1ec33	0.31625518
91	0x3e3b7a4b	0.1830837
92	0xbc9ef428	-0.019403532
93	0x3cd73f7d	0.02627539
94	0xbe378e1f	-0.17925309
95	0xbd8ad420	-0.06778741
96	0x3da43917	0.080187015
97	0xbccb5816	-0.024822276
98	0x3e54765c	0.20748276
99	0x3dfe24ed	0.12409387
100	0xbd858660	-0.065197706
101	0x3d9f5a7f	0.07780933
102	0x3ce49fad	0.02790817
103	0x3e43d2d3	0.19123392
104	0xbd847f89	-0.06469638
105	0x3e1a1e93	0.15050726
106	0xbdca3c4f	-0.09874784
107	0x3cb26569	0.021776872
108	0xbda1dcb8	-0.07903427
109	0xbc2e7750	-0.0106485635
110	0xbe5d66e3	-0.2162128
111	0xbdb62ef7	-0.088956766
112	0x3cbea76d	0.023273194
113	0xbe6abdae	-0.2292392
114	0x3de4b6d4	0.11167684
115	0x3e436241	0.1908045
116	0x3da96f34	0.082731634
117	0xbd6b359a	-0.057424165
118	0xbd18c117	-0.03729352
119	0xbe8a7924	-0.27045548
120	0x3e131fae	0.14367554
121	0x3e3e0e1c	0.1856007
122	0xbe8b14cd	-0.27164307
123	0xbe78e614	-0.24306518
124	0xbdf4f47e	-0.11960696
125	0x3e9cfcc8	0.30661607
126	0x3de254d5	0.11051337
127	0x3db415f9	0.087932535
128	0x3ce3919f	0.027779398
129	0xbe6c323a	-0.23066035
130	0xbceab674	-0.028651454
131	0x3c618e0d	0.013766778
132	0x3c6c4dff	0.014422893
133	0xbe9b7466	-0.30362242
134	0xbde4ac1a	-0.11165638
135	0xbe80f1d2	-0.25184494
136	0xbd440a3d	-0.047861326
137	0x3e4efc7a	0.202135
138	0x3d6983a1	0.057010297
139	0x3d6a3d9e	0.05718767
140	0x3d89f5c6	0.06736331
141	0x3db3c5c2	0.08777954
142	0x3e2eb751	0.17062117
143	0x3c740b23	0.014895233
144	0x3c6969cb	0.014246414
145	0xbe4cb1ff	-0.19989775
146	0xbc82f67a	-0.01598667
147	0x3d6891d9	0.056779716
148	0xbe47e36e	-0.19520351
149	0xbe68498e	-0.22684309
150	0xbdb2d18c	-0.08731374
151	0xbd989a1b	-0.07451268
152	0xbc1f24e3	-0.009713384
153	0xbe0e7701	-0.13912584
154	0xbe0a0d3c	-0.13481611
155	0x3d15e3e7	0.036594298
156	0xbdd51822	-0.104049936
157	0x3ccb7e9b	0.024840644
158	0x3d4866f6	0.048926316
159	0xbe4c1d70	-0.19933105
160	0xbdeb7a7e	-0.11497973
161	0x3e148110	0.14502358
162	0xbdc544b9	-0.096322484
163	0x3da71eb5	0.08160154
164	0xbe5b30a5	-0.21405275
165	0x3e803c86	0.25046176
166	0x3ea119d5	0.3146502
167	0xbc58d146	-0.013233488
168	0xbdc31b61	-0.095267065
169	0xbe856e1e	-0.26060575
170	0x3e335d86	0.17516145
171	0x3e6c2818	0.2306217
172	0x3e3aafde	0.1823115
173	0x3d260ee6	0.040541552
174	0x3de39092	0.11111559
175	0xbe40e5c9	-0.18837656
176	0xbe0dd44c	-0.13850516
177	0xbd960c74	-0.07326594
178	0x3e1b986e	0.15194866
179	0x3ec4c046	0.38427943
180	0x3e1e0fc9	0.15435709
181	0x3d6e7313	0.058215212
182	0x3e5732bb	0.21015446
183	0x3d92f85d	0.07176278
184	0x3d96dcb3	0.07366314
185	0x3d401293	0.046892714
186	0xbbbd5ad9	-0.005778652
187	0xbc2e1223	-0.010624441
188	0xbc1e009b	-0.009643699
189	0x3dcfedbc	0.10152766
190	0xbdbff5c9	-0.09373052
191	0xbe22423e	-0.15845582
192	0x3e64fcc6	0.2236205
193	0x3dd53289	0.104100294
194	0xbd33dc52	-0.043911286
195	0x3dcf7efd	0.10131643
196	0x3b3a8012	0.0028457684
197	0x3e57eb82	0.21085933
198	0x3e089241	0.13337041
199	0xbd726d7e	-0.05918645
200	0xbddf6789	-0.1090842
201	0x3e48db28	0.19614851
202	0x3dd976d0	0.10618365
203	0x3e6052e1	0.21906616
204	0x3e4b9965	0.19882734
205	0x3ebaae7c	0.36461246
206	0x3e3d9299	0.18512954
207	0x3e47a5c5	0.1949683
208	0x3d96a596	0.07355802
209	0x3dd06a5e	0.10176538
210	0x3e922eec	0.28551424
211	0x3d012d0d	0.031537104
212	0x3d75f56b	0.060048502
213	0xbdaa790b	-0.08323868
214	0xbe0f013f	-0.13965319
215	0x3d992ab6	0.074788496
216	0xb9af4375	-0.0003342886
217	0xbdffee12	-0.1249658
218	0xbe773317	-0.24140583
219	0xbdfe1b50	-0.12407553
220	0xbe19fc24	-0.1503759
221	0x3d97f112	0.074190274
222	0x3dd1a69e	0.10236858
223	0xbcf4033e	-0.029786702
224	0xbd89d2c2	-0.06729652
225	0x3e771dd0	0.24132466
226	0xbba79e9a	-0.0051153423
227	0x3ce6efba	0.028190482
228	0xbda838c9	-0.08213956
229	0xbc9c2220	-0.01905924
230	0xbd05fc47	-0.032711294
231	0x3db8fdf5	0.090328135
232	0xbcce9564	-0.02521772
233	0xbdffc0b8	-0.1248793
234	0x3d1bf08e	0.038071208
235	0x3e9518fa	0.29120618
236	0x3dd2b118	0.10287684
237	0xbe838a3b	-0.256914
238	0xbd70f6af	-0.058829006
239	0xbdb7348e	-0.08945571
240	0xbe834b2b	-0.25643286
241	0xbe7e6f9f	-0.24847268
242	0xbcc6e336	-0.024278264
243	0xbd991bae	-0.074759826
244	0x3df2e690	0.118603826
245	0xbeb2149c	-0.3478135
246	0xbe2a19ab	-0.16611354
247	0x3e3d2159	0.18469752
248	0x3e2fc257	0.17163979
249	0x3e5aa1b5	0.21350749
250	0xbe14db3f	-0.14536761
251	0xbe236bd6	-0.15959105
252	0x3d7ca9b2	0.06168527
253	0x3d047ae8	0.032343775
254	0xbe3981b2	-0.18115881
255	0x3e11b642	0.14229682

acfe.4.weight f4 [64]
0	0x3f1c6689	0.61093956
1	0x3f2c0510	0.67195225
2	0x3f8aa605	1.0831915
3	0x3f2b8015	0.6699231
4	0x3f88e7a8	1.0695696
5	0x3f8b32f6	1.0874927
6	0x3fcd68a8	1.6047564
7	0x3f71cbdb	0.94451684
8	0x3f9d6e96	1.2299373
9	0x3f2a837a	0.6660687
10	0x3f413c11	0.7548228
11	0x3f46a910	0.7760172
12	0x3ef63a1b	0.48091206
13	0x3eff876c	0.49908006
14	0x3edb108d	0.42786065
15	0x3f249751	0.6429339
16	0x3f6f04fa	0.9336697
17	0x3f4e6913	0.8062908
18	0x3f50f130	0.8161802
19	0x3f369e05	0.7133487
20	0x3f100463	0.56256694
21	0x3f109252	0.5647327
22	0x3f380be7	0.7189316
23	0x3f308758	0.6895652
24	0x3f2a238a	0.6646048
25	0x3f3bcdaa	0.73360693
26	0x3f65a0f2	0.8969871
27	0x3f5beea8	0.85911036
28	0x3f779070	0.9670477
29	0x3f753674	0.95786214
30	0x3f3c0c20	0.73456
31	0x3f510cdd	0.8166025
32	0x3f1f2aa9	0.6217447
33	0x3faee4d4	1.3663583
34	0x3f047877	0.51746315
35	0x3f5cab35	0.8619874
36	0x3f0582e2	0.52152836
37	0x3f014dc5	0.5050929
38	0x3f2047ec	0.62609744
39	0x3f7540d5	0.9580205
40	0x3f468162	0.7754117
41	0x3f3dbeb8	0.7411914
42	0x3f52be7e	0.8232192
43	0x3ef546ab	0.47905478
44	0x3f6bdf49	0.9213758
45	0x3f7e8d86	0.994347
46	0x3f8187a9	1.0119525
47	0x3f36f079	0.7146068
48	0x3fb5b36f	1.4195384
49	0x3f1c7af0	0.6112509
50	0x3f3e23b9	0.7427326
51	0x3f345471	0.7044135
52	0x3f4419d2	0.766019
53	0x3f458e34	0.7717011
54	0x3f3c5865	0.7357238
55	0x3f236d32	0.63838494
56	0x3f9920cc	1.1963134
57	0x3f616bae	0.8805493
58	0x3f6fe383	0.9370653
59	0x3f7e83ac	0.99419665
60	0x3f307ebf	0.689434
61	0x3f1088e5	0.56458884
62	0x3f09caff	0.5382537
63	0x3eff2c6b	0.49838576

acfe.4.bias f4 [64]
0	0x3e295933	0.16537933
1	0x3de7a72a	0.11311181
2	0x3e3a18d9	0.18173541
3	0x3d68442d	0.056705642
4	0x3e04bef5	0.1296347
5	0x3d712529	0.05887333
6	0x3d9ee93b	0.07759329
7	0x3d4270fc	0.04747103
8	0x3de4270a	0.111402586
9	0x3cdf24e2	0.027239267
10	0x3d6f73b0	0.058459938
11	0x3e04feaf	0.12987779
12	0x3cf621f4	0.030045487
13	0x3d860bc8	0.06545216
14	0x3c27948a	0.010228286
15	0x3d78c3be	0.06073355
16	0x3d8f196a	0.06987269
17	0x3da7120b	0.08157738
18	0x3c55ac0d	0.013041508
19	0x3e0652fa	0.1311759
20	0x3c64fe5f	0.013976662
21	0x3db76f3d	0.08956764
22	0x3c60e679	0.013726824
23	0x3d3d1e03	0.0461712
24	0x3d229b73	0.03969903
25	0x3deec54e	0.11658727
26	0x3d3a3994	0.045465067
27	0x3da9b823	0.082870744
28	0x3d6849c9	0.056710992
29	0x3d62ce57	0.055372562
30	0x3dbee5a3	0.093211435
31	0x3d8258c9	0.06364591
32	0xbcb94b87	-0.022619022
33	0x3db06b1a	0.08614178
34	0x3dc90175	0.09814731
35	0x3e47b713	0.19503431
36	0x3ce6f9c3	0.028195268
37	0x3ca6f0b9	0.020378457
38	0x3d736d31	0.059430305
39	0x3c541e5c	0.012946691
40	0x3d445e4e	0.0479415
41	0x3da383c2	0.07984115
42	0x3e3121e8	0.1729809
43	0x3d8c30ca	0.06845243
44	0x3d40700b	0.046981853
45	0x3d3bfa0d	0.045892764
46	0x3d9754a4	0.07389191
47	0x3ceb7163	0.02874059
48	0x3e117300	0.14204025
49	0x3db2e8f7	0.08735841
50	0x3d2a68b9	0.041603778
51	0x3d4e2619	0.0503293
52	0x3cf43e16	0.029814761
53	0x3d856dd4	0.06515089
54	0x3e30f380	0.17280388
55	0x3d892bcb	0.06697806
56	0x3d051982	0.03249503
57	0x3d5a91b9	0.05336163
58	0x3d359d06	0.044339202
59	0x3d1e86b3	0.038702678
60	0x3e08b0a8	0.13348639
61	0x3d82394d	0.063585855
62	0xbc8686ca	-0.016421694
63	0xba318b5f	-0.0006772782

acfe.4.running_mean f4 [64]
0	0x3e706428	0.23475707
1	0x3d8b57b8	0.068038404
2	0x3daebf8b	0.08532628
3	0xbdd06352	-0.10175194
4	0x3e7fcb54	0.24979907
5	0x3e50555d	0.20345064
6	0xbe324390	-0.17408586
7	0xbe32eef2	-0.17473963
8	0x3d7913d6	0.060809933
9	0xbe5197a3	-0.20468001
10	0x3d51641f	0.051120874
11	0xbdffb1f5	-0.124851145
12	0x3e3814e8	0.17976725
13	0x3dd570a8	0.10421878
14	0x3b067387	0.0020515637
15	0xbe1914a0	-0.14949274
16	0x3db3c367	0.087775044
17	0x3e81803a	0.25293142
18	0x3d7b05df	0.061284896
19	0xbd0a38c3	-0.03374554
20	0x3e44c775	0.19216712
21	0x3dc8fa47	0.098133616
22	0xbca068cf	-0.019581227
23	0xbe7dfa2c	-0.24802464
24	0x3d564af7	0.052317586
25	0x3e99f3ad	0.30068722
26	0xbe2af903	-0.16696553
27	0x3edb2c33	0.4280716
28	0xbe983721	-0.2972956
29	0xbe87d009	-0.26525906
30	0xbe798d8e	-0.24370405
31	0x3e69bd5c	0.22826141
32	0xbe6b2ab6	-0.22965512
33	0x3eb33cdd	0.35007372
34	0x3df25a02	0.11833574
35	0x3e9731fa	0.29530317
36	0xbe860864	-0.26178277
37	0xbe5ed579	-0.21761121
38	0x3e573326	0.21015605
39	0xbe6eff93	-0.23339681
40	0xbe0aeb34	-0.13566285
41	0x3d310a0e	0.04322248
42	0x3e56790f	0.20944618
43	0xbd432f82	-0.04765273
44	0xbe29deae	-0.16588852
45	0xbd245a83	-0.04012538
46	0xbd1edf69	-0.03878728
47	0x3df9bb0c	0.121938795
48	0x3daffc98	0.085931
49	0xbbd00d65	-0.006349253
50	0x3d957f75	0.07299701
51	0x3cb73e9f	0.022368727
52	0xbd34c385	-0.044131774
53	0xbd164b01	-0.036692623
54	0xbc9456b2	-0.018107746
55	0xbddc3ec6	-0.107541606
56	0x3d0dbfc4	0.03460671
57	0x3d4dbb00	0.050227165
58	0xbca41036	-0.020027261
59	0x3b8345a6	0.0040061055
60	0xbdf95ae8	-0.12175542
61	0x3ceeb900	0.02914095
62	0x3bfc5be2	0.007701383
63	0x3d5fae49	0.05460957

acfe.4.running_var f4 [64]
0	0x35fa6aec	1.865757e-06
1	0x35da3cd2	1.6259967e-06
2	0x36db4354	6.5345466e-06
3	0x364b3a97	3.028346e-06
4	0x36bef459	5.690887e-06
5	0x36638b84	3.3906845e-06
6	0x3699703f	4.5728225e-06
7	0x36926ca9	4.363789e-06
8	0x367635a7	3.6688086e-06
9	0x3612b060	2.185836e-06
10	0x35b3e150	1.3402114e-06
11	0x3640f98c	2.8755485e-06
12	0x35f2ce07	1.8090367e-06
13	0x35adb7b6	1.2942971e-06
14	0x351c6af2	5.8270155e-07
15	0x35959b5f	1.1146584e-06
16	0x36371659	2.7282133e-06
17	0x361731ea	2.2529807e-06
18	0x360574ec	1.9886602e-06
19	0x36092267	2.0434616e-06
20	0x356d12c3	8.831668e-07
21	0x35eab57f	1.7487181e-06
22	0x357b28f5	9.3564387e-07
23	0x35cd093f	1.5276381e-06
24	0x348a7277	2.5787787e-07
25	0x3636e979	2.7256012e-06
26	0x35f37758	1.8139644e-06
27	0x36aec6e9	5.2087603e-06
28	0x362cc165	2.5742568e-06
29	0x362297e2	2.4228289e-06
30	0x362173d5	2.4058293e-06
31	0x3614c676	2.2169238e-06
32	0x3601136d	1.9233805e-06
33	0x366f20d4	3.5632884e-06
34	0x35d919d7	1.617528e-06
35	0x36431ff8	2.9075873e-06
36	0x35ef61e4	1.7835378e-06
37	0x35ef2e5b	1.7820379e-06
38	0x35bf3a99	1.4247663e-06
39	0x34b03abe	3.2825295e-07
40	0x3608af36	2.0367565e-06
41	0x3687dd46	4.049073e-06
42	0x365615b9	3.190113e-06
43	0x3606e1ee	2.0099064e-06
44	0x36548102	3.1665554e-06
45	0x3683e092	3.9302477e-06
46	0x366321c6	3.3845295e-06
47	0x35b1fb56	1.3260676e-06
48	0x365e6e97	3.314495e-06
49	0x36224582	2.418034e-06
50	0x35d040c2	1.5516055e-06
51	0x3537d73f	6.8486037e-07
52	0x35226ebf	6.051086e-07
53	0x355453b6	7.909797e-07
54	0x362372ea	2.4355782e-06
55	0x35d28baf	1.5686873e-06
56	0x3606a9c9	2.0066384e-06
57	0x35dfcbf7	1.6674156e-06
58	0x35a86aea	1.2548091e-06
59	0x35b7e458	1.3701019e-06
60	0x3571377e	8.986025e-07
61	0x35356c52	6.758538e-07
62	0x3494b5f6	2.7699542e-07
63	0x3539c8dc	6.921016e-07

tdfe.0.weight f4 [32, 1, 3, 3]
0	0x3e15c681	0.14626504
1	0x3e9453ee	0.28970283
2	0xbd89630c	-0.06708345
3	0x3ed2dd3f	0.41184422
4	0x3e468ca4	0.19389588
5	0xbdddd22d	-0.108311035
6	0x3e9291ed	0.28626958
7	0x3e49c5a8	0.19704306
8	0xbe4eab68	-0.20182574
9	0xbe66e60e	-0.22548696
10	0xbf1ce032	-0.61279595
11	0xbe6a01e5	-0.22852285
12	0x3e808217	0.2509925
13	0xbee18196	-0.4404418
14	0x3e47f006	0.19525155
15	0xbe01e2e9	-0.12684216
16	0x3f46ebfa	0.7770382
17	0x3dd59ee5	0.10430697
18	0x3ecee49b	0.40408787
19	0x3dc4f837	0.09617656
20	0xbc813ba1	-0.015775504
21	0x3e8531af	0.26014468
22	0xbeb1cfc1	-0.34728816
23	0xbf3c7f5b	-0.7363183
24	0x3d8f51f8	0.06998056
25	0xbee31f69	-0.44359902
26	0xbd048fcb	-0.032363694
27	0x3ec2d8f5	0.3805615
28	0x3d8ea448	0.06964928
29	0x3e085773	0.13314609
30	0xbe9d48c2	-0.30719572
31	0xbdb8a3bb	-0.09015604
32	0xbe104b54	-0.14091235
33	0xbec0968a	-0.37614852
34	0xbf0b3413	-0.54376334
35	0xbd8a555f	-0.067545645
36	0x3ea032ba	0.312887
37	0xbeacf4bc	-0.33780468
38	0xbea4365a	-0.32072717
39	0x3f260440	0.64850235
40	0xbdfe99b5	-0.12431661
41	0xbf39e1d5	-0.7261022
42	0x3de68d62	0.112574354
43	0x3ce162a3	0.027512854
44	0xbea2a941	-0.31769755
45	0x3a9b3e91	0.0011844208
46	0x3ed240c5	0.4106504
47	0xbe3a5be4	-0.18199116
48	0x3ec5810d	0.3857502
49	0xbd2d8c21	-0.042369965
50	0x3e817c40	0.25290108
51	0x3e82344a	0.25430518
52	0x3ebce63a	0.368944
53	0x3df5ebc2	0.12007858
54	0x3d8c4537	0.06849139
55	0xbd7a9efb	-0.06118677
56	0x3e904245	0.2817556
57	0x3ea518cb	0.32245478
58	0x3c5051e7	0.01271484
59	0xbdc584a0	-0.09644437
60	0x3ec1cea1	0.37852958
61	0xbe1bc6b7	-0.15212522
62	0xbe112732	-0.14175108
63	0x3ef191db	0.4718159
64	0xbe947493	-0.2899519
65	0xbe12af91	-0.14324786
66	0x3e8d4d20	0.27597904
67	0x3dd49b2a	0.10381158
68	0xbeb2544d	-0.3482994
69	0x3efe751d	0.49698725
70	0xbd95e075	-0.073182024
71	0xbe3e0747	-0.18557464
72	0xbbd9b3a5	-0.0066437298
73	0x3dc2e770	0.095167994
74	0xbe5e45a2	-0.2170625
75	0xbe9b6be4	-0.30355752
76	0xbe875f74	-0.26440012
77	0x3cb42349	0.021989482
78	0x3e93cdf0	0.28868055
79	0x3dff5264	0.12466887
80	0x3d06d06d	0.032913614
81	0xbe55289b	-0.20816271
82	0x3e949725	0.29021564
83	0x3e42c5f7	0.1902083
84	0xbf1a2f72	-0.60228646
85	0xbe899124	-0.26868546
86	0x3df8f9d1	0.12157024
87	0x3d363118	0.044480413
88	0x3dff1f87	0.12457185
89	0x3e66d60c	0.2254259
90	0x3e321354	0.17390186
91	0x3ec19f91	0.37817052
92	0x3e7faf83	0.24969296
93	0x3ea9e02e	0.33178848
94	0x3ef1e65e	0.4724607
95	0x3e81e060	0.25366497
96	0xbd72a957	-0.059243526
97	0x3ec6a240	0.38795662
98	0xbd420af1	-0.047373716
99	0x3e40acd0	0.18815923
100	0xbeee1be2	-0.46505648
101	0xbeb44e80	-0.3521614
102	0x3f031fc2	0.51220334
103	0xbec8ce2e	-0.39219803
104	0xbeda38ee	-0.4262156
105	0xbe0b4a92	-0.13602665
106	0x3ec57b93	0.38570842
107	0x3e6c27f9	0.23062123
108	0x3e40d140	0.18829823
109	0x3e5bac89	0.21452536
110	0x3ed329ea	0.41242915
111	0xbe7dff81	-0.24804498
112	0xbe8e082e	-0.27740616
113	0xbe8cac4c	-0.27475202
114	0xbe9be73c	-0.30449855
115	0xbee2a984	-0.44269955
116	0xbea85afc	-0.32881916
117	0xbe17f87d	-0.14840885
118	0xbf119813	-0.5687267
119	0x3e1845a4	0.14870316
120	0x3e6530be	0.22381875
121	0xbe27eea7	-0.16399632
122	0x3e9f0c99	0.310643
123	0x3ee79d88	0.45237374
124	0xbe29a4ea	-0.16566816
125	0x3dd54af4	0.10414687
126	0xbe3666b7	-0.1781262
127	0x3ec5839e	0.38576978
128	0xbea3e96c	-0.32014024
129	0x3e097337	0.13422857
130	0x3ecc529a	0.3990677
131	0xbf289562	-0.6585294
132	0x3eec270d	0.46123543
133	0xbdad4003	-0.08459475
134	0xbed78112	-0.4209066
135	0xbe9e36bc	-0.30901134
136	0xbe3af3c7	-0.18257056
137	0x3e0ab04e	0.13543817
138	0xbec8b917	-0.39203712
139	0x3e366d4a	0.17815128
140	0xbe94622b	-0.28981146
141	0xbe9dfa90	-0.30855227
142	0xbec6db6f	-0.3883929
143	0xbea90374	-0.33010447
144	0xbe01089e	-0.12600943
145	0x3e368670	0.17824721
146	0xbe17d140	-0.14825916
147	0xbe4eb353	-0.20185594
148	0x3e52b6ea	0.20577589
149	0xbe0c2cec	-0.13689011
150	0xbf38c95d	-0.72182256
151	0x3fa6726c	1.3003669
152	0xbf45fc1e	-0.77337825
153	0xbdcc8e5b	-0.0998809
154	0x3e5edb27	0.21763287
155	0x3e1b521c	0.15168041
156	0xbed3f2d7	-0.4139621
157	0x3c89084d	0.016727591
158	0x3e473b83	0.19456296
159	0xbef0d05c	-0.47033966
160	0xbe39c809	-0.18142714
161	0x3da16069	0.07879717
162	0x3dbdc89a	0.09266777
163	0x3ef0a90c	0.47003973
164	0x3b8f92c4	0.0043815095
165	0xbf264b25	-0.6495841
166	0xbee7447e	-0.45169443
167	0xbe8260b5	-0.25464407
168	0xbdb6aa89	-0.08919246
169	0x3dbfc176	0.093630716
170	0x3e0cebed	0.13761874
171	0xbe4e0289	-0.20118155
172	0xbed1adeb	-0.40953
173	0x3e38ada0	0.18034983
174	0x3e3f05ac	0.18654507
175	0xbcb70b28	-0.022344187
176	0x3e91e528	0.28495145
177	0xbef5a30b	-0.47975954
178	0x3e60395b	0.2189688
179	0x3e615228	0.22003996
180	0x3e423ece	0.1896927
181	0x3d1d0368	0.038333327
182	0x3e85ce10	0.26133776
183	0x3e45fac1	0.19333936
184	0xbab0d31b	-0.0013490649
185	0x3e0dcbee	0.13847324
186	0x3e8cf334	0.275293
187	0xbe358d5f	-0.1772971
188	0xbc02d61a	-0.007985616
189	0xbf118659	-0.56845623
190	0x3e1b08ad	0.15140028
191	0x3e86bed9	0.2631748
192	0xbf09d5f3	-0.53842086
193	0x3e007297	0.12543713
194	0x3e31e42c	0.17372197
195	0xbf0da6b8	-0.5533252
196	0x3e45c64d	0.19313927
197	0x3e8880ba	0.2666071
198	0xbd2d5cbe	-0.042324774
199	0xbcb563b6	-0.022142272
200	0x3f758e54	0.959203
201	0xbeb9399d	-0.36176768
202	0xbee7fec5	-0.4531156
203	0xbf00de21	-0.5033894
204	0xbdab09a5	-0.08351449
205	0xbe638659	-0.22219218
206	0x3da61e93	0.081113
207	0xbd44e48a	-0.048069514
208	0xbe9c8ef5	-0.30577818
209	0xbeed9b11	-0.4640737
210	0x3f539e46	0.8266338
211	0x3eb0de34	0.34544528
212	0xbe0e4b33	-0.13895874
213	0x3beb2865	0.0071764463
214	0xbef3754c	-0.47550428
215	0xbea81881	-0.32831195
216	0x3d51488f	0.051094588
217	0x3e85786f	0.26068446
218	0xbe97cad2	-0.29646927
219	0xbc6cbeac	-0.014449757
220	0xbd1d5cc9	-0.038418565
221	0xbe06a61d	-0.13149305
222	0xbe565dba	-0.20934191
223	0x3cc9d7cb	0.02463903
224	0xbe26f071	-0.16302659
225	0xbe1c1b1f	-0.15244721
226	0xbd970703	-0.07374384
227	0x3dc84f3a	0.09780736
228	0x3ea66bb2	0.3250404
229	0xbf41681c	-0.75549483
230	0x3e89ed68	0.2693894
231	0xbe1db7f5	-0.15402205
232	0x3eaf3d60	0.34226513
233	0xbe7f9c65	-0.24962004
234	0x3eaebc45	0.34128013
235	0x3e425966	0.18979415
236	0x3cc566f5	0.024096945
237	0x3e11cb4f	0.14237712
238	0x3e81c47f	0.25345227
239	0xbe8f0cea	-0.2793954
240	0xbd51ef81	-0.0512538
241	0xbf37e73d	-0.71837217
242	0xbef650cb	-0.48108515
243	0xbcde1b66	-0.027112674
244	0xbd80fe8c	-0.06298551
245	0xbd3a3c32	-0.045467563
246	0xbee35acc	-0.4440521
247	0xbec43376	-0.38320512
248	0xbee0966f	-0.43864772
249	0x3e161949	0.14658083
250	0x3d89dcfc	0.067316025
251	0x3ed5f041	0.41784862
252	0xbe80d2c5	-0.25160804
253	0xbe1d5713	-0.15365247
254	0x3db47a31	0.08812369
255	0xbd06416b	-0.03277723

tdfe.1.weight f4 [32]
0	0x3e6871bc	0.22699636
1	0x3f0b5f0a	0.54441893
2	0x3f32fe0e	0.69918907
3	0x3f4782f8	0.7793422
4	0x3f4176ad	0.7557171
5	0x3e3324b1	0.17494465
6	0x3e4c2036	0.19934162
7	0x3e86c936	0.26325387
8	0x3ed59ee7	0.41722795
9	0x3ecd3549	0.40079716
10	0x3e435e0e	0.19078848
11	0x3f34ebc6	0.7067226
12	0x3f4d91f9	0.8030086
13	0x3e532712	0.20620373
14	0x3f079ff6	0.52978456
15	0x3f0c1539	0.54719883
16	0x3f3456f7	0.704452
17	0x3f2d1ae4	0.67619157
18	0x3f397c0e	0.7245492
19	0x3e81afd9	0.25329474
20	0x3e4a8d71	0.19780518
21	0x3f305085	0.68872863
22	0x3f29b7bd	0.6629599
23	0x3f356df3	0.70870894
24	0x3f0a6274	0.5405648
25	0x3f2a623d	0.6655615
26	0x3f3e17cb	0.74255055
27	0x3f39eff7	0.7263178
28	0x3e6afcd0	0.22948003
29	0x3f1abfe6	0.60449064
30	0x3f13dbc7	0.5775723
31	0x3e2bcfa6	0.1677843

tdfe.1.bias f4 [32]
0	0xbdad41d0	-0.08459818
1	0xbdebd0ce	-0.11514436
2	0x3cbbddbb	0.022932878
3	0xbea299ad	-0.3175787
4	0xbdd93e6c	-0.10607609
5	0xbe91cb2f	-0.2847533
6	0xbe10cd19	-0.14140739
7	0x3dc1784b	0.09446772
8	0x3ccc1d48	0.024916306
9	0x3db141d2	0.08655132
10	0xbe965197	-0.29359123
11	0xbc0d128f	-0.008610382
12	0xbe2a983f	-0.1665964
13	0x3af89729	0.0018965948
14	0x3daefa9e	0.08543895
15	0xbcfa518e	-0.030556466
16	0xbd7c09a4	-0.06153263
17	0xbc846fb4	-0.016166545
18	0xbc1ae01c	-0.009452846
19	0xbd2c93c1	-0.042133097
20	0x3cd5d23f	0.02610123
21	0xbce611a4	-0.028084584
22	0xbccab2bc	-0.02474343
23	0xbc6d0088	-0.014465459
24	0xbe264eff	-0.16241072
25	0xbd51f8e1	-0.05126274
26	0xbd5d92ad	-0.05409496
27	0xbe17bc69	-0.14817967
28	0xbe7b25e4	-0.24526173
29	0x3d800a0b	0.062519155
30	0xbe1faab0	-0.15592456
31	0xbda318bd	-0.07963703

tdfe.1.running_mean f4 [32]
0	0x3f05dc02	0.5228883
1	0xbe1379c1	-0.14401914
2	0xbeae1360	-0.33999157
3	0xbeda3bbc	-0.426237
4	0xbea8774f	-0.32903525
5	0x3f3662e6	0.7124466
6	0x3e8e28ce	0.27765507
7	0x3e0d875d	0.13821168
8	0xbddb4051	-0.10705627
9	0xbd28bc16	-0.041194998
10	0x3f79f80d	0.9764412
11	0xbe575026	-0.21026668
12	0xbef5c0ba	-0.479986
13	0x3dac08a9	0.08400089
14	0xbe00eeba	-0.12591067
15	0xbf5a9f06	-0.853989
16	0xbe40a17b	-0.188116
17	0xbe68e188	-0.22742283
18	0xbe98396a	-0.29731303
19	0xbc1ecdcc	-0.0096926205
20	0x3ed36daa	0.41294605
21	0xbe610c58	-0.21977365
22	0xbe992747	-0.2991278
23	0xbe845be1	-0.25851348
24	0xbe6e17d0	-0.23251271
25	0xbe24db32	-0.16099241
26	0xbe83b620	-0.25724888
27	0xbeb66281	-0.35622028
28	0xbbc24a84	-0.005929293
29	0xbe502dad	-0.20329924
30	0xbf8756e5	-1.0573393
31	0x3ea919c9	0.33027485

tdfe.1.running_var f4 [32]
0	0x3ef3cb89	0.47616223
1	0x3e718e53	0.23589449
2	0x3eb5f995	0.35541978
3	0x3ee21616	0.44157475
4	0x3ea401bb	0.3203257
5	0x3f578268	0.8418336
6	0x3e1676b9	0.14693727
7	0x3e01123b	0.1260461
8	0x3da5a55e	0.08088182
9	0x3e1594f8	0.14607608
10	0x3fc7459a	1.5568116
11	0x3e44400a	0.19165054
12	0x3f18eaac	0.5973308
13	0x3df1cf87	0.11807161
14	0x3e0a0b9f	0.13480996
15	0x3f9b38c2	1.2126696
16	0x3e65ff21	0.22460605
17	0x3e2ce045	0.16882427
18	0x3eceb0e7	0.4036934
19	0x3dbb5d5a	0.09148665
20	0x3e92fe44	0.28709614
21	0x3e5f7336	0.21821293
22	0x3ef72e4c	0.4827751
23	0x3ef94ca7	0.48691294
24	0x3dd9ab6e	0.10628401
25	0x3d9b310a	0.07577713
26	0x3eae79ed	0.34077397
27	0x3ed41d2e	0.41428512
28	0x3d659bd1	0.0560568
29	0x3e8bddbe	0.27317613
30	0x3fe83b8b	1.8143171
31	0x3e49cb24	0.19706398

tdfe.4.weight f4 [32, 32, 3, 3]
0	0x3d53b531	0.05168647
1	0xba244676	-0.0006266603
2	0xbc4b488c	-0.012407433
3	0x3cd3e062	0.02586383
4	0xbb417686	-0.0029520108
5	0x3be786e8	0.0070656426
6	0x3b9e2ea0	0.0048273355
7	0x3c8e6423	0.017381733
8	0x3d3bd2d4	0.04585536
9	0x3ca98770	0.020694464
10	0x3bc71fa1	0.0060767685
11	0xbdddbd54	-0.10827127
12	0x3d5b1c44	0.053493753
13	0x3d607174	0.054795697
14	0x3d606c77	0.05479094
15	0xbe4e81d0	-0.20166707
16	0xbe4da3c1	-0.20081998
17	0xbe3b68b0	-0.18301654
18	0x3d3a0755	0.04541715
19	0x3d7b2934	0.06131859
20	0x3d4b3621	0.04961217
21	0xbdb91056	-0.09036319
22	0xbdc54324	-0.09631947
23	0xbd818cc2	-0.063256755
24	0xbd51f07d	-0.051254738
25	0xbd1a4716	-0.03766545
26	0x3c2eeb2e	0.010676188
27	0x3cbcb500	0.023035526
28	0x3da27a3d	0.07933471
29	0x3d10e49c	0.03537427
30	0xbe378fe9	-0.17925991
31	0xbdd7f9e3	-0.10545709
32	0xbe19ad08	-0.15007412
33	0xbd6f09ae	-0.05835884
34	0xbd99a394	-0.07501903
35	0xbdacc7a8	-0.08436519
36	0xbdaacaf5	-0.08339492
37	0xbdc531e2	-0.09628655
38	0xbc8ac384	-0.016938932
39	0xbc56279d	-0.013070968
40	0xbd3189f6	-0.04334446
41	0xbc94d15c	-0.018166237
42	0xbcff1471	-0.031137677
43	0xbd0cf090	-0.034409106
44	0xbd01de37	-0.03170606
45	0x3c70f628	0.014707126
46	0x3ca7c492	0.020479474
47	0xbc787f59	-0.015167081
48	0x3d07556c	0.03304045
49	0xbd1b105a	-0.03785739
50	0x3d7bd712	0.061484404
51	0x3d929980	0.07158184
52	0x3c22d0c6	0.009937471
53	0x3c604a55	0.013689597
54	0x3be64cb0	0.007028185
55	0xbcb7cd1a	-0.022436667
56	0x3d3b54ad	0.04573505
57	0xbcc4e472	-0.024034712
58	0xbda04de9	-0.0782736
59	0x3d585ba6	0.052821778
60	0x3da5ea46	0.08101325
61	0x3d57842a	0.052616276
62	0xbd4f39b2	-0.050592132
63	0xbd854336	-0.0650696
64	0x3ccd2cf6	0.025045853
65	0x3d166756	0.036719643
66	0xbd830193	-0.06396785
67	0x3d1b6011	0.037933413
68	0xbc391c86	-0.011298304
69	0xbd2ac6bd	-0.041693438
70	0xbcde985f	-0.027172266
71	0xbcc24b5f	-0.02371758
72	0x3d3f42b8	0.046694487
73	0x3bfd9666	0.007738876
74	0xbd5d5d85	-0.054044265
75	0xbd5a89c8	-0.053354055
76	0x3dad7d91	0.084712155
77	0x3dbad5f9	0.09122843
78	0xbc69daec	-0.014273386
79	0xbc8221f7	-0.015885336
80	0xbdba0722	-0.09083392
81	0x3d927908	0.07151991
82	0x3d56c914	0.052437857
83	0x3ddc7b90	0.10765755
84	0xbd8e72dd	-0.06955502
85	0xbd499da5	-0.049222607
86	0x3d54d82b	0.051963966
87	0xbd6ad358	-0.05733046
88	0x3da7c95c	0.08192703
89	0x3a925c95	0.0011166508
90	0xbd339b21	-0.043849114
91	0x3c9caf2e	0.019126501
92	0x3bdf6bda	0.006818277
93	0xbc58b99e	-0.013227848
94	0x3c5c2a1b	0.013437773
95	0xbc0b9c50	-0.0085211545
96	0xbda86110	-0.08221638
97	0xbc5ef51d	-0.013608244
98	0x3d84705f	0.064667456
99	0xbd74edf2	-0.059797235
100	0xbd87ebd6	-0.06636779
101	0xbd49f178	-0.04930255
102	0x3d467527	0.04845157
103	0x3d8f90f1	0.07010067
104	0x3d2dadc5	0.042402048
105	0xbde953ff	-0.11392974
106	0xbe103235	-0.14081652
107	0xbe01b2ed	-0.12665911
108	0x3d5b3bfb	0.053524
109	0x3d7c6084	0.061615482
110	0x3cb47b5e	0.022031482
111	0xbc8843c3	-0.016633874
112	0xbe1e181b	-0.15438883
113	0xbda43fa3	-0.0801995
114	0xbd0d94f5	-0.034565885
115	0xbd3c2a84	-0.045938984
116	0xbb5334b3	-0.0032227456
117	0x3c9678d9	0.018368172
118	0x3d70d378	0.058795422
119	0xbc494a85	-0.012285833
120	0xbd616714	-0.055029944
121	0xbcd13490	-0.025537759
122	0xbd5eb4fd	-0.054371823
123	0xbd5ed4ce	-0.054402165
124	0xbdc19e65	-0.094540395
125	0xbc8f732d	-0.017510975
126	0xbc14c020	-0.009079009
127	0x3d089a3f	0.033350226
128	0x3c83df69	0.016097741
129	0xbd0317d3	-0.032005142
130	0x3c7027c0	0.014657915
131	0xbc255d3f	-0.010093032
132	0xbd818d21	-0.06325746
133	0xbd1c00e9	-0.038086805
134	0xbd29305d	-0.04130589
135	0x3e1c0ee8	0.15240061
136	0x3ccac975	0.024754265
137	0x3c1a0a98	0.00940194
138	0x3dc0c150	0.094118714
139	0x3dc10939	0.09425587
140	0x3d649853	0.05580933
141	0x3ddcd48f	0.1078273
142	0x3d3f0f0a	0.0466452
143	0x3dc7667c	0.09736344
144	0x3d83cee9	0.06435949
145	0xbbf80bd7	-0.007569771
146	0x3c314e62	0.010821911
147	0xbd895693	-0.06705966
148	0xbdccf4a8	-0.10007602
149	0xbc61855a	-0.013764704
150	0xbd29b4cb	-0.041432183
151	0xbcc2055c	-0.023684196
152	0xbbf22c57	-0.0073905396
153	0x3c959c08	0.018262878
154	0x3ca8472c	0.02054175
155	0xbc971dcf	-0.018446831
156	0xbd8b250b	-0.06794175
157	0xbd1424cf	-0.036167916
158	0xbe096f8a	-0.13421455
159	0xbd568237	-0.052370276
160	0x3c7560f2	0.014976727
161	0x3d751998	0.05983886
162	0x3df3c772	0.119032755
163	0x3dc7beca	0.09753187
164	0x3e09c325	0.13453348
165	0xbe0356d5	-0.12826093
166	0xbdafe641	-0.08588839
167	0xbd76b89d	-0.060234655
168	0x3b3dd1ba	0.0028964118
169	0xbca66d0e	-0.020315673
170	0x3df340f3	0.118776225
171	0xbbc86cdd	-0.006116493
172	0xbc9b3dc1	-0.018950345
173	0x3dacc56f	0.08436095
174	0xbd9d8c50	-0.07692778
175	0x3d2d7071	0.04234356
176	0x3d28f392	0.04124791
177	0xbdcfd5e7	-0.101482205
178	0xbd52f904	-0.05150701
179	0xbdbf1dc7	-0.093318515
180	0xbd82726f	-0.06369483
181	0xbc537329	-0.012905874
182	0xbced2730	-0.02894935
183	0xbb157a7e	-0.0022808607
184	0x3dafa339	0.08576054
185	0x3cd05bbe	0.025434371
186	0x3db4f413	0.08835616
187	0x3b02ef09	0.0019978902
188	0x3ccdb750	0.025111824
189	0xbd33f1dd	-0.04393183
190	0x3d849196	0.06473081
191	0x3ce193bf	0.027536271
192	0xbd6024d5	-0.054722626
193	0x3c611726	0.013738429
194	0x3caf438a	0.02139451
195	0xbb4d5e2e	-0.0031336653
196	0x3c9a9f2e	0.01887473
197	0x3d54a746	0.051917337
198	0x3d70317d	0.058640946
199	0x3e10ba1a	0.14133492
200	0x3deb8495	0.114998974
201	0xbd693945	-0.056939382
202	0xbe0e4971	-0.13895203
203	0xbe323365	-0.17402418
204	0x3c53dbfc	0.012930866
205	0xbc262f0d	-0.010143054
206	0x3d21052d	0.039311577
207	0xbc9c9510	-0.019114047
208	0xbe005b50	-0.12534833
209	0x3cefcfd3	0.029273903
210	0xbd0a8196	-0.03381499
211	0xbd668014	-0.05627449
212	0xbdaf9b4e	-0.08574544
213	0xbe033472	-0.12812975
214	0xbde0bda5	-0.10973672
215	0xbda9a84b	-0.082840525
216	0xbbfa2b3f	-0.00763455
217	0x3b9a061a	0.0047004344
218	0x3c30fa59	0.010801875
219	0x3c7aec1a	0.01531508
220	0xbcff097d	-0.031132454
221	0x3c868f1c	0.016425662
222	0x3ce4dcf3	0.027937388
223	0x3cad4bc7	0.021154298
224	0xbdc9f1ef	-0.09860598
225	0xbd07940b	-0.03310017
226	0xbcdb5568	-0.026774123
227	0xbd06bbf8	-0.032894105
228	0xbcd31cb2	-0.025770519
229	0x3cdd7427	0.027032925
230	0x3c90f39a	0.017694283
231	0x3dd66c1d	0.1046984
232	0xbca6c6c3	-0.020358449
233	0x3b6bd687	0.0035986023
234	0xbe19e753	-0.1502965
235	0xbdad9ad2	-0.08476795
236	0xbd8897a3	-0.066695474
237	0xbdf65f22	-0.12029864
238	0xbe25b856	-0.161836
239	0xbdab6d9e	-0.08370517
240	0xbe1f028e	-0.15528318
241	0xbdfc00e3	-0.12304857
242	0xbdbc54bc	-0.09195849
243	0x3ccb7204	0.02483464
244	0x3c3ac59b	0.011399652
245	0xbd275086	-0.040848278
246	0xbc3bfb96	-0.011473557
247	0xbcbc7872	-0.023006652
248	0xbcbf9d16	-0.023390334
249	0xbd2da82c	-0.04239671
250	0xbe050f6b	-0.12994163
251	0xbd315f1e	-0.0433036
252	0x3cade677	0.021228058
253	0x3b7ab5bb	0.0038255292
254	0x3cba5649	0.022746222
255	0xbb787974	-0.0037914189

tdfe.5.weight f4 [32]
0	0x3f0fdd48	0.56197023
1	0x3f09033a	0.5352055
2	0x3f0974d4	0.5369389
3	0x3f07c1c8	0.5303006
4	0x3f131e87	0.57468456
5	0x3f1c21f8	0.6098933
6	0x3f29d43d	0.66339475
7	0x3ed89bfb	0.42306504
8	0x3f291155	0.6604207
9	0x3e95f73c	0.29290187
10	0x3ead7a47	0.33882353
11	0x3f3f258a	0.74666655
12	0x3f191b36	0.59807146
13	0x3ec19a76	0.37813157
14	0x3f134064	0.5752013
15	0x3ec586a7	0.38579294
16	0x3f17a3b3	0.5923416
17	0x3e685a1a	0.22690621
18	0x3f2fa507	0.68611187
19	0x3f0f3195	0.5593503
20	0x3f1852f0	0.5950155
21	0x3f12156a	0.57063925
22	0x3f091bc3	0.53557986
23	0x3f45a978	0.77211714
24	0x3f3e3bb9	0.7430988
25	0x3f5163a7	0.8179268
26	0x3e82e662	0.25566393
27	0x3edcede1	0.43150237
28	0x3e840e23	0.25792035
29	0x3f1fe9d6	0.6246618
30	0x3f277263	0.65408915
31	0x3eb5a15f	0.3547468

tdfe.5.bias f4 [32]
0	0x3d33d2ee	0.04390233
1	0xbd8667be	-0.06562756
2	0xbde54042	-0.11193897
3	0xbd81e42f	-0.06342351
4	0xbda92a56	-0.08260028
5	0xbe273cad	-0.1633174
6	0xbd852979	-0.06502051
7	0xbcf2126f	-0.029549805
8	0xbe14a9e0	-0.14517927
9	0x3cbf47a5	0.023349592
10	0x3bc49f2d	0.0060004205
11	0xbe033cbb	-0.12816136
12	0xbe00c4f5	-0.12575133
13	0xbc80c928	-0.015720919
14	0xbcd278a8	-0.025692299
15	0xbc19c3f8	-0.0093851015
16	0xbe7bb7b7	-0.245818
17	0xbd5461e7	-0.05185118
18	0xbd9cc8f0	-0.07655513
19	0xbd7d0751	-0.061774556
20	0xbe3ca12c	-0.18420857
21	0xbdce4c9c	-0.10073206
22	0xbd77acf4	-0.060467675
23	0xbe4a4618	-0.19753301
24	0xbe2f0ffd	-0.17095943
25	0xbe27e3ac	-0.16395444
26	0xbe098ca8	-0.13432562
27	0xbdc8fcb7	-0.098138265
28	0x3d73b6ae	0.05950039
29	0xbd8ff65c	-0.07029411
30	0xbe3eb05e	-0.18621966
31	0xbe2e3d8b	-0.17015664

tdfe.5.running_mean f4 [32]
0	0xbf80a0c8	-1.0049067
1	0xbf120267	-0.57034916
2	0x3e9a3b96	0.30123585
3	0xbdffb02d	-0.12484775
4	0xbececcf7	-0.4039075
5	0xbe5f70a5	-0.21820314
6	0xbf693eaa	-0.9111124
7	0xbf10fa2c	-0.5663173
8	0xbf6aa049	-0.91650826
9	0xbe139590	-0.14412522
10	0x3e2d7e87	0.16942798
11	0xbf92ecda	-1.1478531
12	0xbebf4485	-0.37356964
13	0xbedec06b	-0.43506178
14	0xbeac1eac	-0.3361715
15	0xbdd31597	-0.10306852
16	0xbe88dc8e	-0.2673077
17	0xbe41dd7d	-0.18932147
18	0xbedd298f	-0.4319577
19	0xbf2c8ffa	-0.6740719
20	0x3ead3ce7	0.33835527
21	0x3e858b76	0.26082963
22	0xbf20bdd0	-0.6278963
23	0xbf30e049	-0.6909223
24	0xbf965129	-1.1743518
25	0xbf838974	-1.0276322
26	0x3eb3e0c9	0.35132435
27	0x3daa7c10	0.08324444
28	0x3dc043d0	0.09387934
29	0xbf27f2be	-0.6560477
30	0xbe8a6176	-0.27027482
31	0x3eb946f2	0.3618694

tdfe.5.running_var f4 [32]
0	0x3f334ca5	0.70038825
1	0x3ebd0763	0.36919698
2	0x3eb5937d	0.35464087
3	0x3ed3e2ef	0.41384074
4	0x3eb7fffc	0.35937488
5	0x3ee3fb7d	0.44527808
6	0x3f0fc783	0.56163806
7	0x3e549d68	0.2076317
8	0x3f0770bd	0.529064
9	0x3e4c9f64	0.19982678
10	0x3e9c3824	0.30511582
11	0x3f8dadcd	1.1068665
12	0x3f260808	0.64856005
13	0x3e76d2e3	0.24103884
14	0x3f011bcb	0.50433034
15	0x3eba01be	0.36329454
16	0x3eadfe9e	0.3398332
17	0x3e2d024b	0.16895406
18	0x3eecc36e	0.4624285
19	0x3ec0c00d	0.37646523
20	0x3e6bb8f7	0.23019777
21	0x3f0a4ab4	0.5402024
22	0x3edae0ed	0.4274973
23	0x3f3e0daa	0.742396
24	0x3f574f76	0.8410562
25	0x3f7455d7	0.9544348
26	0x3e26ad49	0.1627704
27	0x3e8cc583	0.2749444
28	0x3e2176d9	0.15767993
29	0x3f250035	0.6445344
30	0x3e37774b	0.179166
31	0x3e0c66ae	0.13711044

tdfe.8.weight f4 [48, 32, 3, 3]
0	0x3dd88301	0.10571862
1	0x3d19c602	0.03754235
2	0x3c992db5	0.018698553
3	0xbcb244c2	-0.021761302
4	0xbcf2d0d5	-0.029640594
5	0xbd923716	-0.07139413
6	0x3e36f8d4	0.17868358
7	0x3d6ce388	0.05783418
8	0x3c6e7be7	0.014555908
9	0xbc34ff77	-0.011047236
10	0x3d7a4884	0.061104313
11	0x3c3bf884	0.011472825
12	0xbcc48e9d	-0.023993785
13	0xbb5dc7fc	-0.0033841124
14	0x3d2fa421	0.042881135
15	0x3d3408fa	0.043953873
16	0x3cd652fe	0.02616262
17	0xbc3fdbc1	-0.011710108
18	0xbc637c4a	-0.013884613
19	0xbcb26a84	-0.021779306
20	0x3d83e703	0.06440546
21	0xbd8437f6	-0.06455986
22	0xbb4e5cde	-0.0031488459
23	0xbd1a5fad	-0.0376889
24	0xbd17b77e	-0.037040226
25	0xbde0c152	-0.10974373
26	0xbdc537c6	-0.096297786
27	0x3d58f042	0.052963503
28	0x3d27e569	0.040990267
29	0x3da4eaba	0.08052583
30	0xbcfef012	-0.031120334
31	0xbc39267a	-0.011300677
32	0xbcc81d2c	-0.024427973
33	0x3d9e0fc4	0.07717851
34	0x3e155c9f	0.14586113
35	0xbc01c280	-0.007919908
36	0xbc6dce12	-0.014514463
37	0xbc81f1aa	-0.015862305
38	0x3e1ac0e2	0.15112641
39	0xbc22e518	-0.0099423155
40	0x3d89c283	0.06726553
41	0x3d932163	0.071841024
42	0x3cb3e360	0.021959007
43	0xbc8569f5	-0.016285876
44	0xbbbc61c0	-0.0057489574
45	0xbde1204e	-0.1099249
46	0x3c0da021	0.008644135
47	0xbcc63b9b	-0.024198344
48	0xbc91fffa	-0.017822254
49	0xbd2755a1	-0.040853146
50	0x3d1e8087	0.038696792
51	0x3da82be6	0.08211498
52	0x3d4d99d0	0.050195515
53	0x3de93129	0.1138633
54	0xbd66f75a	-0.056388237
55	0xbd6220ea	-0.05520717
56	0x3c233761	0.009961934
57	0xbdc184d2	-0.094491616
58	0x3c83a63d	0.01607048
59	0x3cfc0da4	0.030768223
60	0xbbd4aae3	-0.006490098
61	0x3d71a298	0.058992952
62	0x3d400d5e	0.046887748
63	0x3e1c7083	0.15277295
64	0xbd920625	-0.07130078
65	0xbb8c6094	-0.004283974
66	0x3d530619	0.051519487
67	0xbd7d160b	-0.0617886
68	0xbd223828	-0.039604336
69	0x3d1f9ea4	0.03896965
70	0xbdceadc4	-0.10091737
71	0xbd425e05	-0.047452945
72	0x3d037c28	0.032100827
73	0x3dde1a11	0.108448155
74	0x3d559ea0	0.05215323
75	0xbd941374	-0.07230273
76	0xbd6c0fe5	-0.057632346
77	0xbd09de31	-0.033659164
78	0xbd89666c	-0.067089885
79	0x3c22bc6b	0.009932618
80	0xbd995bed	-0.074882366
81	0x3d5033c6	0.050830625
82	0x3d243ef1	0.040099088
83	0xbd15d95e	-0.03658425
84	0x3da27fce	0.07934533
85	0x3cbaf40c	0.022821449
86	0xbcf2c483	-0.02963472
87	0xbceb89e5	-0.028752277
88	0xbd88a05f	-0.06671213
89	0xbd58898c	-0.05286555
90	0x3c0db0d0	0.008648112
91	0xbcf6d08d	-0.030128742
92	0xbda3d78c	-0.08000097
93	0x3cda0270	0.02661249
94	0xbd47f245	-0.04881503
95	0xbdba4d6c	-0.09096798
96	0x3d3d06fe	0.046149246
97	0x3d58b65e	0.052908294
98	0xbd0a1d46	-0.033719324
99	0xbd5a1fdd	-0.053253043
100	0xbd527dfb	-0.051389676
101	0xbcd9c580	-0.026583433
102	0x3c8988c3	0.016788846
103	0xbd0574ef	-0.03258222
104	0xbda4cfb2	-0.08047427
105	0x3de58c11	0.11208356
106	0x3e065d01	0.13121416
107	0x3dd8d478	0.105874
108	0xbda9269d	-0.08259318
109	0xbdbbd805	-0.09172062
110	0xbd0463f4	-0.032321885
111	0x3e7c33f7	0.24629198
112	0x3d55db8e	0.052211337
113	0xbcea9b47	-0.028638495
114	0x3d1d9669	0.03847352
115	0x3baf796f	0.005355052
116	0x3d1ae1ff	0.037813183
117	0x3d0d29a0	0.034463525
118	0xbd338c5a	-0.04383502
119	0xbd42f2f6	-0.047594987
120	0xbcf30f73	-0.029670453
121	0xbd026213	-0.031831812
122	0xbdc81600	-0.09769821
123	0x3d26d2ff	0.040728565
124	0xbd50d731	-0.050986473
125	0xbac44c8b	-0.0014976425
126	0x3d41caca	0.047312535
127	0xbd4e8cc7	-0.050427224
128	0xbd249056	-0.040176712
129	0x3da01714	0.07816902
130	0xbbcd154c	-0.0062586423
131	0x3d5f9191	0.054582182
132	0x3dd77b13	0.105215214
133	0x3d327f64	0.04357852
134	0x3d5a7939	0.053338263
135	0xbd175de5	-0.03695478
136	0xbd0ef189	-0.034898315
137	0xbd33abae	-0.0438649
138	0xbbbea8f6	-0.0058184816
139	0xbb2ee6a2	-0.002668776
140	0xbda3773f	-0.07981729
141	0xbb285959	-0.002568802
142	0x3c8663ad	0.016404951
143	0xbd73492c	-0.059395954
144	0x3ce733e5	0.028222987
145	0xb8af0c64	-8.346958e-05
146	0xbd1727e5	-0.03690328
147	0xbd801b98	-0.06255263
148	0xbce48261	-0.0278942
149	0x3d4c5444	0.04988505
150	0xbd85caf9	-0.065328546
151	0x3d0347eb	0.03205101
152	0x3dac050e	0.083994016
153	0xbb13259f	-0.0022452844
154	0x3c846b8f	0.01616457
155	0xbcac01ae	-0.020996895
156	0xbd1091c8	-0.035295278
157	0x3db18f0d	0.08669863
158	0xbde3133b	-0.11087652
159	0xbce68890	-0.02814129
160	0x3a47bdbd	0.0007619521
161	0xbd1595e0	-0.036519885
162	0xbd77a3ec	-0.060459062
163	0xbd95051b	-0.072763644
164	0xbd3c8ed0	-0.046034634
165	0xbd47b8a5	-0.048760075
166	0xbd3b7e68	-0.045774847
167	0xbd40af74	-0.047042325
168	0xbbeea187	-0.007282439
169	0xbde5a0d4	-0.11212316
170	0xbbf088bc	-0.0073405188
171	0x3d5f2b1c	0.05448447
172	0x3bc1919e	0.0059072515
173	0x3db6837d	0.08911798
174	0x3d18384a	0.037163056
175	0x3d10a002	0.035308845
176	0xbb569431	-0.0032742138
177	0xbc1ea57f	-0.009683012
178	0xbbae3409	-0.0053162617
179	0xbc655387	-0.013996965
180	0xbd030b6e	-0.031993322
181	0xbca66980	-0.020313978
182	0x3c582f79	0.013194912
183	0xbc6f4a8b	-0.014605175
184	0xbda49521	-0.080362566
185	0xbdaf1f2f	-0.0855087
186	0x3d40bf6a	0.047057547
187	0xbdb744b0	-0.08948648
188	0xbd66bf47	-0.05633476
189	0xbd491676	-0.049093686
190	0xbd367cf8	-0.044552773
191	0xbd506583	-0.05087806
192	0xbd08f1e4	-0.03343381
193	0x3c415c1e	0.011801748
194	0x3db31295	0.087437786
195	0xbe089c26	-0.13340816
196	0xbc5fb274	-0.013653386
197	0x3d67368f	0.056448516
198	0xbd78cdbc	-0.06074308
199	0xbcbad346	-0.022805821
200	0xbdda60d7	-0.10663002
201	0xbdbfb572	-0.0936078
202	0xbca51d16	-0.02015547
203	0x3d179543	0.03700758
204	0xbd315a14	-0.043298796
205	0xbdba14df	-0.09086012
206	0xbd8744ab	-0.06604894
207	0xbd6c147e	-0.05763673
208	0xbd198675	-0.037481744
209	0xbdaf62f7	-0.08563798
210	0xbccdc070	-0.025116175
211	0x3d0ffb57	0.035151806
212	0x3ccea246	0.025223862
213	0xbd09cd91	-0.03364331
214	0xbd064834	-0.032783702
215	0xbcaef47e	-0.021356817
216	0xbd29abaf	-0.041423496
217	0x3d53b96b	0.0516905
218	0x3da1cd71	0.07900513
219	0xbd72b609	-0.059255634
220	0x3c9d07ef	0.019168822
221	0x3d4ad514	0.049519613
222	0x3caca8c7	0.021076573
223	0x3cbf5d61	0.023359956
224	0x3ddcf5f1	0.10789097
225	0x3a0c40b0	0.00053502154
226	0x3d7c0eb0	0.061537445
227	0x3d2d0b22	0.042246945
228	0xbd0ffa00	-0.035150528
229	0x3d956732	0.072950736
230	0x3d89d753	0.06730523
231	0xbd1c086e	-0.038093977
232	0x3d31cac7	0.043406274
233	0x3dd22583	0.10261061
234	0xbbe8fbe7	-0.007110107
235	0xbd1f3f4d	-0.038878728
236	0x3d17e0bf	0.03707957
237	0x3ba7c7ca	0.0051202523
238	0x3a5f877b	0.0008526963
239	0x3db781e2	0.0896032
240	0x3cd2b543	0.025721198
241	0x3d777aba	0.060419776
242	0xbd7eaf84	-0.062179103
243	0xbd91692c	-0.07100138
244	0xbca66754	-0.020312943
245	0xbc2ede18	-0.010673068
246	0x3d0207f6	0.031745873
247	0x3dc2df08	0.09515196
248	0x3daf52f6	0.085607454
249	0xbb83f35a	-0.0040268125
250	0xbd9f22ac	-0.07770285
251	0xbb9d3fd7	-0.00479887
252	0x3cfcf76d	0.0308797
253	0xbd0dc7a3	-0.034614217
254	0xbd900ebe	-0.07034062
255	0xbc80ca96	-0.0157216

tdfe.9.weight f4 [48]
0	0x3f113a75	0.56729823
1	0x3f256786	0.6461109
2	0x3f0850ad	0.532481
3	0x3f18e08b	0.59717625
4	0x3e8c0af4	0.27352107
5	0x3f0cc341	0.54985434
6	0x3ef1b8de	0.47211355
7	0x3f1086d1	0.56455714
8	0x3f04ee12	0.51925766
9	0x3efc08cc	0.4922546
10	0x3ebb8ac0	0.36629295
11	0x3f00015b	0.5000207
12	0x3f154011	0.5830088
13	0x3f179eae	0.592265
14	0x3f0ddc14	0.5541394
15	0x3e72dffa	0.23718253
16	0x3f05dcab	0.5228984
17	0x3eefc228	0.46827817
18	0x3ee9825c	0.4560727
19	0x3f0ed0d4	0.55787396
20	0x3f1ff85d	0.6248835
21	0x3f225453	0.6340992
22	0x3f0735bc	0.5281637
23	0x3ef6e19a	0.48218995
24	0x3f076cfd	0.5290068
25	0x3f0a130b	0.5393531
26	0x3f0a51a4	0.54030824
27	0x3f25af99	0.64721066
28	0x3ef41bef	0.47677562
29	0x3f2f3eb4	0.6845505
30	0x3ef8cab0	0.48592138
31	0x3efdc38a	0.49563247
32	0x3f1824be	0.59431064
33	0x3f0d72d7	0.55253357
34	0x3efb468b	0.49077258
35	0x3f06025b	0.52347344
36	0x3ef32a9f	0.47493455
37	0x3ed2b426	0.41153067
38	0x3ec7a57d	0.38993445
39	0x3ed67ec6	0.41893595
40	0x3ec41c77	0.38302967
41	0x3f1b8a2f	0.60757726
42	0x3eee49a9	0.46540573
43	0x3ef37c9a	0.47556
44	0x3f067b5b	0.52531976
45	0x3f074df5	0.5285333
46	0x3f26b686	0.6512226
47	0x3f1de6ea	0.6168047

tdfe.9.bias f4 [48]
0	0xbe668cce	-0.2251465
1	0xbdd3d54c	-0.103434175
2	0xbe1da3a4	-0.15394455
3	0xbe74b2cf	-0.23896335
4	0xbdd955d0	-0.106120706
5	0xbe08630b	-0.13319032
6	0xbe21050c	-0.15724581
7	0xbe3cd0db	-0.18439047
8	0xbdf102cf	-0.11768114
9	0xbe4e1721	-0.2012601
10	0xbdc9174e	-0.09818898
11	0xbe1d0895	-0.15335305
12	0xbe26c84c	-0.16287345
13	0xbe1dbf72	-0.15405062
14	0xbe2bc274	-0.16773397
15	0xbdf859b0	-0.121264815
16	0xbea2d334	-0.3180176
17	0xbdf37fdf	-0.11889624
18	0xbe23749b	-0.1596245
19	0xbe304901	-0.17215349
20	0xbe6a9e1e	-0.2291188
21	0xbe61dd83	-0.22057156
22	0xbeb2629f	-0.34840867
23	0xbe25e163	-0.1619926
24	0xbd85c315	-0.065313496
25	0xbe0d18c1	-0.13778974
26	0xbe2d0be6	-0.1689907
27	0xbe095360	-0.13410711
28	0xbdcb5967	-0.099291615
29	0xbe81b4e7	-0.2533333
30	0xbe3b1105	-0.18268211
31	0xbe492ef6	-0.1964682
32	0xbda02208	-0.07818991
33	0xbe00a3a6	-0.12562427
34	0xbe2d2218	-0.16907537
35	0xbe35e400	-0.17762756
36	0xbe2b2851	-0.16714598
37	0xbdeae36e	-0.1146916
38	0xbe205e39	-0.15660943
39	0xbc5c5bb0	-0.013449594
40	0xbe55bb45	-0.20872219
41	0xbe26b45f	-0.16279744
42	0xbde3922b	-0.11111864
43	0xbe05e73f	-0.13076495
44	0xbdf5340f	-0.1197282
45	0xbe46b47d	-0.19404788
46	0xbe2deee4	-0.16985661
47	0xbe5b925c	-0.2144255

tdfe.9.running_mean f4 [48]
0	0xbe4af933	-0.19821624
1	0xbf04b3b0	-0.5183668
2	0xbee1bfe8	-0.44091725
3	0xbf0b7fb6	-0.54491746
4	0xbea149db	-0.3150166
5	0xbeb77184	-0.35828793
6	0x3def3341	0.11679698
7	0xbf5c6c69	-0.8610292
8	0xbe8fafc8	-0.28063798
9	0xbf23071c	-0.63682723
10	0xbe6df1ba	-0.23236743
11	0xbebbddb1	-0.36692575
12	0xbf00d837	-0.5032992
13	0xbee01ee5	-0.4377357
14	0xbee2e51d	-0.44315425
15	0x3c307318	0.010769628
16	0xbe68a614	-0.22719604
17	0xbe8bea70	-0.273273
18	0xbf082afd	-0.53190595
19	0xbdf10da4	-0.1177018
20	0xbe8e19cb	-0.27754053
21	0xbec937da	-0.39300424
22	0xb9d38896	-0.0004034682
23	0xbe0ed20e	-0.13947317
24	0xbf1aadbf	-0.60421365
25	0xbebb6f2b	-0.36608252
26	0xbec5db3b	-0.38643822
27	0xbf1b7514	-0.6072552
28	0xbea61288	-0.32436013
29	0xbe9d7b11	-0.30757955
30	0xbeace73f	-0.33770177
31	0xbe928740	-0.28618813
32	0xbf3c6cfd	-0.736038
33	0xbea74de9	-0.32676628
34	0xbec0fe16	-0.37693852
35	0xbeacbda0	-0.33738422
36	0xbe5cc3ad	-0.2155902
37	0xbefc1bae	-0.49239868
38	0xbd803d9b	-0.0626175
39	0xbed91bf5	-0.42404142
40	0x3f0ce455	0.5503591
41	0xbf44702e	-0.7673367
42	0xbe939e9f	-0.28831956
43	0xbee71179	-0.45130518
44	0xbefad2b0	-0.48988867
45	0xbef77ae9	-0.4833596
46	0xbf0555e9	-0.52084213
47	0xbeb1bd2a	-0.34714633

tdfe.9.running_var f4 [48]
0	0x3e12e4b7	0.1434506
1	0x3e3a3e99	0.18187942
2	0x3e17fabb	0.1484174
3	0x3e2cc5a0	0.16872263
4	0x3d9c93d0	0.076453805
5	0x3e21e241	0.15808965
6	0x3de6ec52	0.11275543
7	0x3e5fe27b	0.21863739
8	0x3e059305	0.13044365
9	0x3e17c9d2	0.14823082
10	0x3dc51b1a	0.0962431
11	0x3e0e736d	0.13911219
12	0x3e201068	0.15631258
13	0x3e58fc39	0.21189965
14	0x3e0c610c	0.13708895
15	0x3dac96b5	0.084271826
16	0x3e12d115	0.14337571
17	0x3e36ec42	0.17863563
18	0x3dfeb63c	0.12437102
19	0x3e0b7731	0.13619687
20	0x3e252308	0.16126645
21	0x3e5c21e1	0.21497299
22	0x3e0c6a93	0.1371253
23	0x3df3dd1b	0.11907407
24	0x3e19efbe	0.1503286
25	0x3e0bce05	0.13652809
26	0x3e6d6b84	0.23185545
27	0x3e551ae1	0.20811035
28	0x3e3f58d3	0.18686228
29	0x3e3ae992	0.18253163
30	0x3e09d905	0.13461693
31	0x3e0507af	0.12991212
32	0x3e48b4b9	0.1960019
33	0x3e22f4ea	0.1591374
34	0x3d96bb96	0.07359998
35	0x3e32d1fd	0.17462917
36	0x3df3e0fb	0.11908146
37	0x3dfc83ec	0.123298496
38	0x3d99c5af	0.07508408
39	0x3e282cb4	0.16423303
40	0x3dafaf35	0.0857834
41	0x3e2b394c	0.16721076
42	0x3e34def9	0.17663182
43	0x3e03fde2	0.12889817
44	0x3e28796a	0.16452566
45	0x3e8c032a	0.27346164
46	0x3e4710ba	0.19439974
47	0x3e029f37	0.12756048
