torch/trained_models/k_16_c_2_esc10_mixup_2_fold2.pt (torch, 122582 bytes, 32 tensors)

acfe.0.weight f4 [8, 1, 1, 9]
-0.42459813 -0.3667246 0.2663066 0.41355532 0.5468706 -0.3526135 -0.8425644 0.98314744
-0.020383328 -0.03385962 -0.038132664 -0.017055955 -0.040912893 -0.07639234 0.17179784 0.014104899
-0.12014538 0.004752835 0.02594163 -0.14429112 0.111133486 0.06994026 0.052864708 0.012704549
-0.13212658 0.111620106 -0.015444895 0.106869854 0.02170799 0.13748764 -0.028423836 -0.07567092
-0.103046395 -0.09148452 -0.0401579 0.12143111 -0.71966237 0.20448342 1.0236979 -1.3592042
-0.07553722 0.46641967 -0.69995266 0.39206693 -0.43142644 -0.03110276 0.14239146 0.10275025
0.1559903 0.019230159 -0.005644571 -0.098712906 -0.060666468 -0.01427544 -0.6624484 -0.5892593
-0.9674896 -0.12661693 1.2427953 0.83228105 -0.3518535 -0.4306253 1.0189769 -0.014931714
0.0016060645 -0.10428604 -0.23332898 -0.15914764 0.65011334 -0.19820304 -0.75372577 0.52027494
00000000: ed64 d9be 54c3 bbbe 5759 883e 86bd d33e
00000010: b6ff 0b3f c289 b4be 4db2 57bf 8daf 7b3f
00000020: f0fa a6bc 63b0 0abd ff30 1cbd eeb8 8bbc
00000030: 4794 27bd 9673 9cbd c6eb 2f3e 3c18 673c
00000040: c80e f6bd abbd 9b3b 8b83 d43c 0dc1 13be
00000050: f499 e33d d73c 8f3d aa88 583d be26 503c
00000060: 314c 07be 1599 e43d 960c 7dbc 95de da3d
00000070: f4d4 b13c 8fc9 0c3e 1bd9 e8bc 5bf9 9abd
00000080: fd09 d3bd 3c5c bbbd 9c7c 24bd e0b0 f83d
00000090: cb3b 38bf 1a64 513e 8808 833f 67fa adbf
000000a0: 42b3 9abd 8fce ee3e 1930 33bf ffbc c83e
000000b0: ede3 dcbe 37cb febc 11cf 113e b96e d23d
000000c0: ecbb 1f3e 9188 9d3c 18f6 b8bb fe29 cabd
000000d0: 677d 78bd 89e3 69bc 3896 29bf b3d9 16bf
000000e0: 66ad 77bf dea7 01be eb13 9f3f 5f10 553f
000000f0: 2426 b4be eb7a dcbe d66d 823f 26a4 74bc
00000100: 9582 d23a eb93 d5bd cbed 6ebe 99f7 22be
00000110: d46d 263f bdf5 4abe 2cf4 40bf bd30 053f

acfe.1.weight f4 [8]
1.4018886 0.19508998 0.19500165 0.19474275 1.7339762 0.19508117 1.9402485 1.0348808
00000000: 1671 b33f abc5 473e 83ae 473e a56a 473e
00000010: eff2 dd3f 5cc3 473e 105a f83f f976 843f

acfe.1.bias f4 [8]
-0.24767645 -0.02309527 -0.05400548 -0.05731193 0.13571562 -0.057018634 0.15733021 -0.553468
00000000: e59e 7dbe 4b32 bdbc da34 5dbd eabf 6abd
00000010: 09f9 0a3e 5f8c 69bd 2c1b 213e 14b0 0dbf

acfe.1.running_mean f4 [8]
-8.086796e-11 9.169383e-11 -6.027312e-11 -4.5579325e-11 8.201087e-10 -1.126464e-10 -8.818961e-11 1.660408e-10
00000000: 9dd4 b1ae 0aa3 c92e c08a 84ae c275 48ae
00000010: 056e 6130 49b6 f7ae 56ee c1ae 5590 362f

acfe.1.running_var f4 [8]
4.917609e-12 1.971436e-13 1.496725e-13 4.2657859e-13 1.2108785e-11 9.276766e-13 2.9071247e-11 1.8698012e-12
00000000: e205 ad2c c6f6 5d2a 2984 282a 7424 f02a
00000010: 1f05 552d 128f 822b a1b6 ff2d 5893 032c

acfe.3.weight f4 [64, 8, 1, 5]
0.01438264 -0.047814183 -0.053823568 0.025225643 0.10266803 -0.026611626 0.047564883 0.02214725
0.032311387 0.018974472 -0.06104853 0.032387696 -0.04329134 -0.039969973 0.07067636 0.041824352
-0.014970487 -0.05073673 0.026733767 0.04595863 -0.10226442 -0.0019338218 0.014792082 0.004819449
0.031183233 0.036176883 -0.045785964 0.036733918 -0.038838536 0.060933646 0.06050811 -0.1466305
0.039907992 0.15984039 -0.074578665 -0.0067998776 0.03468485 0.007822044 0.084892504 -0.019598821
-0.1190819 0.100670226 -0.08589113 0.075957775 -0.029163603 -0.021754486 0.016083326 0.04632944
0.04600594 0.006791293 0.01039725 -0.014824985 0.006553701 0.009308632 -0.024312021 0.057763726
0.040563855 -0.029943807 -0.013139661 -0.013820357 -0.048057158 -0.12605414 0.049623936 0.14732206
-0.07447499 -0.047748946 0.046655715 -0.0070706327 0.037088238 0.01139735 0.23331457 -0.11994363
-0.035029672 0.076674394 0.10696813 0.08265909 -0.07753491 0.101347946 -0.0485205 0.07259322
0.06504946 0.18579593 -0.0042167264 -0.09839503 0.047326054 -0.031242471 -0.0586944 0.085987195
-0.05945746 0.077780485 -0.022432914 -0.008821835 0.000557381 -0.045599874 -0.011763336 -0.013909203
0.079150364 -0.07575849 0.009849404 -0.024616651 0.036713634 0.009457296 0.034428738 -0.0149041
-0.06372263 -0.008494112 -0.03972999 0.024587935 -0.05422316 -0.023861285 -0.08612072 0.18430302
-0.20200546 0.04960824 0.036582567 0.04189993 0.06794407 -0.056878764 0.050531738 -0.08732066
0.14897348 -0.12919268 -0.049176972 0.09223806 0.015577262 0.029622318 0.05523846 0.0049961223
-0.03274038 -0.024418049 -0.03390764 -0.09419644 -0.011925862 0.0023274906 -0.110256016 0.03823593
-0.0071586426 0.00029568514 -0.10132066 0.041707523 -0.032641858 0.024357352 0.19229203 -0.09000216
-0.08218491 -0.032536548 0.02562571 -0.061822526 0.022573933 0.0001374742 0.107255295 -0.20862299
0.032013837 0.1496069 0.0048999363 -0.031720866 -0.0077916244 0.011387655 -0.028114604 0.028860431
-0.044176545 -0.026564302 -0.041933764 -0.11398639 -0.047507364 0.09104244 0.033759028 -0.10072571
-0.009068396 -0.021105722 0.036510438 -0.1167499 -0.018959494 -0.043429896 -0.022362206 -0.025721466
-0.09398414 0.022650564 -0.0076585417 0.028150735 0.13168518 -0.05159263 -0.06844591 0.022032447
-0.044385064 -0.061372455 -0.057873603 0.035550706 -0.04072582 -0.04210606 -0.017437821 0.11749181
-0.083856456 -0.21180578 0.18279581 0.025440814 0.11901851 0.07476882 -0.054492064 -0.027849618
5.300862e-05 0.016406482 -0.07270517 -0.019534744 0.05248952 -0.009525452 -0.024725575 0.0049420143
-0.022395322 -0.061793566 -0.0054376805 0.0059539895 0.015127291 0.008180151 0.04090997 -0.025684802
-0.035796292 0.0004538585 -0.03773308 -0.0054890276 0.026050588 -0.049400307 -0.0071625044 0.009850367
0.012661406 0.00296702 0.04653493 0.028992388 0.0055286945 0.06725331 0.153535 0.010601251
0.07222489 0.07835536 0.05894854 -0.042581502 -0.07478798 -0.03310663 0.0348155 0.009317709
0.017761718 0.12854111 0.0749563 0.04764052 0.025820741 0.036333084 -0.0008192616 0.029820176
-0.02564749 -0.038699433 0.028250236 -0.0070755514 0.03877685 0.03294415 -0.0858677 0.03198783
00000000: 2aa5 6b3c ced8 43bd 1a76 5cbd 02a6 ce3c
00000010: 9e43 d23d a000 dabc 65d3 423d 266e b53c
00000020: f258 043d 5a70 9b3c 060e 7abd f6a8 043d
00000030: 4352 31bd 8eb7 23bd c4be 903d 0350 2b3d
00000040: c646 75bc 51d1 4fbd c600 db3c 1e3f 3c3d
00000050: 0270 d1bd 4b78 fdba 7d5a 723c 78ec 9d3b
00000060: fb73 ff3c 362e 143d 108a 3bbd 4e76 163d
00000070: 2815 1fbd 8f95 793d 5ad7 773d 4e26 16be
00000080: 9076 233d 33ad 233e b3bc 98bd 82d1 debb
00000090: b411 0e3d 0828 003c 1fdc ad3d b58d a0bc
000000a0: 36e1 f3bd 312c ce3d b0e7 afbd c08f 9b3d
000000b0: 82e8 eebc 7736 b2bc 2ec1 833c f0c3 3d3d
000000c0: b970 3c3d 7f89 de3b 3a59 2a3c 7ee4 72bc
000000d0: 6ec0 d63b 3c83 183c 012a c7bc a899 6c3d
000000e0: 4926 263d b74c f5bc bc47 57bc c76e 62bc
000000f0: 95d7 44bd 5614 01be 7842 4b3d 98db 163e
00000100: 5886 98bd 6694 43bd 101a 3f3d c4b0 e7bb
00000110: d6e9 173d f3bb 3a3c 04ea 6e3e 02a5 f5bd
00000120: 467b 0fbd 7707 9d3d 1b12 db3d 2b49 a93d
00000130: 9fca 9ebd 838f cf3d 6fbd 46bd c1ab 943d
00000140: a738 853d 4a41 3e3e 772c 8abb 5583 c9bd
00000150: f7d8 413d 36f0 ffbc 8a69 70bd 0e1a b03d
00000160: aa89 73bd 604b 9f3d 3bc5 b7bc 7589 10bc
00000170: 351d 123a efc6 3abd 02bb 40bc 6de3 63bc
00000180: 9619 a23d 4427 9bbd 655f 213c dca8 c9bc
00000190: 0961 163d c6f2 1a3c 2605 0d3d 5430 74bc
000001a0: 0381 82bd e32a 0bbc eabb 22bd a36c c93c
000001b0: 1b19 5ebd be78 c3bc 0f60 b0bd eeb9 3c3e
000001c0: 85da 4ebe 0332 4b3d 9ad7 153d 439f 2b3d
000001d0: 4326 8b3d b5f9 68bd 5efa 4e3d 2dd5 b2bd
000001e0: 818c 183e 164b 04be cb6d 49bd 4fe7 bc3d
000001f0: c637 7f3c 81aa f23c b941 623d 83b6 a33b
00000200: c71a 06bd 5c08 c8bc bde2 0abd 10ea c0bd
00000210: b164 43bc d088 183b e8cd e1bd 479d 1c3d
00000220: 0c93 eabb 3006 9b39 3581 cfbd 82d5 2a3d
00000230: 78b3 05bd 1289 c73c 34e8 443e 0d53 b8bd
00000240: 9050 a8bd 0b45 05bd 02ed d13c 9e39 7dbd
00000250: f8ec b83c f326 1039 aaa8 db3d 44a1 55be
00000260: f120 033d 8d32 193e a58f a03b bded 01bd
00000270: e250 ffbb 4993 3a3c 9950 e6bc b66c ec3c
00000280: 77f2 34bd 619d d9bc bdc2 2bbd b271 e9bd
00000290: 1597 42bd 7574 ba3d e846 0a3d 4849 cebd
000002a0: 9c93 14bc e8e5 acbc f88b 153d 921a efbd
000002b0: f150 9bbc 8ce3 31bd f230 b7bc d3b5 d2bc
000002c0: c27a c0bd ad8d b93c 81f4 fabb 5f9c e63c
000002d0: 7bd8 063e cb52 53bd 5f2d 8cbd 647d b43c
000002e0: 1dcd 35bd af61 7bbd df0c 6dbd 9e9d 113d
000002f0: 1ed0 26bd 6777 2cbd c3d9 8ebc 8c9f f03d
00000300: efbc abbd 9de3 58be d32e 3b3e 4169 d03c
00000310: fabf f33d 6520 993d 1233 5fbd e224 e4bc
00000320: 9355 5e38 e366 863c 73e6 94bd 5407 a0bc
00000330: 40ff 563d a410 1cbc 4a8d cabc 9ff0 a13b
00000340: 6576 b7bc 401b 7dbd 922e b2bb af19 c33b
00000350: 75d8 773c 0a06 063c 3691 273d ef68 d2bc
00000360: 229f 12bd dbf3 ed39 018e 1abd 4ddd b3bb
00000370: 0b68 d53c fa57 4abd 71b3 eabb 6f63 213c
00000380: c971 4f3c 5672 423b 699b 3e3d 7281 ed3c
00000390: 0d2a b53b 1abc 893d 4738 1d3e dfb0 2d3c
000003a0: a5ea 933d c678 a03d 0674 713d f169 2ebd
000003b0: 712a 99bd d19a 07bd b39a 0e3d 4ea9 183c
000003c0: 0681 913c 48a0 033e b082 993d b522 433d
000003d0: 0586 d33c 00d2 143d b7c3 56ba 7149 f43c
000003e0: af1a d2bc 4c83 1ebd 0a6d e73c 07da e7bb
000003f0: 79d4 1e3d 72f0 063d 68db afbd ac05 033d

acfe.4.weight f4 [64]
0.23962118 0.2778039 0.22196497 0.24116886 0.26152384 0.1480336 0.1905017 0.0651714
0.59631073 0.66387403 0.4057645 0.4891273 1.0427662 0.94751185 0.6004615 1.1247787
1.0325115 0.73510456 0.71764666 1.0590805 1.0096658 0.6709077 0.40993693 0.34205988
0.33104178 0.04767686 0.2853829 0.28777078 0.36776292 0.16334684 0.12454504 0.3236032
0.6287177 0.5580302 0.5844508 0.7364483 0.5195504 0.5317021 0.5546477 0.9467342
0.95623094 1.1764408 1.4778666 0.7102992 1.2043248 1.389229 0.8902906 0.38968
1.200846 1.1269776 0.8426805 0.9418241 1.337737 1.2643155 0.45649198 0.79792166
0.6192492 0.3570485 0.44690087 0.33242026 0.24447632 0.18571861 0.13524811 0.16369621
00000000: 415f 753e 503c 8e3e c94a 633e f8f4 763e
00000010: 74e6 853e 1f96 173e e112 433e 9578 853d
00000020: d2a7 183f a6f3 293f 5dc0 cf3e e56e fa3e
00000030: 5d79 853f 2390 723f d8b7 193f c0f8 8f3f
00000040: 5629 843f d02f 3c3f b1b7 373f f38f 873f
00000050: bb3c 813f 9bc0 2b3f 41e3 d13e 7922 af3e
00000060: 4f7e a93e d048 433d b51d 923e b156 933e
00000070: 6c4b bc3e 6544 273e 7811 ff3d 52af a53e
00000080: a5f3 203f 11db 0e3f 919e 153f e087 3c3f
00000090: 4101 053f a11d 083f 64fd 0d3f 2c5d 723f
000000a0: 8dcb 743f 9d95 963f bc2a bd3f 2bd6 353f
000000b0: 5127 9a3f 42d2 b13f 16ea 633f 2384 c73e
000000c0: 52b5 993f cd40 903f e9b9 573f 621b 713f
000000d0: f73a ab3f 17d5 a13f 51b9 e93e 9844 4c3f
000000e0: 1e87 1e3f 10cf b63e 31d0 e43e fd32 aa3e
000000f0: 0058 7a3e 052d 3e3e 7b7e 0a3e fb9f 273e

acfe.4.bias f4 [64]
-0.10746862 0.08891346 0.07174371 0.1091909 0.08087685 0.24247877 0.039982967 -0.11129956
0.16746455 0.07859836 0.060048535 -0.057623368 0.08247658 0.2055946 0.13740808 0.03677791
0.2694406 0.07804737 0.10616934 0.10323773 0.05347478 0.16597156 0.02880905 0.06532199
0.097106375 -0.19186908 0.18077919 -0.017379332 0.12402902 0.1676961 -0.0886701 0.006634495
0.06449452 0.09531753 0.09155461 0.058563326 0.28973696 0.08563393 0.12495857 0.14573365
0.025619444 0.10260113 0.04545964 0.17416328 0.114585556 0.23192015 0.05793218 0.019477675
0.20720123 0.08377848 0.033272173 0.072669916 0.0764082 0.22142532 0.06409941 0.13887726
0.23204437 0.05338469 0.027316116 0.09149663 0.05702437 -0.093988895 -0.15284014 -0.100103565
00000000: 8218 dcbd 4318 b63d 5eee 923d 7b9f df3d
00000010: c3a2 a53d 5b4c 783e 2ec5 233d 06f1 e3bd
00000020: d47b 2b3e 2df8 a03d 74f5 753d 7b06 6cbd
00000030: 7be9 a83d 6487 523e b4b4 0c3e 6fa4 163d
00000040: 1ef4 893e 4dd7 9f3d 506f d93d 4e6e d33d
00000050: 5f08 5b3d 73f4 293e f500 ec3c 89c7 853d
00000060: b5df c63d 5479 44be 2e1e 393e 1a5f 8ebc
00000070: ed02 fe3d 87b8 2b3e ab98 b5bd 2e66 d93b
00000080: b415 843d d635 c33d fc80 bb3d 19e0 6f3d
00000090: 6758 943e d860 af3d 47ea ff3d 343b 153e
000000a0: dedf d13c 8b20 d23d e333 3a3d dc57 323e
000000b0: d5ab ea3d 7a7c 6d3e 4b4a 6d3d a58f 9f3c
000000c0: 8f2c 543e 0d94 ab3d 6748 083d f7d3 943d
000000d0: e77b 9c3d 52bd 623e 8d46 833d d735 0e3e
000000e0: 0a9d 6d3e e8a9 5a3d 0cc6 df3c 9662 bb3d
000000f0: 6392 693d 407d c0bd 2082 1cbe 1903 cdbd

acfe.4.running_mean f4 [64]
-0.0010682243 0.03403687 -0.0025475412 0.015046139 -0.003439399 0.057663094 0.091258354 -0.010114574
0.17328697 0.17669547 -0.109182455 -0.25540385 -0.19796124 0.0137153845 0.0910285 -0.0031013147
-0.028103208 0.01542821 0.020814408 -0.05616696 -0.026693748 0.012161019 -0.007954827 0.01671061
-0.0227495 0.030591896 0.006417656 -0.03454757 -0.041495226 -0.010452723 0.010061557 0.016056746
-0.054467563 0.027594116 -0.010009988 0.016391477 -0.01918908 0.03464273 0.011298597 0.006015067
-0.018316269 -0.014210436 0.036167074 0.05758303 -0.029173855 0.23026222 0.07830939 0.1625072
-0.33243743 -0.24141319 -0.1851991 -0.089139424 0.20743078 0.17127623 0.05018124 -0.012366611
-0.15936361 0.06995868 0.14210145 0.0048615085 -0.007822607 -0.027873572 -0.010835031 -0.024702054
00000000: a903 8cba 3f6a 0b3d a6f4 26bb 1584 763c
00000010: 8a67 61bb 2330 6c3d a9e5 ba3d 99b7 25bc
00000020: 2472 313e a8ef 343e 0d9b dfbd 4bc4 82be
00000030: 5ab6 4abe 7eb6 603c 266d ba3d 6d3f 4bbb
00000040: b338 e6bc 9ac6 7c3c fa82 aa3c 540f 66bd
00000050: d9ac dabc 033f 473c f654 02bc b0e4 883c
00000060: 295d babc db9b fa3c 334b d23b c181 0dbd
00000070: e6f6 29bd e641 2bbc 3bd9 243c 7089 833c
00000080: 6119 5fbd 0e0d e23c ef00 24bc 6b47 863c
00000090: 6b32 9dbc 89e5 0d3d c01d 393c 0a1a c53b
000000a0: 000c 96bc e3d2 68bc ed23 143d 2fdc 6b3d
000000b0: 02fe eebc dcc9 6b3e ac60 a03d 4a68 263e
000000c0: 3d35 aabe 0535 77be d5a4 3dbe bb8e b6bd
000000d0: bc68 543e 0963 2f3e d88a 4d3d 539d 4abc
000000e0: 3730 23be 7f46 8f3d 0b83 113e 4a4d 9f3b
000000f0: 642a 00bc 1e57 e4bc 6a85 31bc f65b cabc

acfe.4.running_var f4 [64]
3.9384818e-07 6.128798e-07 4.4377876e-07 6.6372553e-07 7.152265e-07 3.9453494e-07 1.195692e-06 2.1697424e-08
4.9064274e-06 3.6661834e-06 2.4185126e-06 4.7220233e-06 4.4209173e-06 5.500388e-06 4.0531845e-06 4.31447e-06
4.8621887e-06 1.9865383e-06 3.7045588e-06 3.885714e-06 1.6516674e-06 2.5252782e-06 1.5516829e-06 1.2515859e-06
1.7110173e-06 2.0330191e-07 1.6048731e-06 1.0346064e-06 2.7728194e-07 7.0860716e-07 1.597408e-07 1.0739578e-06
4.5914248e-07 1.8355469e-06 2.5060099e-06 2.4457183e-06 1.4989505e-06 9.390147e-07 3.0038834e-06 5.071716e-06
4.0160853e-06 5.5651913e-06 5.3877607e-06 3.3015042e-06 5.5545793e-06 9.341563e-06 6.828368e-06 3.1140607e-06
1.1198102e-05 7.3067154e-06 6.4978094e-06 6.3322886e-06 4.638818e-06 5.4603597e-06 2.3383734e-06 6.1966784e-06
5.026683e-06 1.6267664e-06 3.0648177e-06 2.457698e-06 1.7778232e-06 3.339008e-07 2.2181912e-07 2.4457455e-07
00000000: 1572 d334 c784 2435 7d40 ee34 df2a 3235
00000010: fefd 3f35 78d0 d334 aa7b a035 2461 ba32
00000020: e4a1 a436 8d08 7636 bb4d 2236 df71 9e36
00000030: 6457 9436 f98f b836 9700 8836 04c5 9036
00000040: e225 a336 7850 0536 d69b 7836 0762 8236
00000050: dcae dd35 f377 2936 6b43 d035 2afc a735
00000060: 1ba6 e535 344b 5a34 0567 d735 cedc 8a35
00000070: 57dd 9434 1d37 3e35 3785 2b34 e924 9035
00000080: 1080 f634 e95c f635 ec2c 2836 1f21 2436
00000090: 8c2f c935 9910 7c35 5396 4936 b52d aa36
000000a0: e9c1 8636 a1bc ba36 83c8 b436 698f 5d36
000000b0: 7961 ba36 b5b9 1c37 3c1f e536 28fb 5036
000000c0: 7bdf 3b37 352c f536 c207 da36 f279 d436
000000d0: 25a7 9b36 2238 b736 f3ec 1c36 10ed cf36
000000e0: e1aa a836 4557 da35 2bad 4d36 eeee 2436
000000f0: 8a9d ee35 fa42 b334 2d2d 6e34 124e 8334

tdfe.0.weight f4 [32, 1, 3, 3]
0.20832787 -0.22235255 -0.2432325 0.16141753 -0.22715925 -0.29352477 1.1525316 -0.7309762
-0.7211448 0.026782718 0.08092166 0.06557231 -0.06317299 0.19323699 0.044168808 0.099486575
0.105938286 -0.047330286 0.012708751 0.07961177 -0.0028318553 -0.6693155 -0.83838814 -0.5840239
0.2887944 0.4518978 0.28122723 0.1924899 0.025001619 -0.41865763 0.07058009 -0.098492734
-0.117535375 -0.12388831 -0.1914975 -0.13873573 -0.24758017 -0.1549903 -0.044198487 0.16259009
0.07838704 -0.008017224 0.13821971 -0.029210852 0.26594713 -0.023765298 -0.041713778 0.087367766
0.0635027 0.0242267 0.10448617 0.023696423 0.14933376 0.037703753 -0.27625918 -0.2101076
-0.22144385 0.07295455 -0.16133581 -0.35416332 0.2134483 0.14942084 0.0658983 -0.09688004
-0.14521235 -0.046107594 -0.109824695 -0.20491752 -0.07604343 0.023159888 -0.1346469 -0.22158286
-0.16654652 -0.21743983 -0.1643403 -0.056402754 -0.027196415 -0.046437066 0.15222639 0.092769496
0.24054661 0.1192035 0.09933563 -0.114119306 -0.061881382 -0.0690478 0.12461657 0.25221604
-0.18124008 -0.13268846 0.32076862 0.0042112092 0.01140247 -0.19524561 -0.44824722 -0.44070724
0.17658497 -0.11800907 -0.19328645 -0.36009267 -0.3954299 -0.41395584 -0.2431696 -0.11003139
-0.24356085 0.10693936 0.2196785 0.68105674 0.14089087 -0.08535869 -0.39451173 0.16946656
0.051858384 -0.30923596 0.355856 0.1945273 -0.28683785 -0.23710093 0.29271576 -0.29479602
-0.26276162 0.26065946 -0.27991235 -0.77404886 1.34675 -0.8669577 0.11042368 0.59940886
-0.9225502 1.211486 -0.6938443 -0.78424877 0.27253297 0.10257233 -0.6447897 0.31308472
0.18659964 -0.06578362 -0.35381997 -0.41363978 -0.3252213 0.21692419 0.0064637507 -0.1693037
-0.6596749 0.041796185 0.550117 -0.06376139 -0.09920746 0.1041385 -0.35888004 -0.070319876
0.18990576 0.35121816 0.23752269 -0.09606924 -0.0494535 -0.11447806 -0.39385432 -0.29377356
-0.4045368 -0.38200736 -0.42578018 -0.4091933 -0.24873383 0.45383826 0.506713 0.2049923
-0.312513 -0.42999563 -0.39337385 0.28462645 -0.23515354 0.57400906 0.023118114 -0.4552655
0.2351817 -0.4298867 -0.36344674 -0.3699555 -0.7510922 -0.37271658 0.9009191 -0.83446234
-0.21637505 0.7668216 -0.6657514 -0.024603212 0.4466048 -0.021202678 0.2060148 0.41675514
-0.4117277 -0.4867376 -0.4448461 -0.19313073 -0.06718531 0.21455231 -0.10976421 -0.82931715
0.6314173 -0.11112157 -0.8634753 0.58285683 -0.011491755 -1.1376563 0.75947404 -0.39604113
-0.512509 -0.30801702 -0.21748565 0.045794323 0.21610148 -0.11442451 -0.008734087 0.1302754
0.31152713 0.2795077 -0.7559971 0.18873966 0.11375262 -0.45339605 0.09432156 -0.187279
-0.22470747 -0.02545772 -0.1717545 -0.101123914 -0.14149065 -0.16030875 -0.12793857 -0.06262212
-0.15981658 -0.11902524 -0.120782 0.0562535 0.22664562 -0.5013868 -0.44783342 -0.06521653
0.18017076 -0.018058257 -0.09634421 0.0588356 0.05338474 0.06962101 -0.07326949 0.13304256
0.0672227 0.0700871 0.13136715 0.03150498 -0.11736767 -0.0077621765 -0.0057593463 0.111217
00000000: e753 553e 63b0 63be f111 79be a34a 253e
00000010: 6f9c 68be e148 96be 2886 933f 4221 3bbf
00000020: f29c 38bf 6e67 db3c 41ba a53d c64a 863d
00000030: d760 81bd ebdf 453e 5aea 343d 9ebf cb3d
00000040: 2cf6 d83d 67dd 41bd 5d38 503c 7f0b a33d
00000050: a696 39bb 4358 2bbf 9ba0 56bf 9782 15bf
00000060: dcdc 933e 265f e73e 04fd 8f3e 131c 453e
00000070: 32d0 cc3c 4b5a d6be 4b8c 903d 8fb6 c9bd
00000080: 63b6 f0bd 27b9 fdbd ec17 44be bd10 0ebe
00000090: a885 7dbe c7b5 1ebe 7909 35bd 047e 263e
000000a0: 6289 a03d ad5a 03bc 7889 0d3e 994b efbc
000000b0: 392a 883e 71af c2bc 11dc 2abd dfed b23d
000000c0: b40d 823d 1377 c63c d8fc d53d 001f c23c
000000d0: f3ea 183e 406f 1a3d d871 8dbe 7226 57be
000000e0: 2dc2 62be 3269 953d 3735 25be e554 b5be
000000f0: 3192 5a3e c701 193e b0f5 863d 0b69 c6bd
00000100: 8cb2 14be 51db 3cbd c5eb e0bd e6d5 51be
00000110: a8bc 9bbd ceb9 bd3c e1e0 09be 9ee6 62be
00000120: 2c8b 2abe 8ca8 5ebe d348 28be 9306 67bd
00000130: 04cb debc cb34 3ebd 3ce1 1b3e effd bd3d
00000140: da51 763e f720 f43d 7b70 cb3d 62b7 e9bd
00000150: 5577 7dbd ef68 8dbd f936 ff3d 7622 813e
00000160: 0097 39be 7cdf 07be c93b a43e 2ffe 893b
00000170: 6dd1 3a3c 77ee 47be a980 e5be 61a4 e1be
00000180: b1d2 343e bdae f1bd e2ec 45be 115e b8be
00000190: ca75 cabe 05f2 d3be 7401 79be 2358 e1bd
000001a0: 0468 79be 0603 db3d 67f3 603e bc59 2e3f
000001b0: b245 103e 89d0 aebd 71fd c9be a488 2d3e
000001c0: 7569 543d 2d54 9ebe c232 b63e 2a32 473e
000001d0: 69dc 92be 96ca 72be d7de 953e 81ef 96be
000001e0: b188 86be 2875 853e ac50 8fbe 1128 46bf
000001f0: 4e62 ac3f f1f0 5dbf cf25 e23d dc72 193f
00000200: 402c 6cbf f911 9b3f c89f 31bf 87c4 48bf
00000210: 7189 8b3e 7111 d23d f010 25bf a44c a03e
00000220: fa13 3f3e 90b9 86bd e427 b5be 98c8 d3be
00000230: 6883 a6be 6021 5e3e dfcd d33b f35d 2dbe
00000240: 74e0 28bf 7a32 2b3d 78d4 0c3f 5595 82bd
00000250: 482d cbbd 9146 d53d 20bf b7be de03 90bd
00000260: a876 423e ded2 b33e 2639 733e f3bf c4bd
00000270: c18f 4abd 7973 eabd 46a7 c9be 7d69 96be
00000280: 731f cfbe 7896 c3be dcff d9be c981 d1be
00000290: 15b4 7ebe 7d5d e83e f1b7 013f 80e9 513e
000002a0: b401 a0be 6328 dcbe 4c68 c9be 8fba 913e
000002b0: 17cc 70be 42f2 123f 3362 bd3c 8f18 e9be
000002c0: 79d3 703e 1c1a dcbe b115 babe cf6a bdbe
000002d0: 9447 40bf b5d4 bebe a2a2 663f 539f 55bf
000002e0: 6c91 5dbe 6c4e 443f af6e 2abf ad8c c9bc
000002f0: 62a9 e43e 3db1 adbc 8bf5 523e ee60 d53e
00000300: f9cd d2be ac35 f9be dec2 e3be 10c4 45be
00000310: 7498 89bd 9ab3 5b3e 0fcc e0bd 214e 54bf
00000320: 90a4 213f b593 e3bd b80c 5dbf 1b36 153f
00000330: ea47 3cbc b99e 91bf e46c 423f e7c5 cabe
00000340: ca33 03bf 68b4 9dbe 8fb4 5ebe d492 3b3d
00000350: b549 5d3e 6657 eabd 6b19 0fbc ea66 053e
00000360: 7c80 9f3e a21b 8f3e 0789 41bf f844 413e
00000370: 22f7 e83d 8723 e8be a92b c13d 11c6 3fbe
00000380: b719 66be b58c d0bc 69e0 2fbe 0e1a cfbd
00000390: ede2 10be fa27 24be 5402 03be 0740 80bd
000003a0: f5a6 23be 81c3 f3bd 8e5c f7bd 126a 663d
000003b0: ca15 683e e35a 00bf 6c4a e5be 3e90 85bd
000003c0: af7e 383e e9ee 93bc 1d50 c5bd 99fd 703d
000003d0: f5a9 5a3d 7695 8e3d 500e 96bd 4f3c 083e
000003e0: 0eac 893d d389 8f3d 1c85 063e 5e0b 013d
000003f0: 765e f0bd db59 febb e6b8 bcbb bdc5 e33d

tdfe.1.weight f4 [32]
0.9308928 0.17317528 0.7167068 0.6783416 0.11170207 0.2115345 0.63031954 0.9217951
0.19516137 0.17250435 0.6607434 0.65116596 0.15558755 0.793065 0.6603367 0.4740212
0.27186057 0.46012557 0.8056771 0.5501837 0.51558495 0.5912481 1.0536449 0.756524
0.77929896 0.70505863 0.653992 0.054610666 0.4424125 0.21700507 0.16925675 0.11281414
00000000: fe4e 6e3f dc54 313e 197a 373f cca7 2d3f
00000010: 0ec4 e43d 809c 583e 9f5c 213f c4fa 6b3f
00000020: 62d8 473e fba4 303e 7b26 293f d0b2 263f
00000030: 5852 1f3e 4f06 4b3f d30b 293f e8b2 f23e
00000040: 4f31 8b3e 9495 eb3e db40 4e3f d7d8 0c3f
00000050: 60fd 033f 095c 173f d6dd 863f 8fab 413f
00000060: 2380 473f b97e 343f 056c 273f 6faf 5f3d
00000070: e483 e23e 9436 5e3e a451 2d3e 1a0b e73d

tdfe.1.bias f4 [32]
-0.2332485 -0.3651594 0.34585425 -0.16231507 0.1365868 -0.34449935 -0.15256712 -0.22636333
-0.008684875 -0.24201778 -0.14153902 -0.03180237 0.066296026 -0.08826919 0.083584115 -0.15329854
0.12475332 0.29279882 -0.24058817 0.042790778 0.15107246 -0.17556986 -0.26536992 -0.058907066
-0.19909024 0.07037716 -0.08208516 0.07851237 0.13153829 -0.02129721 0.09015597 0.06407565
00000000: b2d8 6ebe 2cf6 babe cf13 b13e ec35 26be
00000010: 69dd 0b3e 3862 b0be 8e3a 1cbe cacb 67be
00000020: 024b 0ebc 82d3 77be 9bef 10be 3443 02bd
00000030: 36c6 873d 7ac6 b4bd 262e ab3d 4bfa 1cbe
00000040: ab7e ff3d bae9 953e bf5c 76be 6245 2f3d
00000050: bdb2 1a3e 96c8 33be 91de 87be 8948 71bd
00000060: 50de 4bbe e721 903d 441c a8bd 18cb a03d
00000070: f9b1 063e 7d77 aebc b1a3 b83d 183a 833d

tdfe.1.running_mean f4 [32]
-0.3922972 0.21696647 -0.4218975 -0.34285948 0.068101026 0.18182763 -0.3098558 -0.4332489
-0.08411006 0.015336287 -0.37989396 -0.32672146 -0.07036253 -0.34094477 -0.31636345 -0.2606702
-0.1560242 -0.48987877 -0.450636 -0.3152666 -0.32163188 -0.33936265 -0.47281075 -0.49957603
-0.27113956 -0.45781288 -0.33819452 0.23215225 -0.20288973 -0.09683428 -0.008607616 0.04173385
00000000: 2edb c8be 752c 5e3e f302 d8be 478b afbe
00000010: 8d78 8b3d 0631 3a3e 6ba5 9ebe cdd2 ddbe
00000020: e541 acbd 0d45 7b3c 7681 c2be 0948 a7be
00000030: 3b1a 90bd 5090 aebe 64fa a1be 9176 85be
00000040: cfc4 1fbe 64d1 fabe c3b9 e6be a06a a1be
00000050: efac a4be f1c0 adbe 4014 f2be 6ec8 ffbe
00000060: ced2 8abe 7366 eabe d527 adbe 52b9 6d3e
00000070: 53c2 4fbe 0d51 c6bd f506 0dbc 1df1 2a3d

tdfe.1.running_var f4 [32]
0.5842491 0.11962688 1.3124344 0.3169098 0.08199093 0.08698744 0.36872795 0.46969435
0.11269778 0.01193241 0.5556965 0.7189627 0.09575317 0.4750714 0.5822931 0.3956857
0.14189966 0.8368645 1.0850046 0.560525 0.6115313 0.6349419 0.8541577 0.80865836
0.27383873 0.52336156 0.44113055 0.13625027 0.41271776 0.13987951 0.116394445 0.034483567
00000000: 5991 153f f0fe f43d dafd a73f 0042 a23e
00000010: dcea a73d 7926 b23d e9c9 bc3e c77b f03e
00000020: 18ce e63d 2880 433c 2042 0e3f f10d 383f
00000030: 3d1a c43d 8f3c f33e 2911 153f 5197 ca3e
00000040: 254e 113e c03c 563f 6ee1 8a3f 917e 0f3f
00000050: 518d 1c3f 8d8b 223f 14aa 5a3f 3c04 4f3f
00000060: 9734 8c3e 06fb 053f dddb e13e 3185 0b3e
00000070: be4f d33e 933c 0f3e 3660 ee3d a43e 0d3d

tdfe.4.weight f4 [32, 32, 3, 3]
0.008375374 -0.13323876 -0.2382323 0.0720597 -0.2319244 -0.33327052 0.0709189 -0.021090558
-0.14171752 0.001197844 0.019061245 -0.006442963 -0.04561016 -0.051650383 -0.11474655 0.0015781973
-0.048307292 -0.04820666 -0.063806444 -0.07693395 -0.11103279 -0.029207474 -0.0022012228 -0.12297707
0.10792659 0.19039844 0.033728782 0.093707435 0.029223612 -0.17018694 0.1452907 0.0010650156
-0.15855855 0.20852873 0.06991853 -0.13107589 -0.13223301 -0.05605974 -0.009622151 -0.07580391
-0.043123934 0.005503382 -0.07548263 -0.001893068 0.02462698 0.018802453 -0.013509313 -0.04891783
-0.037206605 -0.056551248 -0.1305911 0.0044451375 -0.024320118 -0.059755046 0.12053034 0.07086606
-0.09394639 0.1881643 0.014528343 -0.14686395 0.083789125 -0.048616804 -0.21255329 0.13701366
0.062205333 -0.17222592 0.1963229 0.07323517 -0.19109717 0.22237489 0.12552729 -0.09572756
-0.05884737 -0.04871994 -0.017645027 -0.043773614 -0.042198367 0.0006415227 -0.008916501 -0.0361507
-0.037297033 -0.03400053 0.02620721 0.035754412 -0.06713145 -0.022336554 -0.0076506278 -0.10732663
-0.024978641 -0.019000467 0.096237734 -0.05868972 -0.13187206 0.11028458 -0.012574158 -0.1521192
0.11235804 0.1023242 0.01239832 0.004584177 -0.043328445 -0.009329479 0.06200026 -0.028107112
-0.012397416 0.054386962 -0.032837037 -0.1698535 -0.12571073 -0.14310011 -0.027462637 -0.080059804
-0.1194167 -0.05853799 -0.042143952 -0.09362807 -0.009665693 -0.0529124 -0.13829105 -0.17362927
-0.011319126 -0.16829634 -0.30439338 -0.036396604 -0.10432006 -0.2635485 -0.10151284 -0.16266042
-0.014262753 0.08390277 -0.3698652 -0.34044713 -0.0143573275 -0.28113118 -0.2548876 -0.037362333
0.021129046 0.08422578 -0.11581951 -0.0034846494 -0.005236223 -0.07830447 0.047395483 0.032870736
0.046966538 0.046245877 0.015198171 0.017723372 0.00046883032 -0.0006015519 0.0026288384 -0.0008326102
0.015216413 0.18761389 0.052442867 -0.07442076 0.21671878 0.041253928 -0.15217935 0.18750903
0.021721588 -0.10044987 0.02283697 -0.013020123 -0.1508762 0.007364167 0.11668206 0.0914143
-0.0013353617 0.10432083 0.067656696 0.111823 0.124727815 0.042977512 0.10362784 0.0014875777
-0.11313141 -0.095128834 -0.16671057 -0.20379569 0.04102737 0.10497845 -0.070164725 0.10735977
0.108538866 0.0629746 0.0684373 0.079155445 -0.01764823 0.03818588 -0.0103267515 0.09016084
0.014530791 -0.0047416855 -0.00464599 0.05882919 -0.01178226 0.053756315 -0.069428965 0.044770394
-0.088886835 0.093916684 -0.0024887796 -0.05690935 0.03744335 -0.019950207 -0.06467745 0.23031501
0.08689023 -0.029917572 0.25524482 0.16779913 -0.005073865 0.2256438 0.13353741 -0.082682885
0.0018372381 -0.14687532 -0.12932399 0.122472264 -0.11165276 -0.18462473 0.114505194 -0.13711907
-0.19883429 0.19892357 0.06859691 -0.15115756 0.25845373 0.05564163 -0.20061155 0.26742435
0.15423058 -0.0900986 0.11590106 0.03887903 -0.041736357 0.11959738 0.0907315 -0.05461565
0.06112815 0.08592768 0.00060766144 -0.044287 -0.007360926 0.0249039 -0.120114416 -0.034922726
-0.013509264 -0.06424658 -0.041697234 0.03350752 -0.005560004 1.8903815e-05 0.023057 0.030224543
00000000: dd38 093c be6f 08be 2bf3 73be 0994 933d
00000010: 977d 6dbe 6fa2 aabe ee3d 913d 1bc6 acbc
00000020: 661e 11be fa00 9d3a 5426 9c3c 7e1f d3bb
00000030: b8d1 3abd 5a8f 53bd 3d00 ebbd 84db ce3a
00000040: dedd 45bd 5974 45bd f4ac 82bd 8c8f 9dbd
00000050: 2965 e3bd 8344 efbc 6442 10bb 67db fbbd
00000060: 9e08 dd3d cff7 423e 3127 0a3d afe9 bf3d
00000070: 5b66 ef3c 7c45 2ebe 16c7 143e fe97 8b3a
00000080: 2c5d 22be 8e88 553e 7231 8f3d c238 06be
00000090: 1768 07be e69e 65bd 3aa6 1dbc 153f 9bbd
000000a0: b9a2 30bd b755 b43b a396 9abd d220 f8ba
000000b0: 85be c93c 9a07 9a3c 2a56 5dbc 105e 48bd
000000c0: f465 18bd 48a2 67bd acb9 05be 84a8 913b
000000d0: fc3a c7bc b5c1 74bd 9cd8 f63d 3a22 913d
000000e0: f766 c0bd 24ae 403e 4a08 6e3c 8163 16be
000000f0: a299 ab3d 6a22 47bd 92a7 59be 4f4d 0c3e
00000100: 05cb 7e3d fe5b 30be df08 493e 52fc 953d
00000110: faae 43be 3eb6 633e 3a8a 003e d00c c4bd
00000120: f109 71bd 8f8e 47bd 4e8c 90bc f64b 33bd
00000130: 32d8 2cbd dc2b 283a 8416 12bc c212 14bd
00000140: c6c4 18bd 2444 0bbd 81b0 d63c 3873 123d
00000150: 377c 89bd 26fb b6bc 1eb2 fabb 10ce dbbd
00000160: 02a0 ccbc dea6 9bbc 4a18 c53d a264 70bd
00000170: 7809 07be e2dc e13d d703 4ebc 23c5 1bbe
00000180: f91b e63d 5a8f d13d 5322 4b3c dd36 963b
00000190: 2b79 31bd acda 18bc fcf3 7d3d e340 e6bc
000001a0: 881e 4bbc ddc4 5e3d 2180 06bd 13ee 2dbe
000001b0: 50ba 00be d688 12be 53f9 e0bc 65f6 a3bd
000001c0: be90 f4bd 88c5 6fbd 239f 2cbd 13c0 bfbd
000001d0: db5c 1ebc acba 58bd 2b9c 0dbe dfcb 31be
000001e0: db73 39bc e055 2cbe 73d9 9bbe 9b14 15bd
000001f0: c1a5 d5bd d4ef 86be f7e5 cfbd 7490 26be
00000200: 52ae 69bc 37d5 ab3d f95e bdbe 164f aebe
00000210: ff3a 6bbc 6df0 8fbe a180 82be 3f09 19bd
00000220: d216 ad3c 917e ac3d c732 edbd b75e 64bb
00000230: 9f94 abbb 185e a0bd c421 423d 77a3 063d
00000240: fc5f 403d 516c 3d3d c001 793c 9b30 913c
00000250: 57cd f539 77b1 1dba 9748 2c3b 8643 5aba
00000260: 434e 793c db1d 403e 55ce 563d e969 98bd
00000270: 87eb 5d3e e1f9 283d e7d4 1bbe 5e02 403e
00000280: 79f1 b13c a9b8 cdbd 9914 bb3c 5b52 55bc
00000290: 4a7f 1abe 1c4f f13b 01f7 ee3d 6c37 bb3d
000002a0: 4e07 afba 29a6 d53d 988f 8a3d 7503 e53d
000002b0: 4c71 ff3d 3009 303d d53a d43d d3fa c23a
000002c0: 71b1 e7bd e8d2 c2bd 2db6 2abe d1af 50be
000002d0: 510c 283d f1fe d63d 86b2 8fbd 70df db3d
000002e0: a049 de3d d4f8 803d db28 8c3d 401c a23d
000002f0: 0593 90bc cc68 1c3d 8931 29bc 3fa6 b83d
00000300: 8e12 6e3c 2460 9bbb 643d 98bb e0f6 703d
00000310: 610a 41bc 952f 5c3d c630 8ebd 2961 373d
00000320: 4d0a b6bd 6457 c03d cb1a 23bb c719 69bd
00000330: 335e 193d 9e6e a3bc 9c75 84bd b3d7 6b3e
00000340: 81f3 b13d b215 f5bc 73af 823e 89d3 2b3e
00000350: aa42 a6bb 2b0f 673e 08be 083e a555 a9bd
00000360: 7bcf f03a 7c66 16be 826d 04be bdd2 fa3d
00000370: 34aa e4bd 440e 3dbe b381 ea3d f168 0cbe
00000380: 379b 4bbe 9fb2 4b3e 897c 8c3d 0cc9 1abe
00000390: 0c54 843e 7ae8 633d 1d6d 4dbe d8eb 883e
000003a0: 9fee 1d3e 9d85 b8bd 895d ed3d 9e3f 1f3d
000003b0: bef3 2abd 79ef f43d 70d1 b93d a9b4 5fbd
000003c0: 8361 7a3d dafa af3d 784b 1f3a 4966 35bd
000003d0: ec33 f1bb 4403 cc3c 8cfe f5bd 220b 0fbd
000003e0: f655 5dbc b693 83bd b8ca 2abd 2e3f 093d
000003f0: b230 b6bb a293 9e37 09e2 bc3c 7699 f73c

tdfe.5.weight f4 [32]
0.96819055 0.5670843 0.83315134 0.68430495 0.58384544 0.33972734 0.58056897 0.37662235
0.7155241 0.66775554 0.38092193 0.52098364 0.39302087 0.6273038 1.0167572 0.65666014
0.21028976 0.7248761 0.46015784 0.5542326 0.5749292 0.8394582 0.5821803 0.62451226
0.6920004 1.0961722 0.69530654 0.4952555 0.36539507 0.27628052 0.4088165 0.2579316
00000000: 56db 773f 702c 113f 6849 553f 9c2e 2f3f
00000010: e576 153f bef0 ad3e 2ba0 143f a5d4 c03e
00000020: 962c 373f 07f2 2a3f 3308 c33e 2f5f 053f
00000030: 083a c93e fb96 203f 1a25 823f e11a 283f
00000040: 3356 573e 7b91 393f cf99 eb3e 30e2 0d3f
00000050: 8f2e 133f bce6 563f c509 153f 09e0 1f3f
00000060: f026 313f 5f4f 8c3f 9cff 313f 2192 fd3e
00000070: 1015 bb3e a474 8d3e 6550 d13e 9c0f 843e

tdfe.5.bias f4 [32]
-0.28848362 -0.1849427 -0.49317518 -0.13554311 -0.16902147 -0.11142855 -0.09176273 -0.08822509
-0.23700646 -0.2453105 -0.1987506 -0.1577068 -0.09495854 -0.15562308 -0.26409593 -0.05750037
-0.03325644 -0.14990154 -0.085679315 -0.20244715 -0.11913813 -0.5777936 -0.13555373 -0.083473004
-0.16776069 -0.3925798 -0.18368898 -0.061024446 -0.11860768 -0.2827386 -0.20748584 0.027934393
00000000: 20b4 93be 9f61 3dbe 7581 fcbe d0cb 0abe
00000010: f713 2dbe a734 e4bd 19ee bbbd 5baf b4bd
00000020: d2b1 72be ad32 7bbe 4785 4bbe e47d 21be
00000030: 9f79 c2bd a85b 1fbe 9537 87be 8285 6bbd
00000040: e837 08bd ca7f 19be a378 afbd 4e4e 4fbe
00000050: b1fe f3bd 48ea 13bf 99ce 0abe e5f3 aabd
00000060: 75c9 2bbe 3800 c9be f718 3cbe c5f4 79bd
00000070: 95e8 f2bd 1dc3 90be 2b77 54be abd6 e43c

tdfe.5.running_mean f4 [32]
-0.5881675 -0.39502135 -0.5271974 -0.7432435 -0.47774497 -0.4182253 -0.7200267 -0.44006595
-1.2232505 -0.971214 -0.19918771 -0.62355983 0.017557146 -0.7288984 -1.1296306 -0.36597356
-0.2700418 -1.0665703 -1.2152734 0.17966434 -0.36294052 0.47604305 -1.0850406 -0.8315674
-1.1986308 -0.43424407 -1.0250248 -0.6310944 -1.1086764 -1.0612069 0.0025962112 0.08341571
00000000: 2592 16bf 3d40 cabe 69f6 06bf 3545 3ebf
00000010: fd9a f4be a021 d6be ab53 38bf 5350 e1be
00000020: 7993 9cbf 7ba1 78bf ddf7 4bbe 9ea1 1fbf
00000030: 01d4 8f3c 1699 3abf bc97 90bf e360 bbbe
00000040: eb42 8abe 6085 88bf 148e 9bbf eef9 373e
00000050: 57d3 b9be eabb f33e 9ce2 8abf 9ae1 54bf
00000060: bc6c 99bf 3d55 debe 0334 83bf 678f 21bf
00000070: 1ce9 8dbf a1d5 87bf 3225 2a3b dbd5 aa3d

tdfe.5.running_var f4 [32]
1.1071912 0.41201144 0.4129149 0.7185586 0.49024028 0.3203395 0.5540652 0.37236193
1.1061705 0.8082437 0.20714088 0.6328526 0.5096242 0.7635944 1.4411093 0.58541787
0.16241296 0.55463266 0.6295121 0.5882037 0.7754672 0.57100207 0.4829939 0.5494734
0.7129095 1.0069839 0.80618674 0.4976043 0.5069825 0.21869756 0.19669016 0.2328489
00000000: 71b8 8d3f 2af3 d23e 9569 d33e 75f3 373f
00000010: c600 fb3e 8a03 a43e 38d7 0d3f 39a6 be3e
00000020: ff96 8d3f 0fe9 4e3f bd1c 543e a102 223f
00000030: bb76 023f ec7a 433f 4576 b83f f2dd 153f
00000040: 954f 263e 68fc 0d3f b427 213f 8594 163f
00000050: 0585 463f 312d 123f fa4a f73e 4aaa 0c3f
00000060: 3d81 363f d9e4 803f 4162 4e3f fec5 fe3e
00000070: 9bc9 013f 41f2 5f3e 2569 493e f16f 6e3e

tdfe.8.weight f4 [48, 32, 3, 3]
0.005170344 -0.05468124 -0.028070543 0.10805981 -0.08374092 -0.01493865 -0.048892707 -0.11958209
-0.14801967 -0.14798285 -0.033137932 0.03807533 -0.08460846 -0.03813855 0.055052347 -0.04615948
0.06048414 0.113456175 -0.07670361 0.05814207 -0.013086193 0.09102057 0.06804225 0.044671163
0.051289495 0.051851492 0.056018785 0.11318766 0.016035998 -0.027750676 0.07819259 0.0718688
0.047760263 0.09210394 0.026014742 0.030780539 -0.16215652 -0.057490133 0.102925435 -0.17660654
-0.060034484 0.095394015 -0.14283441 -0.012677585 0.14688544 -0.043776717 0.020409243 0.037943773
-0.10653281 -0.067636885 0.004827774 -0.058398996 -0.00073443615 0.012655302 -0.03961181 -0.10159716
-0.056786593 0.030771475 0.119640954 0.12112329 0.07739274 0.03094442 0.094716564 0.0588254
0.047124732 0.069871694 -0.006199935 -0.09281596 -0.023604706 0.02065618 -0.06816704 -0.045605604
0.19710058 -0.08610952 -0.2252535 0.17576522 -0.11020126 -0.3092513 0.35794687 -0.037355784
-0.20817018 -0.13137567 -0.061134335 0.02251833 -0.03308384 -0.028340055 0.040524688 -0.02366993
-0.10311205 0.033718336 -0.029066516 0.057922468 0.08660389 -0.06693311 -0.04722869 -0.051668283
-0.07326136 -0.063509576 -0.054345913 0.016456405 -0.07761534 -0.028585663 -0.0015921519 -0.09511223
-0.10825472 0.22943528 0.084535144 -0.06377997 -0.041366376 0.018198892 0.017740449 -0.082111076
-0.012310217 -0.009384471 -0.038973663 0.013830219 0.03956688 -0.07737351 0.0005364661 -0.0021392342
0.028495155 0.010352808 -0.020567125 -0.068003245 -0.024980895 -0.0020440929 0.030494733 0.12630388
0.015133273 0.07820976 0.15318957 -0.0029981553 -0.0020701664 0.10157395 -0.06841854 0.08599598
0.040610347 0.005602398 0.12882878 0.036578428 -0.064404145 0.07050115 0.0056182668 -0.0862201
0.007421552 -0.009300018 -0.025230605 -0.034723815 -0.05835137 0.028719736 -0.007215805 -0.017446328
0.0027010934 -0.077137046 0.045682028 0.08972878 -0.105910994 -0.03367265 0.075752676 -0.024199314
0.08757453 0.12826839 -0.14381997 -0.08999755 0.0369134 -0.21912263 -0.11633165 0.058931347
-0.09295574 -0.028338257 0.116394356 -0.044353813 -0.043401454 -0.06213162 -0.087823965 -0.044309493
-0.055949606 -0.052282136 -0.027678583 0.014067823 0.03917472 -0.040340595 -0.017197158 -0.068323076
-0.010037383 -0.023021773 0.08144509 -0.026260443 0.022508554 -0.00036579155 0.00043927116 -0.028851407
-0.14948167 -0.10557528 -0.047151204 -0.014734368 0.014463191 0.032558564 -0.14917707 -0.014698728
0.052011266 -0.15466534 0.014864793 0.12144621 -0.046845153 0.067506 0.14228 -0.13504006
-0.10513323 -0.026658617 0.08212803 -0.10582754 0.042115908 -0.06251133 -0.10299129 0.030415678
-0.08668955 0.0626718 0.24807358 -0.18344185 0.03977744 0.21965824 -0.2317243 -0.06383443
0.15970276 0.06015807 0.078589305 -0.012529434 0.07494716 0.14247432 -0.010869211 0.107006654
0.13759966 0.0069312924 0.038769238 -0.05654744 -0.051930126 0.06154697 -0.040406648 -0.07994978
0.056385767 -0.06310819 -0.086442836 -0.035274204 0.032429043 0.023299333 -0.08994411 -0.00030083323
0.053590264 -0.060358386 0.0075230952 -0.005561928 -0.10050918 -0.0020598336 0.052846085 -0.08214299
00000000: fd6b a93b 70f9 5fbd 32f4 e5bc 764e dd3d
00000010: 5c80 abbd 3dc1 74bc b843 48bd 74e7 f4bd
00000020: 7892 17be d188 17be a4bb 07bd e1f4 1b3d
00000030: 3347 adbd 2b37 1cbd 927e 613d b911 3dbd
00000040: 38be 773d b65b e83d c816 9dbd 6126 6e3d
00000050: 7967 56bc fe68 ba3d bc59 8b3d 1cf9 363d
00000060: ef14 523d 3b62 543d f473 653d efce e73d
00000070: ed5d 833c 6355 e3bc 7023 a03d f32f 933d
00000080: 44a0 433d fea0 bc3d de1c d53c 7827 fc3c
00000090: 5c0c 26be c67a 6bbd 92ca d23d 58d8 34be
000000a0: b8e6 75bd f05d c33d 2f43 12be a5b5 4fbc
000000b0: 2369 163e 374f 33bd 4931 a73c ee6a 1b3d
000000c0: e02d dabd 3585 8abd 4e32 9e3b c933 6fbd
000000d0: 2d87 40ba 2f58 4f3c fe3f 22bd 2c12 d0bd
000000e0: 0f99 68bd 7614 fc3c 5106 f53d 7d0f f83d
000000f0: 1680 9e3d 277f fd3c c2fa c13d e7f2 703d
00000100: dd05 413d e418 8f3d d328 cbbb 4b16 bebd
00000110: a85e c1bc 2637 a93c 299b 8bbd f1cc 3abd
00000120: bcd4 493e 305a b0bd daa8 66be ccfb 333e
00000130: 33b1 e1bd 3056 9ebe d044 b73e 6102 19bd
00000140: 902a 55be 5887 06be ff67 7abd 5c78 b83c
00000150: ec82 07bd 6729 e8bc 37fd 253d 71e7 c1bc
00000160: 692c d3bd 3d1c 0a3d e71c eebc 1c40 6d3d
00000170: 615d b13d 3a14 89bd df72 41bd 1fa2 53bd
00000180: 0d0a 96bd 4f11 82bd d299 5ebd 95cf 863c
00000190: cbf4 9ebd 7b2c eabc c1af d0ba 33ca c2bd
000001a0: a7b4 ddbd 15f1 6a3e c320 ad3d 139f 82bd
000001b0: ca6f 29bd d815 953c 6b54 913c da29 a8bd
000001c0: cbb0 49bc 53c1 19bc d9a2 1fbd 2598 623c
000001d0: e110 223d 0176 9ebd a1a1 0c3a 6532 0cbb
000001e0: ac6e e93c d39e 293c 637c a8bc 4945 8bbd
000001f0: bca4 ccbc 30f6 05bb 17d0 f93c ce55 013e
00000200: 8cf1 773c 702c a03d badd 1c3e b37c 44bb
00000210: a1ab 07bb 0106 d03d 051f 8cbd a91e b03d
00000220: 0957 263d 5294 b73b b1eb 033e 43d3 153d
00000230: 52e6 83bd e862 903d 7019 b83b 2a94 b0bd
00000240: 7e30 f33b 1a5f 18bc 6ab0 cebc 8f3a 0ebd
00000250: d901 6fbd a745 eb3c 8f72 ecbb 9aeb 8ebc
00000260: d404 313b 07fa 9dbd 141d 3b3d b9c3 b73d
00000270: dde7 d8bd 55ec 09bd 3824 9b3d a43d c6bc
00000280: 465a b33d ca58 033e 8b45 13be a350 b8bd
00000290: 8132 173d af61 60be 4a3f eebd ff61 713d
000002a0: 945f bebd a225 e8bc 2a60 ee3d 58ac 35bd
000002b0: b9c5 31bd ba7d 7ebd 0ddd b3bd df7d 35bd
000002c0: 6a2b 65bd cb25 56bd 32be e2bc ba7c 663c
000002d0: ac75 203d 2e3c 25bd 0ee1 8cbc f8ec 8bbd
000002e0: d673 24bc 2898 bcbc afcc a63d 2420 d7bc
000002f0: dc63 b83c b6c7 bfb9 fa4d e639 c959 ecbc
00000300: b911 19be da37 d8bd 9f21 41bd 6b68 71bc
00000310: 05f7 6c3c 215c 053d e0c1 18be efd2 70bc
00000320: c409 553d 9760 1ebe 768b 733c cab8 f83d
00000330: b4e0 3fbd 9640 8a3d d9b1 113e f147 0abe
00000340: 1750 d7bd 2c63 dabc be32 a83d 1cbc d8bd
00000350: bb81 2c3d f105 80bd 19ed d2bd 4d2a f93c
00000360: 4a8a b1bd 135a 803d 0007 7e3e 2ed8 3bbe
00000370: abed 223d 17ee 603e 2349 6dbe a0bb 82bd
00000380: 1f89 233e 4f68 763d 6ef3 a03d 4148 4dbc
00000390: e67d 993d cae4 113e c614 32bc 4e26 db3d
000003a0: ede6 0c3e e51f e33b 7ecc 1e3d 4a9e 67bd
000003b0: afb4 54bd ad18 7c3d 7181 25bd b6bc a3bd
000003c0: c3f4 663d de3e 81bd f108 b1bd af7b 10bd
000003d0: 51d4 043d 3ede be3c 9e34 b8bd 27b9 9db9
000003e0: 7781 5b3d 5b3a 77bd 4c84 f63b d540 b6bb
000003f0: c2d7 cdbd 46fe 06bb 2375 583d 953a a8bd

tdfe.9.weight f4 [48]
0.59062785 0.53219247 0.48844722 0.36081228 0.5733115 0.6434239 0.37668878 0.35691458
0.63916093 0.46612403 0.36260742 0.3628663 0.49859625 0.40112904 0.48346895 0.45911223
0.46910003 0.6193666 0.268959 0.63886696 0.411513 0.5096751 0.7890364 0.5671503
0.5838081 0.77526283 0.6115798 0.43626294 0.7177014 0.54166853 0.4112599 0.4545851
0.5757059 0.6591679 0.565885 0.5070463 0.5013984 0.38553545 0.38204512 0.40008414
0.53692144 0.3908805 0.67125225 0.38571814 0.43868673 0.44834337 0.45887882 0.76203185
00000000: 6333 173f c43d 083f c115 fa3e 63bc b83e
00000010: 8bc4 123f 6eb7 243f 5add c03e 82bd b63e
00000020: 0da0 233f cfa7 ee3e aea7 b93e 9dc9 b93e
00000030: 0248 ff3e c960 cd3e 3e89 f73e c210 eb3e
00000040: e12d f03e cf8e 1e3f feb4 893e c98c 233f
00000050: d5b1 d23e 117a 023f 4afe 493f c330 113f
00000060: 7374 153f a077 463f 7e90 1c3f db5d df3e
00000070: 47bb 373f caaa 0a3f a890 d23e 61bf e83e
00000080: 7661 133f 3abf 283f d7dd 103f c9cd 013f
00000090: a55b 003f e764 c53e 6b9b c33e d4d7 cc3e
000000a0: af73 093f 7d21 c83e 30d7 2b3f d97c c53e
000000b0: 8c9b e03e 438d e53e 2af2 ea3e 8514 433f

tdfe.9.bias f4 [48]
-0.5653069 -0.52413654 -0.37898263 -0.38565388 -0.63918036 -0.574898 -0.28784212 -0.25158757
-0.60754776 -0.39105552 -0.50609016 -0.40575823 -0.38724482 -0.2873028 -0.6605931 -0.38532498
-0.33122906 -0.6399079 -0.38895172 -0.54297894 -0.49627137 -0.4190115 -0.5922907 -0.44876868
-0.56329745 -0.5607562 -0.62175083 -0.48322478 -0.45276746 -0.43409687 -0.42035586 -0.43411285
-0.5432906 -0.97468793 -0.43342304 -0.39899766 -0.44901636 -0.34798893 -0.16350631 -0.34432703
-0.48233315 -0.32797468 -0.5551974 -0.22259092 -0.39714676 -0.6011745 -0.49775523 -0.8643737
00000000: f4b7 10bf d02d 06bf 030a c2be 6d74 c5be
00000010: 53a1 23bf 842c 13bf 0b60 93be 16d0 80be
00000020: 4088 1bbf 6e38 c8be 208f 01bf 8bbf cfbe
00000030: f444 c6be 5a19 93be a11c 29bf 5149 c5be
00000040: db96 a9be 01d1 23bf ae24 c7be ab00 0bbf
00000050: 4817 febe ad88 d6be 5da0 17bf 02c5 e5be
00000060: 4334 10bf b88d 0fbf 102b 1fbf 3d69 f7be
00000070: 23d1 e7be f241 debe e238 d7be 0a44 debe
00000080: 1815 0bbf 2685 79bf a0e9 ddbe 6c49 ccbe
00000090: 79e5 e5be 9b2b b2be 336e 27be a24b b0be
000000a0: 5ff4 f6be 4cec a7be 6b21 0ebf e0ee 63be
000000b0: d256 cbbe 92e6 19bf c6d9 febe 9847 5dbf

tdfe.9.running_mean f4 [48]
-0.2203245 0.08962367 -0.20486544 -0.19742209 -0.0600854 0.0635182 0.026783617 0.05114259
-0.4784586 -0.3588311 0.028073216 0.14288661 0.12532671 -0.35540995 0.4569998 -0.33341986
-0.53598213 -0.0839666 0.17662667 -0.38134548 -0.12235948 -0.17035927 -0.44256738 -0.17681383
-0.4011732 -0.46670565 -0.8869091 -0.23787527 -0.6536434 -0.1773122 -0.30827895 0.32386792
-0.5909858 -0.31478986 -0.8569383 -0.29297438 -0.18790573 -0.26415822 -0.32670197 -0.2147188
-0.4450294 -0.11455716 -0.41655934 0.004814362 0.0130162835 -0.39209244 0.26926267 -0.75388175
00000000: bf9c 61be 9d8c b73d 3fc8 51be 0429 4abe
00000010: 1c1c 76bd d415 823d 5169 db3c e47a 513d
00000020: 87f8 f4be b6b8 b7be cdf9 e53c de50 123e
00000030: a555 003e 4bf8 b5be e1fb e93e 02b6 aabe
00000040: 2036 09bf aef6 abbd 9fdd 343e b73f c3be
00000050: 9b97 fabd a972 2ebe 3198 e2be af0e 35be
00000060: 9366 cdbe 0bf4 eebe 7a0c 63bf 9395 73be
00000070: 2d55 27bf 5491 35be bdd6 9dbe 04d2 a53e
00000080: d84a 17bf 232c a1be 4f60 5bbf bd00 96be
00000090: 5c6a 40be bf3f 87be 7b45 a7be 3fdf 5bbe
000000a0: e5da e3be f29c eabd 4447 d5be ccc1 9d3b
000000b0: 4042 553c 57c0 c8be ccdc 893e 65fe 40bf

tdfe.9.running_var f4 [48]
0.09012628 0.09266812 0.107022904 0.1115619 0.12554759 0.12051713 0.04173216 0.04561537
0.13381475 0.10006731 0.08014911 0.056380577 0.054600187 0.09006122 0.14668618 0.08647222
0.11538785 0.11236036 0.04729768 0.13320254 0.07674477 0.08672609 0.20131554 0.09417212
0.09769906 0.16939333 0.13361295 0.06922318 0.1379411 0.10692962 0.061390765 0.04711213
0.1410689 0.07704162 0.124677144 0.09642355 0.16248105 0.09741753 0.12362437 0.07149271
0.10636806 0.07828179 0.13156165 0.052663106 0.06284232 0.06021274 0.07104156 0.14247149
00000000: 2194 b83d c9c8 bd3d d32e db3d 917a e43d
00000010: 8c8f 003e afd1 f63d 57ef 2a3d 2fd7 3a3d
00000020: bc06 093e 17f0 cc3d 3725 a43d 52ef 663d
00000030: 72a4 5f3d 0472 b83d e734 163e 5918 b13d
00000040: 7750 ec3d 301d e63d 36bb 413d 3f66 083e
00000050: 5d2c 9d3d 739d b13d a925 4e3e 50dd c03d
00000060: 7216 c83d 7275 2d3e d5d1 083e e2c4 8d3d
00000070: 6f40 0d3e ebfd da3d e274 7b3d a6f8 403d
00000080: 5e74 103e ffc7 9d3d bb56 ff3d b679 c53d
00000090: 6f61 263e d882 c73d c62e fd3d c56a 923d
000000a0: 7fd7 d93d 3452 a03d 19b8 063e 45b5 573d
000000b0: 79b3 803d a2a1 763d 3d7e 913d 0ce4 113e
