torch/trained_models/k_16_c_4_esc50_mixup_2_oldlr_fold1.pt (torch, 401842 bytes, 41 tensors)

sfeb.1.weight f4 [8]
000000 ed 7b 40 3f d5 82 27 3f fa e0 0f 3f 12 03 1b 3f
       0.75189096 0.6543401 0.5620266 0.6055156
000010 fe 7f f2 3e 5f 40 10 3f 2f 3d 65 3f 00 fe 5d 3f
       0.47363275 0.5634822 0.89546484 0.867157

sfeb.1.bias f4 [8]
000000 82 08 de 3e 4c 34 07 3f 0b d4 9d 3d 56 91 46 3f
       0.43365866 0.52814174 0.077064596 0.77565515
000010 a3 c8 c5 3e 17 5c 0b 3e 2a 29 33 3d f6 83 b0 3d
       0.38629636 0.13609348 0.04374043 0.086189196

sfeb.1.running_mean f4 [8]
000000 7f fa 1f 37 eb 2a 00 b7 be 52 36 b8 56 96 4f b6
       9.535462e-06 -7.639387e-06 -4.346924e-05 -3.093291e-06
000010 5e 98 93 b8 f1 f3 b7 38 6e be 6e 36 1d 6c c3 35
       -7.037887e-05 8.7715576e-05 3.5575608e-06 1.4560097e-06

sfeb.1.running_var f4 [8]
000000 30 c1 b8 3b 3d 56 4a 3b 86 d1 c7 3b 64 91 8e 3b
       0.005638264 0.0030874156 0.006097975 0.004350828
000010 98 b2 03 3c 57 d1 15 3c 76 36 30 3c 31 c5 19 3c
       0.008038186 0.009144149 0.010755172 0.009385393

sfeb.3.weight f4 [64, 8, 1, 5]
000000 74 70 18 bc 3c 72 fe 3b e9 20 f3 bb 55 bf 0f 3b
       -0.009304155 0.0077650826 -0.0074196947 0.002193411
000010 6d a5 0b bc 2b 28 fa bb 79 8e b6 38 64 fe 23 3b
       -0.008523327 -0.007634183 8.704974e-05 0.0025023455
000020 d9 b1 ca ba cc 59 2a 3c 1d 61 b0 3a 76 db a0 39
       -0.001546438 0.010397386 0.0013456676 0.0003068109
000030 f6 6d f2 3a 2b 34 7d bb ea 15 5b bb d0 84 28 3b
       0.0018495906 -0.003863583 -0.003342981 0.0025713928
000040 35 8b 71 bb 72 c9 84 bb a8 35 44 bc 9c f0 81 bb
       -0.0036856655 -0.0040523345 -0.011975683 -0.0039654505
000050 2d cb 64 3b 4d 9a 65 ba 88 95 c1 b9 ca c2 59 bb
       0.0034911141 -0.00087586493 -0.00036923238 -0.0033227676
000060 25 a2 88 3b 67 04 b2 b9 9a 5f 95 bb 73 31 9b bb
       0.0041697198 -0.00033954086 -0.0045585157 -0.0047361194
000070 fc f5 a4 bb d0 b9 c4 ba 1f 0e 10 b9 fd 68 27 ba
       -0.0050342064 -0.001500899 -0.0001373817 -0.0006386189
000080 83 91 41 3b c1 7b c2 3b 4d bd 19 bc 24 c8 6f bb
       0.0029536195 0.005935163 -0.009383512 -0.00365878
000090 02 32 be 3a 09 4e 4e bc 5e 79 20 bb e3 b4 49 b9
       0.0014510753 -0.012591847 -0.0024486403 -0.0001923624
0000a0 33 97 03 bd 4d ec a2 bc fc cb 0b bb ad cb 81 bc
       -0.032126617 -0.019888068 -0.00213313 -0.01584419
0000b0 92 00 09 be a8 7b 68 bc ee aa f9 3b 87 8d f0 bc
       -0.13379124 -0.014189638 0.0076192534 -0.02936436
0000c0 bf c7 0b bb 25 cb 74 3d c0 bd c0 3d b5 2d 49 3d
       -0.0021328775 0.059764046 0.09411192 0.049115855
0000d0 69 ca 78 3d 0a c5 4d 3d cc ac 21 bd 3f cf f5 bd
       0.06073991 0.05023674 -0.039471433 -0.1200242
0000e0 f2 b2 c8 bd 0c 8a 65 bb 49 34 0d bc f2 28 4f bc
       -0.09799756 -0.003502491 -0.008618423 -0.0126440395
0000f0 82 51 5d 3d 6d fb e3 3d 83 97 a0 3c 4a d8 0e 3d
       0.05403281 0.1113194 0.019603496 0.034874238
000100 bd a0 f3 3d 80 1b 3f bd b7 01 16 bd 32 08 26 bd
       0.11895893 -0.046657085 -0.03662273 -0.04053516
000110 bc 7e 89 bd 05 f7 83 bd 3b 5f 1d bd d3 cf 7f bd
       -0.06713626 -0.064435996 -0.038420897 -0.062454056
000120 01 89 be bd d6 13 8a bd 21 3e b2 3c 30 ed af bd
       -0.09303475 -0.06742065 0.021758141 -0.08590162
000130 f0 78 d8 bb bc 7f bd bc bb 6e dc bd c9 06 1c bd
       -0.0066062137 -0.023132198 -0.10763308 -0.03809241
000140 1a 4f 59 3d 62 83 d0 bd 9d ef 14 3d 51 c0 cb bd
       0.053053953 -0.10181309 0.036361326 -0.09948791
000150 2f 61 5c bb 0a a3 cd 3c 3d 9e df 3d 40 4d b1 3d
       -0.0033627262 0.025102157 0.109188534 0.086573124
000160 7f 93 4f 3d 9c 0d cf 3d 60 fb 9f bc 15 21 4f bd
       0.050677773 0.10110018 -0.019529045 -0.05056866
000170 76 37 d5 bc ee c3 88 bd e0 d7 4a bd ee 12 9b 3d
       -0.026027422 -0.066779956 -0.04952228 0.0757197
000180 b8 9a 64 3d e4 98 0d bd 35 82 c2 bd 61 67 84 3b
       0.055811614 -0.034569636 -0.09497491 0.004040644
000190 8d fa a7 3d c2 67 6e 3d 17 f8 08 3c 39 81 c7 3d
       0.08202086 0.05820442 0.0083599305 0.09741444
0001a0 6a 73 aa 3d 11 32 b1 3a 33 0b 5e bd 5d e2 03 be
       0.08322795 0.0013518949 -0.0542099 -0.1287932
0001b0 f9 f7 f3 bd c0 7b fd bd fe 37 fd bc bd ab 66 bb
       -0.119125314 -0.12377119 -0.030910488 -0.003519758
0001c0 e0 1e 2e 3c 08 50 93 bd 15 14 a2 bd c7 41 ba 3d
       0.010627478 -0.07192999 -0.079139866 0.09094577
0001d0 dc 2a 05 bd f1 31 c3 3c 90 f9 99 bc 6b 75 34 3d
       -0.032511577 0.023827525 -0.018795758 0.04405729
0001e0 5a 1d 21 3b e9 5b 9b 3c 6f 64 8c bc 34 a4 96 bd
       0.0024584145 0.018964725 -0.017137734 -0.07355538
0001f0 ed 87 cc bd 03 88 ba bd e0 52 11 bc 01 83 8a ba
       -0.09986863 -0.091079734 -0.008869857 -0.0010567607
000200 64 8a 38 3d ca a8 dd 3d b4 9c 17 3e ba de 73 3c
       0.045053855 0.108232096 0.14805871 0.014884645
000210 01 a3 49 bd 18 ce a6 bd 25 f3 fc bd 4d 2e 0d be
       -0.04922772 -0.08144778 -0.12351064 -0.13787194
000220 f0 0f 1f bb d1 f0 57 bd 07 9e 32 3d a5 b2 ac 3c
       -0.0024270974 -0.052719895 0.043607738 0.021081278
000230 6e 21 3a 3c 2e 64 e0 bc b0 92 10 bb c8 b9 1b bc
       0.011360509 -0.02739152 -0.0022060089 -0.009504743
000240 5e 0a 4f 3e dc e1 56 be dd f6 07 be e7 04 15 be
       0.20218799 -0.20984596 -0.13277765 -0.14552651
000250 21 29 22 be 23 2c 36 be 0c 67 85 bd b9 00 57 bd
       -0.15836002 -0.17790274 -0.06513795 -0.052490924
000260 39 1f 3e be 2d 1e 4d be 71 c0 d8 bd 12 e8 f0 bd
       -0.18566598 -0.20031042 -0.1058358 -0.11763014
000270 e9 aa 5e bd 30 a4 7d bd f4 7f 3a bd 79 94 bf 3d
       -0.05436221 -0.06192416 -0.04553218 0.09354491
000280 81 97 ab bd 79 df c8 bd 78 0c f3 bb 47 d5 2a 3c
       -0.083785065 -0.09808249 -0.007417258 0.010426826
000290 a5 7a 53 3c 78 07 31 bc 36 d8 e6 bc fa 13 a8 3d
       0.012907659 -0.010805003 -0.02817927 0.08206935
0002a0 d2 c7 4c 3d 5f 1e 07 3d a6 70 8b bb 42 41 84 3c
       0.04999525 0.03298795 -0.004255372 0.016144399
0002b0 b2 69 c7 3c e6 3b b8 3b a8 ec b7 bb f8 d4 a8 3d
       0.024342392 0.005622375 -0.0056129284 0.082437456
0002c0 33 7d 9f 3d b5 3a ae bc 76 78 59 bd 0e e8 40 bd
       0.07787552 -0.021268228 -0.053093396 -0.047096305
0002d0 53 10 11 3d 53 39 14 3d 67 3c 12 3d 83 3e 2c 3d
       0.03541596 0.03618748 0.035702135 0.042051803
0002e0 8c 79 b8 3d 51 74 4d be 8b b9 41 be 47 ec fd bd
       0.09007558 -0.20063902 -0.18918435 -0.12398582
0002f0 a7 6f be bd 8f 74 e6 bd b6 8b 54 bd b2 ec 94 bd
       -0.0929864 -0.112527005 -0.05189105 -0.072717085
000300 5c fc d3 bd 28 9d 1b be dd 68 c9 bd 8f 94 91 bc
       -0.10350868 -0.15196669 -0.09834454 -0.017771034
000310 42 d8 b1 bc b7 67 45 bd 3d 07 f2 bc bb b2 94 bb
       -0.021709565 -0.048194613 -0.029544467 -0.004537908
000320 43 55 44 bb 3e 85 f0 bc c1 11 5a 3c 8c 79 2d bd
       -0.0029958047 -0.02936041 0.013309897 -0.042352244
000330 5b 48 91 bd db 46 c1 3b 10 d9 de bb 6f d2 1e 3d
       -0.07093879 0.005898339 -0.006800778 0.038774904
000340 13 56 02 3d b0 8b dd 3c 8d dc 05 bd 73 8b 9b bc
       0.031820368 0.027044147 -0.032681037 -0.018987393
000350 15 92 49 bd 77 36 9b bc 82 cf 9c bd 75 9f e0 b5
       -0.04921158 -0.01894687 -0.076567665 -1.6735709e-06
000360 09 36 ab bd 32 a1 5b 3d 58 ac 91 3c 79 0f 0b 3d
       -0.08359916 0.053620525 0.017782375 0.033950303
000370 64 f5 05 bd e2 25 8d bc a4 82 0e bd 1a 0d 48 bd
       -0.032704726 -0.017229978 -0.034792557 -0.04884062
000380 49 8f 94 3d 07 6a 49 be 55 ae e2 bd 34 2d a2 bd
       0.07253892 -0.19669352 -0.110684074 -0.07918778
000390 d7 de e7 bd ca 01 d2 bd 7a a1 00 be 1b 52 12 be
       -0.113218 -0.102542475 -0.12561598 -0.14289133
0003a0 65 99 0c be 3e 11 18 be d2 6f 8a bd ab 5b a4 bd
       -0.1373039 -0.14850327 -0.06759609 -0.08025297
0003b0 e4 24 0d 3d 83 a3 39 bd 25 80 02 3c 1d 05 75 3b
       0.03445901 -0.045321953 0.007965122 0.003738708
0003c0 97 fc b5 38 48 22 8e 37 e9 24 80 38 1c 21 34 39
       8.677801e-05 1.6943683e-05 6.110391e-05 0.00017178472
0003d0 9d 20 4e 37 ac de 33 b7 5d 7f 91 38 6f 5e e1 b7
       1.228615e-05 -1.0721076e-05 6.937862e-05 -2.6866064e-05
0003e0 00 8b 47 37 f3 10 92 b7 95 65 af b8 c9 9e 0b 39
       1.1893688e-05 -1.7412449e-05 -8.3635714e-05 0.00013315225
0003f0 45 16 2c 38 21 1e ca 37 ed f3 1e 38 be f8 96 b7
       4.1028736e-05 2.4094306e-05 3.789731e-05 -1.7997223e-05

sfeb.4.weight f4 [64]
000000 6e 65 31 b7 93 8b 4a 3e f5 37 47 3e e8 88 07 3f
       -1.0573638e-05 0.19779806 0.1945494 0.5294328
000010 df 9e a0 3e 56 29 ae 3e 79 16 08 b5 86 96 f2 3e
       0.3137121 0.34015912 -5.069665e-07 0.47380465
000020 d6 ef ff 3e c3 52 3b be a3 f8 ea 3e 32 0d 9d 3e
       0.49987668 -0.1829329 0.4589282 0.3067413
000030 06 83 a2 3e 6a df d2 3e f1 72 03 3f 34 78 15 3f
       0.31740588 0.41186076 0.5134726 0.5838654
000040 e7 e8 35 3f 21 02 0d 3f 51 54 1e 3f 07 18 32 3f
       0.71058506 0.55081373 0.61847407 0.6956791
000050 be 61 02 3f 9c a0 b1 3e 87 d0 f0 3e dc 75 08 3f
       0.5093039 0.34692848 0.47034094 0.5330484
000060 ea 6e e3 3e c9 8e 9b 3e 17 45 90 3e 6c 03 cf 39
       0.44420558 0.30382374 0.2817771 0.00039484666
000070 49 27 da 3e cb 01 10 3f 73 42 8a 3e 88 05 01 3f
       0.42608097 0.56252736 0.27003822 0.50399065
000080 8f 22 2d 36 20 c7 64 3e e9 3f 5f 3e b7 8b 3c 3f
       2.5799125e-06 0.22341585 0.21801724 0.7365069
000090 8e cd 79 3f bc bc 13 3f af 96 16 3f 16 76 c8 3e
       0.97579277 0.5770986 0.58823675 0.39152592
0000a0 34 75 07 3f b9 87 17 3f a2 5c 50 3f be 2f 4a 3f
       0.5291321 0.5919147 0.81391346 0.789791
0000b0 ff f2 66 3f 7f 00 1e 3f fb 29 72 3f fe 9a 8a 3f
       0.9021453 0.61719507 0.9459531 1.082855
0000c0 51 26 27 3f 1b 78 55 3f ae 18 23 3f a4 81 57 37
       0.6529284 0.8338639 0.63709533 1.2845183e-05
0000d0 0f fe c1 3e a7 e0 81 3e ed b5 12 3c 61 41 24 3f
       0.37889144 0.2536671 0.008954507 0.6416226
0000e0 92 0f 53 3f 4d 46 82 3f ec 7b 6d 3f 08 38 0c 3f
       0.82445633 1.0177704 0.92767215 0.54772997
0000f0 98 a7 e5 3e 01 0e bd 3e 32 8e 88 3e 54 75 74 3e
       0.44854426 0.36924747 0.26670986 0.23872882

sfeb.4.bias f4 [64]
000000 7a c6 24 bc 43 68 34 bd 40 30 2b 3e f3 fd 69 3c
       -0.010057086 -0.044044744 0.16717625 0.014281738
000010 94 2a 86 3d 6e fc 9b bc 53 43 04 b9 6e 94 ce 3c
       0.0655109 -0.019041266 -0.00012613581 0.025217261
000020 56 e7 30 bd f2 4f 54 3e 6f 92 81 bc 28 8e aa 3d
       -0.04318937 0.20733622 -0.015816895 0.083278954
000030 7f 79 41 3e df d2 1c bc c3 f4 ae 3d 99 20 c8 3d
       0.18894003 -0.00957176 0.08542778 0.097718425
000040 f6 49 37 3c f9 b5 e3 3d e6 88 6a 3b 2b ec 04 be
       0.011187067 0.11118693 0.0035787164 -0.12980716
000050 be 3b 00 3e 02 0d bb 3c e0 b1 18 bc 00 01 9a bd
       0.1252279 0.022833351 -0.009319752 -0.07519722
000060 27 cc ca 3b fa 81 5f 3e fc 5b 15 3e 97 b7 80 bc
       0.0061888876 0.21826926 0.1458587 -0.015712542
000070 3b a2 2a 3e 57 e4 e2 bd eb a0 80 bd 8e fc fd 3d
       0.16663449 -0.110787086 -0.06280693 0.124016866
000080 99 cd 8e ba 8e a7 21 3d 4b ec fd 3d d9 4e 8d bc
       -0.0010895013 0.039466433 0.12398585 -0.017249512
000090 72 20 f6 bd b6 8a 34 3d de 6d 2c 3d 95 75 a7 bd
       -0.12017907 0.044077598 0.042096965 -0.08176724
0000a0 70 e7 0f 3c d1 58 bf 3c 33 d6 01 be 43 08 44 3c
       0.008783206 0.02335778 -0.12679367 0.01196486
0000b0 d0 48 f1 bd 30 4c 20 3e b5 cc 89 3d 6f e1 02 bd
       -0.11781466 0.15654063 0.06728498 -0.03195327
0000c0 ae ab 05 3e a2 aa 89 bd 90 38 05 3c a6 9b 25 ba
       0.13053772 -0.06721999 0.008131161 -0.0006317444
0000d0 29 34 09 3e 15 ab 52 3e bf 33 fa bc 23 32 0e 3d
       0.13398804 0.20573075 -0.030542253 0.034715783
0000e0 87 70 b2 bd 70 68 21 be 77 2d ac 3c 61 cf 53 bd
       -0.08712869 -0.15762496 0.021017773 -0.051711444
0000f0 ab b1 30 b9 92 0d 02 3e 23 77 00 3e 79 f5 11 bd
       -0.00016850854 0.12700489 0.12545447 -0.03563449

sfeb.4.running_mean f4 [64]
000000 b2 02 f5 bc 09 43 8a be 9d 26 24 3e 14 87 e6 be
       -0.029908512 -0.2700427 0.16030355 -0.4502493
000010 48 05 20 be df c8 aa be f5 b9 7c 39 8e 68 db be
       -0.15627015 -0.33356377 0.00024101867 -0.42853206
000020 eb 0a c7 be 9f d6 50 be 6b e8 25 bf ad 80 99 be
       -0.38875517 -0.20394371 -0.64807767 -0.29980984
000030 47 a7 09 be 9f 09 1e bd 4d 7c 8f bd 09 1d a4 be
       -0.13442717 -0.038583394 -0.0700613 -0.32053402
000040 4a 84 ce be 72 51 9f bd 09 c3 fe be eb fd 02 bf
       -0.40335304 -0.07779206 -0.49758175 -0.511687
000050 94 eb a7 be 2c fa d7 be 5e ba 26 bd 41 5f 16 bf
       -0.3279692 -0.42183053 -0.040705077 -0.58739096
000060 4f 59 07 bf eb ec 4c 3d d0 50 cf bc 63 06 73 bc
       -0.5287065 0.05003063 -0.02530709 -0.014833066
000070 20 60 0d bf 96 81 e2 be 58 ac 15 bf 06 fb 15 bf
       -0.552248 -0.4423949 -0.584661 -0.58586156
000080 a6 9d 06 ba e2 82 8f be 2a c1 d3 3c 2f 1a 6d bf
       -0.0005135186 -0.28029543 0.025848944 -0.9261808
000090 9d c3 60 bf 05 c4 c5 be 6d e4 1e bf 8e 8f cf be
       -0.8779848 -0.38626114 -0.620673 -0.4053921
0000a0 10 24 f0 be 32 e0 a4 be ad 9e 90 be 7c 9f 88 be
       -0.46902514 -0.32202297 -0.2824606 -0.26684177
0000b0 6b a4 e2 be 8a 36 8e be 53 6d 64 3e d7 5a 21 bf
       -0.44266066 -0.27775985 0.22307329 -0.63029236
0000c0 bc db 29 be a6 7f f8 bd d9 fd 12 3e 90 51 da ba
       -0.16587728 -0.12133722 0.14354648 -0.0016656388
0000d0 a6 f2 10 bf f1 c4 fc be 50 47 bb bd 5e c4 6d bf
       -0.5662025 -0.49369004 -0.09144461 -0.9287776
0000e0 14 2b c8 be 35 8b 0b bf e5 97 db bd a4 8c 73 3e
       -0.39095366 -0.5450929 -0.10722331 0.23784119
0000f0 76 7d 04 be 7d f4 8b be c9 63 d0 3d 41 7c a6 bd
       -0.12938485 -0.27334967 0.101752825 -0.08129168

sfeb.4.running_var f4 [64]
000000 42 51 3f 3a 51 22 b5 3d 73 8f 91 3d 64 7a 95 3e
       0.000729818 0.08844436 0.07107439 0.2919494
000010 09 cd 24 3e fe 73 3c 3e e5 35 4f 33 61 59 85 3e
       0.1609384 0.18403623 4.824496e-08 0.26044753
000020 75 8b 91 3e db e0 c9 3d 64 71 a8 3e ce 3f 69 3e
       0.2842671 0.09857341 0.3289901 0.22778246
000030 3b f5 53 3e 86 4d a7 3e 0a 44 c7 3e 35 74 c7 3e
       0.20699017 0.32676333 0.38919097 0.38955846
000040 74 4c 00 3f 41 14 b6 3e a6 8f c9 3e b3 4b cb 3e
       0.5011666 0.35562328 0.39367408 0.3970619
000050 95 64 6a 3e 2b b2 8e 3e 3f b2 e1 3e 85 35 35 3f
       0.22889931 0.27870306 0.44081303 0.7078479
000060 ad a7 00 3f b3 d8 a7 3e 56 f1 65 3e 8f 32 4f 3a
       0.5025585 0.32782516 0.22455344 0.0007903957
000070 1d 5e b2 3e ce fb d7 3e 25 02 57 3e ab e4 ad 3e
       0.34837428 0.421843 0.20996912 0.33963522
000080 47 02 7a 36 ed 17 c4 3d 51 70 91 3d 8e 1d d0 3e
       3.7254229e-06 0.09574876 0.07101501 0.40647548
000090 21 c1 00 3f dc 42 79 3e 13 36 be 3e b1 57 47 3e
       0.5029469 0.24341911 0.3715063 0.19467045
0000a0 df 5c 4d 3e 62 d8 cc 3e 97 3c 24 3f f0 3a 05 3f
       0.20054959 0.40008837 0.6415495 0.52043056
0000b0 c5 87 1f 3f 7f 7a 99 3e 75 45 23 3f 84 cd 3c 3f
       0.6231654 0.2997627 0.6377786 0.7375109
0000c0 7c b3 b9 3e 5b d3 0a 3f 19 1b db 3e 2a 5c e5 35
       0.36269748 0.5422875 0.4279411 1.7088653e-06
0000d0 08 cb 4b 3e 1b 96 29 3e c3 0a 80 3b 53 67 ee 3e
       0.19901669 0.16561167 0.003907533 0.46563205
0000e0 8b b8 c0 3e e6 1d 08 3f 39 62 af 3e 0e 2b 89 3e
       0.37640795 0.5317062 0.34254625 0.2679066
0000f0 52 a5 51 3e 3e e0 19 3e 89 fa d9 3d cf a9 90 3d
       0.20473221 0.15026948 0.10643489 0.070636384

tfeb.0.weight f4 [32, 1, 3, 3]
000000 44 b8 2c be e7 3f 53 be cd ca 63 be d6 c5 7b 3e
       -0.16867167 -0.20629846 -0.22245331 0.24587187
000010 98 8d 36 3e 02 f7 89 3d 62 07 12 be a8 e5 42 be
       0.17827451 0.06736566 -0.14260629 -0.1903292
000020 b0 64 f2 bd f4 42 8f bd 2e d1 9f be 75 56 ab 3d
       -0.11835611 -0.06995192 -0.3121428 0.083661
000030 7e 27 23 3e 80 c9 a0 bd dc 67 ff 3c 57 1f 5e be
       0.15933034 -0.07850933 0.031177454 -0.21691643
000040 6f a5 35 be 12 11 3d bd 73 03 65 be 18 46 fc be
       -0.17738889 -0.046158858 -0.22364597 -0.49272227
000050 8f 76 00 3f 2f 97 85 be 21 04 08 bf 2f 6a 18 3f
       0.50180906 -0.26091906 -0.531313 0.59537023
000060 0d 4e 85 be 91 b2 0c bf 93 37 17 3f a9 ad 56 3e
       -0.2603611 -0.5495997 0.59069175 0.20964684
000070 35 54 71 3e 8a 9b bd be ca 0e 08 3e 41 5a 86 3c
       0.23567279 -0.3703273 0.13286892 0.016400458
000080 d7 c4 d3 be ba e5 4a 3d bf 42 49 3d 2f f7 b9 be
       -0.41361114 0.04953549 0.04913592 -0.363214
000090 89 16 c1 3e 88 98 a0 be a2 b0 06 bf 0d bb cd 3e
       0.37712505 -0.31366372 -0.5261327 0.4018177
0000a0 50 55 4d be a8 fd df be db c1 15 3f 66 cd 6d be
       -0.20052075 -0.43748212 0.58498925 -0.23222885
0000b0 84 49 e4 be 3d a1 26 bf 4a 79 8b 3f e5 e6 18 bf
       -0.44587338 -0.6508978 1.089639 -0.5972732
0000c0 c9 25 a9 be 46 5c fd 3e 27 9d a1 be 15 1e 4e bd
       -0.3303664 0.49484462 -0.3156521 -0.050321657
0000d0 47 dd f2 bd 70 0c 80 bc 28 24 05 be c5 44 18 be
       -0.118586116 -0.01563093 -0.13002074 -0.14869983
0000e0 bf 81 e7 bd 26 53 65 be 38 14 f8 bd ed 09 ac 3d
       -0.11304044 -0.22395 -0.121132314 0.08400331
0000f0 d3 b3 07 be 7e 18 05 be 2f 20 d0 bd aa 41 c9 bc
       -0.13252191 -0.12997624 -0.101623885 -0.024567444
000100 2a eb d2 3d 04 16 db 3b bf 29 68 3c 23 16 da 3d
       0.1029876 0.006685974 0.014170109 0.106487535
000110 0a a8 2b bd 86 cf e3 3d b5 6f f5 3d 55 05 b1 3c
       -0.0419083 0.11123566 0.11984197 0.021608988
000120 22 f4 92 3e 2f e5 82 3d 4d 8c 1d 3d 45 82 d5 bd
       0.28701884 0.063913696 0.03846388 -0.104252376
000130 1c 2e 67 be bc 52 55 be c0 c0 51 be 2f 2c 54 be
       -0.22576183 -0.20832342 -0.20483685 -0.2071998
000140 50 f8 09 be 94 ba 27 3e 88 7b 7e bd 15 e9 34 be
       -0.1347363 0.16379768 -0.062129527 -0.17667039
000150 0c b6 83 3e 08 ac 8a bd 49 97 10 be ff 85 1a 3e
       0.25724828 -0.067710936 -0.1412021 0.15090178
000160 5b c8 86 bd 6f 66 f7 bd b6 e9 13 be e8 65 2a 3b
       -0.065811835 -0.120800845 -0.14444622 0.0026000682
000170 f5 1a a0 3e b6 9d 83 be 34 ea df bd c6 d2 ad 3e
       0.31270567 -0.2570626 -0.109333426 0.3394987
000180 73 73 82 be cc 99 94 be fb f7 21 be 67 48 75 be
       -0.25478706 -0.29023588 -0.15817253 -0.239534
000190 97 7e bb bd d5 dd c9 3e b8 17 8f be bf 18 df bd
       -0.091550045 0.39427057 -0.27947783 -0.10893392
0001a0 8a b4 e8 3e 22 2c 9d be 10 88 b6 bd b2 47 e4 3e
       0.4545024 -0.30697733 -0.089126706 0.4458595
0001b0 b1 bb 1a bf f8 29 98 3e 35 e0 41 3e d5 71 26 bf
       -0.60442644 0.2971952 0.18933184 -0.65017444
0001c0 15 10 5d 3e a1 46 6e 3e b3 f9 e5 be ba e1 2c 3e
       0.21588166 0.2326913 -0.44917068 0.16882983
0001d0 e9 a5 71 3d 99 1c c8 3d 57 c8 10 3e e1 57 09 3e
       0.058996115 0.097710796 0.14138924 0.1341243
0001e0 6b 4e 18 be 6e 25 3e be 1e e4 05 be 31 16 34 3c
       -0.14873664 -0.18568966 -0.13075301 0.010991619
0001f0 75 54 81 3c cf 13 10 3c dc e1 2f 3e f3 fe a7 be
       0.015787343 0.008793785 0.17176002 -0.32811698
000200 24 5a af 3d 73 a9 1d be 2d 48 1e 3f bf 6a 19 bf
       0.08562115 -0.15396671 0.6182888 -0.59928507
000210 c5 3b ab be 74 d3 4a 3f 32 35 30 bf 13 66 a0 3e
       -0.33444038 0.792289 -0.6883117 0.31327876
000220 a6 eb 6d 3e ce 7b de be db 61 c7 3e d7 80 44 3e
       0.23234424 -0.4345383 0.38941845 0.19189773
000230 0a cd cb be 22 f1 97 3e 2a 82 c4 3d f4 dc c5 be
       -0.3980487 0.29676157 0.09595139 -0.38645136
000240 fc fd 25 3d a8 6c 11 3d 41 3d e6 be c0 ed 80 3d
       0.04052542 0.035504013 -0.44968608 0.06295347
000250 7e 59 bc 3c 21 8f de be 8d 74 64 3e 6e 8e 7b 3e
       0.022991892 -0.43468574 0.22310086 0.24566051
000260 70 0b b2 be a1 25 3b be 91 53 bd 3d c4 14 fc 3c
       -0.3477435 -0.18276073 0.09244455 0.03077162
000270 e3 35 02 be 20 b2 2c 3e 9d 84 9d bc fd b2 07 be
       -0.12715869 0.16864824 -0.019228274 -0.13251872
000280 0a 33 16 3e 27 eb bb 3c 42 75 8d bd f9 84 61 bd
       0.14667907 0.022939278 -0.06907131 -0.055058453
000290 87 17 74 3d 2a 55 53 be a2 24 b5 be 6e 1b a7 be
       0.05959275 -0.20637956 -0.3537951 -0.32638115
0002a0 77 31 ce 3d 10 32 d4 3d 5e f7 4d 3e 41 bf 7d 3e
       0.100680284 0.10361111 0.20113894 0.24779989
0002b0 ec 47 1b be 9d 36 1a be f9 4d cb 3d 73 83 34 be
       -0.15164155 -0.15059896 0.099269815 -0.17628269
0002c0 d0 5f 68 be f0 18 7d bd 39 f6 45 be 48 f2 3c be
       -0.226928 -0.06179136 -0.19332208 -0.18451798
0002d0 3e 5f a3 be 05 2b c4 be e8 c6 bf be 5c e2 e6 3c
       -0.31908602 -0.3831407 -0.3745644 0.028184108
0002e0 6a 33 7c 3e 07 c3 e0 3d 89 b6 54 3d 4c ce b8 3c
       0.24628988 0.109746985 0.05193189 0.022559308
0002f0 19 c7 aa 3d c8 19 97 3e 2d a2 5a 3e e1 a9 10 bf
       0.08338756 0.29511857 0.21350928 -0.56509215
000300 8d 86 91 be 35 b6 ad be 0f df 0c 3f 33 2a b4 bd
       -0.28422967 -0.33928075 0.5502786 -0.08797111
000310 de a0 23 bd 27 58 49 3c 99 e9 27 be b6 90 4a be
       -0.039948337 0.012289084 -0.16397704 -0.19781765
000320 76 fe 19 be 2b fd ff bd e3 e0 2c be d5 0a f4 bd
       -0.15038475 -0.1249946 -0.16882662 -0.119161285
000330 11 b8 83 bd 67 ff db bd 19 72 ca bd 2b 46 51 3e
       -0.06431592 -0.107420735 -0.09885044 0.20436923
000340 85 d8 73 be a5 d7 bb bd b1 86 3e bf 27 7e b6 3e
       -0.23813064 -0.0917199 -0.7442427 0.35643122
000350 58 31 81 3e 1d 18 05 3f 7e ea 9a be bf a8 a2 be
       0.2523296 0.5198992 -0.30257028 -0.31769368
000360 7a 2c 0e 3f 6c 90 8b be 80 ea c0 be ef 4d 25 3f
       0.55536616 -0.27258623 -0.3767891 0.6457204
000370 bf 83 83 be b4 17 f5 be 96 f2 cc 3e 19 5d 79 be
       -0.25686452 -0.47869647 0.40028828 -0.2435192
000380 57 92 f1 be 2a 10 bd 3c 88 62 49 3d 66 6a 85 3c
       -0.4718196 0.023078997 0.049166232 0.016286086
000390 05 79 ab 3d 5c 83 84 3d 85 92 9e 3c aa ed 28 3d
       0.08372692 0.06470367 0.019356975 0.04124228
0003a0 3a e2 5f 3d a7 c2 0a 3c 1e 4c 7e 3e 6d 01 db be
       0.054659106 0.00846926 0.24833724 -0.42774525
0003b0 2c 37 17 3e bd 04 de 3e 90 97 5f bf c6 1b 39 3e
       0.1476714 0.4336299 -0.8734064 0.18077001
0003c0 a5 34 a9 3e 7c 18 65 bf 08 18 95 3e d9 a8 c0 bd
       0.33047977 -0.89490485 0.29119897 -0.09407205
0003d0 93 42 0e 3e 1c a2 26 3e 99 4f 27 be 98 f8 8d be
       0.13892584 0.16272777 -0.16338958 -0.27728724
0003e0 26 c0 3c be 1a 48 0d be 0f 50 7c be 32 a2 62 be
       -0.18432674 -0.13797036 -0.24639915 -0.22132185
0003f0 9b 20 42 3d e0 c3 aa 3d 19 4c 46 3d 2f f7 15 3e
       0.047394376 0.083381414 0.048412416 0.14645074

tfeb.1.weight f4 [32]
000000 b2 c1 d1 3e 7c ef fe 3e 48 4c 02 3f 5a 77 a4 3e
       0.4096809 0.49792087 0.50897646 0.32122308
000010 2d bf 8a 3e 56 39 c9 3e e1 72 f9 3e d2 04 50 3e
       0.2709898 0.39301556 0.48720458 0.20314339
000020 15 d7 92 3e 31 7a 91 3e f3 e5 5f 3e c7 d1 33 3e
       0.2867972 0.28413537 0.21865062 0.17560492
000030 25 ba d3 3e 75 e5 fc 3d 9e 5b c0 3e b7 65 59 3e
       0.41352955 0.12348453 0.37569898 0.21230207
000040 23 b9 04 3f c5 2f 3f 3e 37 dd 99 3e 41 b6 2c 3f
       0.51844996 0.18670566 0.30051586 0.674656
000050 a8 e2 a6 3e ae 88 c4 3e a9 a6 81 3f c4 71 f3 3e
       0.325948 0.38385528 1.0128986 0.47547734
000060 b8 99 ff 3e 94 29 2d 3e 96 b3 f2 3e f7 86 2e 3f
       0.49921966 0.16910392 0.47402638 0.6817469
000070 8c d9 29 3e 34 04 4f 3e 9a a4 29 3e 9b f8 98 3e
       0.16586894 0.20216447 0.16566697 0.2987717

tfeb.1.bias f4 [32]
000000 39 79 e7 bd 61 55 c1 bd 9d ad 91 bd 97 f2 67 3e
       -0.11302418 -0.09440113 -0.07113192 0.22651134
000010 73 09 24 3f b8 03 c2 bc 16 48 17 3e 40 f4 b8 be
       0.6407692 -0.023683414 0.14773592 -0.36123848
000020 61 01 ab 3e 55 ec 31 bf fe a7 03 3f ee da 00 3e
       0.3339949 -0.6950124 0.5142821 0.12583515
000030 09 3c b8 3d 49 a6 0f 3e a9 75 b2 3b d1 d6 25 3e
       0.08995826 0.14028277 0.005446155 0.16195227
000040 42 f9 85 bd 71 56 05 bf 66 ae 3f 3e 9d 5c 75 be
       -0.06541683 -0.52085024 0.18718871 -0.2396111
000050 ce c3 2e 3e 75 00 fb 3d 9b b1 ab be d2 6a 12 3c
       0.17066881 0.122559465 -0.3353394 0.008936601
000060 ff 38 a8 bd e8 88 60 be 6f ec dd 3d 7e da bb bd
       -0.08213996 -0.21927226 0.10836112 -0.091725335
000070 85 35 4d 3e 2e de 11 3e f7 4c d4 3d 65 ed c5 3e
       0.20039947 0.14244911 0.103662424 0.3865768

tfeb.1.running_mean f4 [32]
000000 c0 fc 76 be 08 02 8c be 6f 5a 8c be be 66 49 be
       -0.24119854 -0.273453 -0.27412745 -0.196681
000010 f5 40 b1 be d7 2d 53 be 41 ce e2 be 50 39 3a 3e
       -0.3461987 -0.20622955 -0.44297984 0.18185925
000020 6b 80 9b be 6f 51 c2 bc fa 0f 7a be 79 75 9f 3d
       -0.30371413 -0.023720471 -0.24420157 0.07786078
000030 d0 8e 70 be ef c8 d3 bc db 2a 3a be 28 47 07 3e
       -0.23491979 -0.025852649 -0.1818041 0.13210738
000040 62 2d 85 be 43 99 22 3b b7 4b 74 be 4a 12 b3 be
       -0.26011187 0.002481059 -0.23857008 -0.3497489
000050 5d 8c 6a be 2f 75 df bd 49 23 05 bf c0 ff 22 be
       -0.22905107 -0.10911023 -0.52006966 -0.15917873
000060 96 22 5f be c9 e2 20 3e 47 e8 7d be 08 92 e4 be
       -0.21790537 0.15711512 -0.24795638 -0.44642663
000070 69 84 6c 3b fc 98 0c bd 7c d9 cc 3d d2 b6 93 be
       0.0036089665 -0.034325585 0.10002419 -0.28850418

tfeb.1.running_var f4 [32]
000000 60 97 13 3e 38 6f 13 3e d8 6f a1 3e 5b f2 02 3e
       0.14413214 0.14397895 0.31530643 0.12787764
000010 9d 6a be 3e 85 f9 4e 3e d1 e0 ad 3e 7f 56 76 3d
       0.37190714 0.20212372 0.33960584 0.060141083
000020 22 0a 66 3e 8e 78 b9 3c ca b3 34 3e ca 90 cf 3d
       0.22464803 0.022640493 0.17646709 0.10135038
000030 ed a7 5c 3e fd 57 f1 3c 29 b2 28 3e 47 0e 09 3e
       0.21548434 0.029460901 0.16474213 0.13384353
000040 73 1b 43 3e 0c 1d 3a 3c 0c 39 32 3e 42 c2 71 3e
       0.1905344 0.011359464 0.17404574 0.2360926
000050 52 5d 55 3e d3 1d 44 3d 7c 54 f0 3e a3 14 9f 3d
       0.2083638 0.047880005 0.46939456 0.07767608
000060 7f e5 87 3e 6d 78 31 3d fb 49 8c 3e 80 f0 c9 3e
       0.2654228 0.043327738 0.27400193 0.394413
000070 c9 0f 52 3d 33 88 a3 3d 43 2e 93 3d ed 97 a1 3e
       0.051284585 0.07984962 0.07186558 0.31561223

tfeb.4.weight f4 [32, 32, 3, 3]
000000 db 54 e0 bc 24 67 88 3a 7b 0d 96 3c 7f df 28 be
       -0.027384212 0.0010406715 0.018316975 -0.16491507
000010 71 3f 5f 3c 42 dd b6 3d c4 c7 16 bd 4e ec a6 3d
       0.013625965 0.0892892 -0.036811605 0.0815054
000020 e6 e0 b4 3d b8 d7 94 bd 5e 23 d0 3c 33 57 70 3d
       0.088319585 -0.072677076 0.02540749 0.05867691
000030 26 b1 5c be be 4f 6f bc 5d 03 e1 3d 20 04 b0 bd
       -0.21551952 -0.014606414 0.109869696 -0.08594537
000040 2a 4a 80 3d 17 42 d5 3d 50 30 10 bb f5 f5 2a bc
       0.06264146 0.10412996 -0.0022001453 -0.010434617
000050 d9 35 bb bd e1 a0 09 be 6f 7d 15 be 88 e2 9a bd
       -0.0914113 -0.13440277 -0.1459863 -0.07562739
000060 97 68 a9 bd 7b d5 ff bd fd 48 8f bd ac b0 8a bd
       -0.08271902 -0.1249189 -0.06996343 -0.06771979
000070 79 04 f4 bc a5 18 38 3d 7a fd c4 bb f1 a3 47 3d
       -0.029787289 0.044945378 -0.006011662 0.04874033
000080 fe 7f 04 3e 68 97 76 3d 5b 72 61 3d f8 2c d8 3d
       0.1293945 0.060202986 0.0550407 0.10555452
000090 e1 91 c7 3a 92 4c 01 bd 6b 17 a5 bc 97 fc 87 3d
       0.001522597 -0.031567164 -0.020152768 0.066399746
0000a0 4e 97 49 3d 24 77 ec 3d fe e4 47 3d 80 7c d1 3d
       0.04921656 0.11546162 0.04880237 0.102288246
0000b0 0e e4 42 3e d6 6d e5 bd 58 01 8f bd e1 61 e5 bc
       0.19032308 -0.1120259 -0.06982678 -0.028000774
0000c0 10 c5 b7 bd 45 b6 90 3d a9 6b a6 3d eb 2b 38 3c
       -0.089731336 0.07066015 0.08126003 0.01124094
0000d0 ed 78 e7 3d 83 20 87 3d 38 51 d4 3c fb ff a0 3c
       0.11302362 0.06597998 0.025917634 0.019653311
0000e0 2c 6b 12 3e e8 b1 3a be ab 75 e0 bc 62 db 3a 3e
       0.14298695 -0.18231928 -0.027399858 0.1824775
0000f0 49 79 5b be 8d e4 80 bd 88 9b 38 3e 61 45 c7 3d
       -0.21432985 -0.062935926 0.1802808 0.0973003
000100 95 69 2c 3d af 9d 29 bd 4c e3 1a 3d 30 14 06 bd
       0.04209288 -0.041410144 0.037814423 -0.032734096
000110 07 22 b8 bd 62 01 7c 3d 41 1c c8 bc a0 b1 b2 bd
       -0.08990865 0.061524756 -0.024427535 -0.087252855
000120 3f c8 72 bd a1 da 94 3b f0 92 05 3e 39 03 f6 bd
       -0.059273 0.004542664 0.13044333 -0.120123334
000130 b2 54 d9 3c ea 8f 28 3e 60 44 ad bd f0 04 49 bd
       0.026529644 0.16461149 -0.08460307 -0.049076974
000140 8c ca 4a 3d a9 be 60 bd 37 51 8a bc 9d 0b 4c 3b
       0.04950957 -0.054869328 -0.01688443 0.0031134852
000150 77 87 dd bd d5 bd 00 be 10 2e 38 bc bb cb 87 bd
       -0.108168535 -0.12572415 -0.011241451 -0.066306554
000160 f8 62 bf bd 14 0f df bc 4a fe 17 3c 0e 8a 10 3c
       -0.09345049 -0.02722887 0.009276936 0.008821977
000170 b3 68 06 3e a5 a5 9d be 15 81 04 be 7a 86 92 3d
       0.13125877 -0.3079044 -0.12939866 0.071545556
000180 79 c3 b3 bd eb c5 ae bc 4a 36 06 3d e3 b8 bc 3d
       -0.08777518 -0.021334609 0.032766618 0.09214952
000190 28 55 6d 3c 24 64 b8 bd 0a e5 0f bd 69 b7 3f bd
       0.014485635 -0.09003475 -0.035130538 -0.046805773
0001a0 30 1d 43 be 25 da aa bc 9d 5c b0 bc 17 5d 4f be
       -0.19054103 -0.020855973 -0.021528536 -0.20250355
0001b0 0a 62 77 bd 83 a3 48 bb 5f ce 12 bc 57 9e 6b be
       -0.06039623 -0.0030615039 -0.0089603355 -0.2300962
0001c0 c8 39 c4 3a 24 4e 48 3c ca b8 36 be 80 93 b4 bb
       0.0014970833 0.012225661 -0.17843929 -0.0055107474
0001d0 da b0 5d bc 14 38 eb bc 3c 08 e1 bc 73 67 90 bc
       -0.013530934 -0.028713264 -0.027469747 -0.017627453
0001e0 cf 1e 81 3d fe fe 93 3d 45 0c 33 3d 1f 9e aa 3c
       0.063047044 0.0722637 0.043712873 0.020827351
0001f0 53 88 7a bb b5 7e 27 bd 85 c3 6f 3c 16 16 97 bc
       -0.0038228228 -0.04089232 0.014634018 -0.018443149
000200 bb 26 f8 bc 47 a9 32 3d 98 b0 d5 3c 6b 0c 3a 3c
       -0.030291906 0.043618467 0.026085183 0.0113555
000210 e7 6d 96 3d 40 33 c8 3d dc 97 65 3d 43 ad 50 3d
       0.07345181 0.097754 0.056053028 0.050946485
000220 c2 30 43 bc 9e 25 f0 bd 5a 7c fc 3d f9 0d 96 3c
       -0.01191348 -0.11725925 0.12328406 0.01831721
000230 be cd 18 be 07 8c 6c 3e fa 03 30 3d d6 3a 0e be
       -0.14922234 0.23100291 0.042972542 -0.13889632
000240 cd f2 18 3c e0 67 c9 bd a8 4e c3 bc 51 87 be bc
       0.009335232 -0.09834266 -0.023841217 -0.023257883
000250 49 59 bc bd e7 f7 74 bd 0a 0c c6 bd ff 19 6f bc
       -0.09196717 -0.05980673 -0.09670265 -0.0145936
000260 d0 98 df 3d 8f 3e 4b 3d 3c 6c 6c 3b d6 f2 fc bc
       0.109178185 0.049620207 0.0036075255 -0.030877512
000270 82 5c a7 bc 4c e6 01 bd 91 ff 84 bd 05 2a e0 bc
       -0.020429853 -0.03171377 -0.06494058 -0.027363786
000280 d0 15 4b bd 2f b5 9f bd 01 db 3f bd 0c a6 86 bd
       -0.04958135 -0.0779823 -0.046839718 -0.0657464
000290 48 99 72 bc bf f0 39 bd 65 5c 09 3c b9 41 88 3d
       -0.014807053 -0.04539561 0.008383845 0.066531606
0002a0 d3 12 bc bd f4 9f 93 3c 7f 6a 08 3e f8 d0 46 bd
       -0.09183278 0.018020608 0.13321875 -0.048539132
0002b0 12 84 a1 bc e4 ba 5a 3d ac 4f 43 be 90 3a aa bd
       -0.019716296 0.05340089 -0.19073361 -0.08311951
0002c0 70 1f 11 3d 1e 61 64 bd 77 d6 2b bd a9 8d a1 3d
       0.03543037 -0.05575668 -0.041952576 0.07888348
0002d0 3e ee fb 3d 86 27 1e bd 04 e1 bf bd c6 91 11 bd
       0.123013005 -0.03861191 -0.0936909 -0.03553941
0002e0 1f 2d 15 bd 6e 71 3a bc 83 6a 32 be 53 36 0a bd
       -0.036419984 -0.011379583 -0.17423443 -0.033743214
0002f0 63 1c ca 3d ba 22 6f 3d 6a ea b7 3c 22 11 0d 3d
       0.098686956 0.058382727 0.022450645 0.034440167
000300 3f ac 14 bd 69 d8 4a 3c 7f 77 3e 3c 53 8e cb 3d
       -0.03629708 0.012380698 0.01162517 0.099392556
000310 d2 42 bc bc ca 19 bf bd 65 a6 1a 3d aa 6a 24 3d
       -0.022981081 -0.09331091 0.037756342 0.040140785
000320 70 e7 a4 3d db 6a 27 be 66 87 d2 3b 41 c0 26 3e
       0.08051956 -0.16349356 0.006424832 0.16284277
000330 b1 98 5c be 5f 09 17 3c 35 a2 69 3e 89 ad 10 3e
       -0.21542622 0.009218543 0.22815783 0.14128698
000340 7c 7b 90 3d b4 29 24 3d 2c 1c 49 3d 46 22 ba 3d
       0.07054803 0.040078834 0.049099132 0.090885684
000350 7e 80 3f bd 71 55 b5 bd fe 6f bd 3c c0 28 d7 bb
       -0.0467534 -0.08854187 0.023124691 -0.006566137
000360 99 02 f0 bc c7 bd e4 bd 2a 39 92 bd 8c 8b 0f bd
       -0.029298114 -0.1116901 -0.071398094 -0.03504519
000370 b7 42 a2 bd a7 97 a1 3b bb fa a3 3d af 07 47 3d
       -0.07922881 0.0049314084 0.080068074 0.048591312
000380 8f 91 ce 3c e2 08 92 3d 62 45 0c 3d d6 c3 ea bc
       0.025215892 0.071306005 0.034245856 -0.028657835
000390 c0 7b b2 3c b6 9d f5 bc c0 b9 8c bd 18 6e 43 3d
       0.021787524 -0.029982429 -0.068713665 0.047712415
0003a0 b7 ff c3 bc 38 6d 8a bd c8 9a 2c 3b 5d ee 2c bd
       -0.023925645 -0.06759113 0.0026337374 -0.04221951
0003b0 da fc c4 bd fe ff e9 bb da 4e 00 3d 26 80 85 bc
       -0.0961854 -0.0071411123 0.0313252 -0.016296457
0003c0 19 92 2a 3e 31 50 fa 3d 5a c1 53 bc d3 a5 2b bd
       0.16657294 0.122223265 -0.012924517 -0.04190619
0003d0 75 ae a3 3d 27 b7 5c 3e 48 c0 2c be ea 8d 15 3d
       0.079922594 0.21554242 -0.16870224 0.036512293
0003e0 ab f3 6f 3e 6c 8b 14 be 30 76 fa bb 69 ed 0d 3e
       0.23432796 -0.1450631 -0.0076434836 0.13860096
0003f0 e3 b1 c5 3d 58 45 6b 3d 62 32 be 3c 6f 06 dc bd
       0.0965307 0.05743918 0.023217384 -0.107434146

tfeb.5.weight f4 [32]
000000 58 7f d3 3e e0 a4 1f 3f 1f a1 7d b7 79 fd c7 3e
       0.41308093 0.62360954 -1.5117489e-05 0.39060572
000010 6b 91 a1 3e 10 62 b1 3e d6 1a 07 3f a5 68 bf 3e
       0.31556258 0.34645128 0.52775323 0.37384525
000020 c8 08 02 3f 17 98 be 3e f2 85 10 3f 69 41 86 3e
       0.5079465 0.3722541 0.56454384 0.2622178
000030 a7 cd dc 3e 2d e2 0e 3f 53 32 d6 3e fa 3d 04 3f
       0.4312565 0.55813867 0.4183527 0.5165707
000040 14 ad e1 3e 30 88 d6 3e 05 b7 a7 3e f5 92 5e 3e
       0.4407736 0.41900778 0.3275682 0.21735747
000050 c4 bb ee 3e 05 fd 08 3f 6d 25 78 3f 92 ed eb 3e
       0.4662763 0.5351108 0.9693211 0.4607969
000060 5b a3 3b 3f 94 df 79 3e d3 97 5c 3f 5f e2 f4 3e
       0.73296136 0.24401695 0.86169165 0.47828957
000070 f9 4a 86 3e c7 c0 bf 3e ff 4e 0a 3f 98 9a b3 3e
       0.26229075 0.37451765 0.5402679 0.35078883

tfeb.5.bias f4 [32]
000000 69 97 ca 3d e1 df 9b bd 74 ed 66 b9 60 6e c1 b9
       0.098921604 -0.07611061 -0.00022022967 -0.00036894064
000010 5b b1 9f bd 6f 89 f5 bd e8 c7 83 be 20 40 39 bc
       -0.077975 -0.11989104 -0.25738454 -0.0113067925
000020 ee af ef bd ea bf 15 3e 12 0f d6 bd 09 b0 48 be
       -0.11703478 0.1462399 -0.10452093 -0.19598402
000030 3c fc a1 bb 28 e1 04 be 62 a7 14 bd 55 bb c2 be
       -0.0049433988 -0.12976515 -0.03629244 -0.38033548
000040 b2 87 1f 3d 46 e9 52 bd 15 78 bb 3d 5c a4 e6 3d
       0.03894777 -0.051491998 0.09153763 0.11261818
000050 50 30 91 be 9d e4 92 bd c8 10 87 be e6 40 1e bd
       -0.28357172 -0.07172511 -0.2637999 -0.03863611
000060 cd 34 de bd c7 a3 9b be 49 77 89 be c9 c8 c5 bd
       -0.10849915 -0.3039839 -0.2684882 -0.09657437
000070 e6 ef 2f 3d 38 47 de 3c 98 e9 6f be 8e e0 ae bc
       0.042953394 0.02713357 -0.23428953 -0.02134731

tfeb.5.running_mean f4 [32]
000000 64 2e ad be 5e b9 f9 bf 90 c7 18 3a 55 48 e9 be
       -0.33824456 -1.9509695 0.0005828077 -0.45562997
000010 cf b1 1d 3f a2 94 d7 3e 09 db f8 3d ac c0 87 bf
       0.6159944 0.42105585 0.12151153 -1.0605674
000020 7d 7d f6 bc 79 e7 0a bf b2 56 70 bf 39 b3 3a bf
       -0.030089134 -0.5425945 -0.93882287 -0.7292972
000030 20 df d7 be 63 69 e0 bd 39 73 27 be 1c bc 46 3e
       -0.42162418 -0.10957601 -0.16352548 0.19407696
000040 e0 aa f0 be 9f 27 48 bf 99 a8 d8 bd 38 c7 62 bf
       -0.47005367 -0.78185457 -0.105790325 -0.88585234
000050 0c 88 93 bd c4 b8 40 3c f6 1a 8b bf 0e af 59 bf
       -0.07203683 0.011762802 -1.0867603 -0.8503274
000060 b5 19 9b bf d1 23 e9 be b2 7f 64 be 99 19 67 be
       -1.211722 -0.45535138 -0.22314337 -0.22568358
000070 b1 82 5d 3f cc 67 e1 bd c0 f4 c8 3e 38 82 c6 be
       0.86527544 -0.11006126 0.3924923 -0.38771224

tfeb.5.running_var f4 [32]
000000 a9 19 74 3e 09 4f 58 3f 3b 15 57 33 ba 90 78 3e
       0.23837914 0.844956 5.0077897e-08 0.24273959
000010 d4 4f 09 3e b1 23 29 3e 6f 8d 1d 3e a8 40 77 3e
       0.13409358 0.16517521 0.15385984 0.24145758
000020 18 8d 65 3e 85 3a 9a 3e 0e f2 d3 3e da 10 13 3e
       0.22417104 0.30122772 0.4139561 0.14361897
000030 fc b0 ac 3e cf bb 61 3e 0e ea aa 3e c4 14 e3 3d
       0.33728778 0.220443 0.33381695 0.11087945
000040 0e 02 81 3e 1f 23 78 3e 4f bc 31 3e 1d 1b 7d 3e
       0.2519688 0.24232148 0.1735699 0.24717374
000050 b1 c8 a5 3d 75 8e 86 3e 18 ea 50 3f 48 96 d7 3e
       0.080949195 0.2628056 0.816072 0.42106843
000060 95 36 15 3f 0b 13 03 3e 38 73 12 3f 60 b7 a9 3e
       0.5828641 0.12800233 0.5720706 0.33147717
000070 cc 3d 20 3e ec a2 8b 3e 24 4e 73 3e a8 58 34 3e
       0.15648574 0.27272737 0.23760277 0.17611945

tfeb.8.weight f4 [48, 32, 3, 3]
000000 31 ae 01 3d 6b db a3 bb 73 d3 ae bc ae 1d c5 3c
       0.031660262 -0.005000522 -0.021341061 0.024062004
000010 60 33 7b bc 4e f7 8a bc d6 f6 fc bc a3 fb 22 bd
       -0.015332073 -0.016963627 -0.03087942 -0.03979076
000020 c4 de e5 bd 3c 93 00 3c 0e 17 12 bc 0d 53 fa bd
       -0.1122413 0.007847603 -0.0089166295 -0.12222872
000030 11 53 28 bd c8 f9 94 bd 8a 72 49 be b0 8c 7f bd
       -0.041094843 -0.072742045 -0.196726 -0.06239003
000040 0b a6 2b bd 4e 95 55 be 75 f8 72 b7 4e 07 ed b7
       -0.041906398 -0.20857736 -1.4482172e-05 -2.8256003e-05
000050 1b 90 5d b8 04 b0 76 37 87 27 90 b7 40 6d 63 b8
       -5.2824715e-05 1.4703724e-05 -1.7184544e-05 -5.4222764e-05
000060 17 b3 34 36 23 38 c7 b7 6a e6 18 b8 14 61 19 3d
       2.6926334e-06 -2.374879e-05 -3.6454214e-05 0.037446097
000070 3a e0 8c 3d 67 e5 13 3c 8f a2 4c 3c 11 15 dd 3c
       0.06878705 0.009026862 0.012489929 0.026987584
000080 7a b3 02 3c 01 9d 07 bd a4 0c 33 3d 65 c0 6d bc
       0.007977361 -0.033108715 0.043713227 -0.014511202
000090 e2 43 1b 3c 94 06 43 3b eb 6a 95 bd c3 21 42 bc
       0.009476634 0.002975856 -0.072957836 -0.01184887
0000a0 5d b3 4b bc 68 36 d0 bd 83 fc 91 bd 01 db ce bd
       -0.0124329 -0.10166627 -0.07128241 -0.101003654
0000b0 3b 73 37 be 87 9b f3 3b f2 61 5b bd 65 14 d5 3b
       -0.1791505 0.007434312 -0.053560205 0.0065026754
0000c0 0f e2 02 bd 8c 09 25 3b 9f 12 9e bd d1 9a 22 bd
       -0.031953868 0.0025182692 -0.077183954 -0.039698426
0000d0 46 ea 5f bd 91 90 2f bd 40 3a 94 3d 0d 41 0b b9
       -0.05466678 -0.04286248 0.07237673 -0.00013280306
0000e0 25 e9 3a 3c a2 88 9f bc 5b 1a 61 bc 1d 05 a2 bc
       0.011408125 -0.019474331 -0.013739194 -0.019777829
0000f0 f5 b7 ab 3b 3c 3b 3f bc 53 7e 3c b9 ae 96 5f 3d
       0.0052404352 -0.011671837 -0.00017976137 0.05458706
000100 ab e6 37 bc 3a e4 15 3e e6 e7 9c bd 50 5a 33 bd
       -0.011224429 0.14637843 -0.076614186 -0.0437873
000110 3a 96 34 3b 40 54 90 bc ef d2 e0 3c 6a 03 76 bc
       0.0027555362 -0.017618299 0.027444331 -0.015015462
000120 bf 47 2d bc 5b 62 ac bc dd f4 24 3d 81 1e e2 3c
       -0.010576188 -0.021042993 0.040272582 0.027602436
000130 ac 84 8b ba 87 73 30 3e 80 0d 2b 3d 1c 16 09 bc
       -0.0010644398 0.1723157 0.04176092 -0.008367088
000140 d0 5c 31 3e 03 0a 13 bb 6a 2b c8 bb cd a2 54 bd
       0.17320561 -0.0022436387 -0.006108691 -0.05191307
000150 f3 b6 8a bc 3a 59 02 bd 55 4f ab bd c7 05 c9 bb
       -0.01693294 -0.031823374 -0.08364741 -0.006134722
000160 c7 bb d3 bc 5e 38 cd bc f6 f6 9b 3c e7 e8 06 3b
       -0.025846375 -0.025051292 0.019038659 0.0020585598
000170 05 a2 1b bd 72 ea 32 bc 72 89 53 39 30 1e c9 bd
       -0.03799631 -0.010920154 0.0002017373 -0.09820211
000180 d0 4c 34 bd 14 c9 8e bd 4f 4a c1 bd b4 3b 34 b9
       -0.044018567 -0.06971946 -0.09438001 -0.00017188379
000190 a9 78 fd bc fd 5a a0 3c d1 cc a9 3b 8b 21 3d bd
       -0.030941324 0.019574637 0.0051818867 -0.046174567
0001a0 e9 a1 7c bd a7 be 08 3d 1c 15 e7 bc 66 39 ee 3b
       -0.061677847 0.033384945 -0.028208308 0.007270026
0001b0 24 9b 11 bd 23 67 d7 3c 5d 26 1c 3d 6d bf 4d 3c
       -0.035548344 0.026294297 0.038122524 0.0125578465
0001c0 8c 2e 03 3d 38 8a c4 3d 05 44 d8 3d a5 9c f9 3d
       0.032026812 0.09596676 0.10559849 0.12188081
0001d0 6f 7a 0f 3e c6 ad e3 3b c3 ff e5 bc 5a 0d e4 3c
       0.14011548 0.0069482056 -0.028076058 0.027838398
0001e0 a6 d9 df bc c9 ba 0a 3d 4a 30 76 3d f1 cd 06 bd
       -0.027325463 0.03386954 0.060104646 -0.032911245
0001f0 3a ef 13 bb d7 ab 05 3e fa fd 72 3c fe bf 1b 3c
       -0.002257301 0.13053833 0.014831061 0.009506224
000200 8a 98 30 bb 70 8f 2e 3d c8 62 12 3d 89 1a 55 3d
       -0.002694639 0.04261726 0.035738736 0.05202726
000210 c5 d5 17 3d 60 cd 72 3b 27 28 51 3d 3f 8d 1f 3d
       0.0370691 0.0037048683 0.051063683 0.038953062
000220 59 52 e1 3c 0c 37 46 bd 3a 56 4e 3c b9 de 9d 3b
       0.027505087 -0.04839234 0.0125938 0.0048178104
000230 fc fa 08 be 26 8e b9 bc c4 00 87 3b 5b 7d 5a bd
       -0.13376993 -0.02265079 0.0041199643 -0.053342205
000240 df 60 5d 3c 6d be 09 bd b6 9e 81 bd 81 4e 82 bd
       0.013511865 -0.03362887 -0.063291 -0.0636263
000250 24 1f de bd 52 ed 6d be e5 49 7a bd 41 ce cd bd
       -0.10845783 -0.23235062 -0.061105628 -0.100491054
000260 46 33 f6 bd b0 71 60 3d 04 12 7e 3d 22 9c fe 3d
       -0.120214984 0.05479592 0.0620289 0.12432124
000270 a2 e9 6f bd 10 66 66 bd 3f ea 18 bd 59 3f b7 bd
       -0.05857242 -0.056249678 -0.03733277 -0.089476295
000280 1b 1d 82 bd d0 23 0d bd 62 e3 b2 bb 61 36 9c bc
       -0.06353208 -0.03445798 -0.005459235 -0.019068899
000290 b2 36 a9 bd 30 34 0d bd 88 c7 18 3d b8 5c 3c 3b
       -0.082623854 -0.034473598 0.037299663 0.0028741788
0002a0 77 34 4c bc 4a 59 20 bb 99 c5 9e 3c 97 44 d3 3c
       -0.0124636805 -0.0024467283 0.019381331 0.025789542
0002b0 a3 8f fe bc cc 66 98 bd ea 79 09 bd 5a 90 89 bd
       -0.03107435 -0.07441482 -0.033563532 -0.06716986
0002c0 38 94 c1 bd 8f f3 e1 bc cb 26 29 bd 72 5d 57 bd
       -0.094520986 -0.027581958 -0.04129676 -0.05257935
0002d0 74 17 f3 3c 9e 55 d3 3c 31 e4 9f bd d8 da 1a 3c
       0.02967427 0.025797661 -0.07807196 0.0094515905
0002e0 55 4d 26 3c b0 cc 10 be 71 e2 51 3d bd 4a 7e 3d
       0.010150273 -0.14140582 0.051241342 0.062082995
0002f0 2f 38 ff bc 04 a0 27 3d b8 dc 0b 3d a0 7e e8 bc
       -0.03115472 0.040924087 0.03414604 -0.028380692
000300 96 9c 43 bd 7d 09 1c bd f4 a0 bd bc 92 b2 2d bd
       -0.047756754 -0.038094986 -0.023148037 -0.042406626
000310 40 a3 35 bd 7e 5a 79 bc c0 3a 15 3d 5a ac 90 3d
       -0.04434514 -0.015219329 0.03643298 0.070641235
000320 95 08 c6 bd 81 fc 27 bc 50 bd e0 3c b1 31 37 be
       -0.09669606 -0.010253073 0.027434021 -0.1789005
000330 14 c7 2c 3d c5 c0 41 3d 6e 91 05 be 10 a4 1d 3a
       0.042182043 0.04730298 -0.13043758 0.0006013522
000340 dc 54 8d 3c 23 52 4c bc aa b9 83 bd 7d e3 5a bc
       0.017252378 -0.012470755 -0.06431897 -0.0133599015
000350 cd ae eb bc e7 a1 a6 bd 80 22 af bc 27 f6 81 bd
       -0.028769875 -0.08136349 -0.021378756 -0.06345778
000360 49 23 e5 3c fc 40 06 3c 43 89 ad bd 90 51 7a bd
       0.027970927 0.008194204 -0.08473446 -0.06111294
000370 47 fb 8a bd c0 32 01 be c3 78 00 3c 25 fb 53 3c
       -0.067862086 -0.12617016 0.007841292 0.0129382955
000380 c7 5c 7b 3c 7d fb 15 bd ef e3 0b bc df ac 6d bd
       0.015341944 -0.03661679 -0.00853823 -0.05802619
000390 26 b3 83 3b 63 12 c2 3c 1a 2a 39 b8 2b 80 8c bb
       0.004019159 0.023690408 -4.4146647e-05 -0.0042877397
0003a0 4d 8d 11 bc 6a 3b fc bc b4 04 15 3c 92 43 ce bc
       -0.008883786 -0.03079005 0.00909536 -0.025178704
0003b0 17 50 1a be 01 ae 26 3c 27 40 1d bd 5e 03 3b be
       -0.15069614 0.010173322 -0.03839126 -0.18263003
0003c0 d3 39 9a 3d 85 1a 4b 3d 99 d8 a7 bd 5e a1 30 bd
       0.0753056 0.049585838 -0.081956096 -0.04312264
0003d0 8b 8b 70 bd 94 2e 0c 3d 1b 4a 46 bd 7d f0 d9 bc
       -0.05872683 0.034224108 -0.048410516 -0.026603932
0003e0 e2 d4 03 3d 79 e4 a1 bc f0 f7 59 bd 34 f8 e1 3b
       0.032185443 -0.019762265 -0.053214967 0.006896043
0003f0 93 9c b7 3c 7d 08 e7 3b 3c ba a1 bc ce 27 23 3c
       0.022413528 0.0070505724 -0.019742124 0.009958221

tfeb.9.weight f4 [48]
000000 a7 17 f2 3e a7 df d8 3e 98 09 ad 3e 3f f5 04 3f
       0.4728367 0.42358133 0.33796382 0.51936716
000010 02 8e d1 3e 7b b5 db 3e f5 b0 af 3e c8 d8 e2 3e
       0.40928656 0.42911896 0.34314695 0.44306016
000020 d0 41 a1 3e e8 6b 92 3e 85 e1 dd 3e 7c 1b 13 3f
       0.31495523 0.2859795 0.4333612 0.5746381
000030 8e 3a a8 3e e3 5c ce 3e be 13 ba 3e d4 b0 d2 3e
       0.32857174 0.40305242 0.36343187 0.41150534
000040 c8 43 f2 3e cf 86 c4 3e 13 6b f4 3e 50 b5 a9 3e
       0.47317338 0.383841 0.4773794 0.33146143
000050 b3 0a bd 3e 37 74 ba 3e 61 8a c8 3e 09 29 83 3e
       0.36922225 0.3641679 0.39168075 0.25617245
000060 4f e2 d9 3e d4 00 13 3f d6 39 14 3f db 82 bd 3e
       0.42555472 0.5742314 0.5790075 0.37013897
000070 54 ad f4 3e 74 93 df 3e 1c 5e e6 3e a5 47 c4 3e
       0.4778849 0.43667185 0.44993675 0.3833591
000080 21 3e 82 3e 3e 89 b6 3e e9 97 fc 3e 46 b7 cb 3e
       0.25438026 0.35651582 0.49334648 0.39788264
000090 ce 62 ab 3e c6 b2 c0 3e 39 bb ae 3e 2e ec 75 3e
       0.3347382 0.37636393 0.34127215 0.24015877
0000a0 6b b0 dc 3e d5 03 c6 3e 20 77 8f 3e a7 e6 bf 3e
       0.43103346 0.386748 0.28020573 0.3748066
0000b0 07 bb 98 3e ec aa 06 3f 6a 18 13 3f c4 b1 1e 3f
       0.2983019 0.52604556 0.5745913 0.6199

tfeb.9.bias f4 [48]
000000 22 d3 92 be 3f 98 ee bd 3e 49 0a be 07 1a cd be
       -0.28676707 -0.116501324 -0.13504502 -0.4005892
000010 88 74 53 be a4 0b 82 be 67 b3 87 be 8a 96 45 be
       -0.20649922 -0.25399506 -0.2650406 -0.19295707
000020 76 f8 4f be 16 6e f7 3d 0e bc 77 be 3b 7d 2d be
       -0.20309624 0.12081544 -0.24192831 -0.16942303
000030 a7 49 b5 be 14 f3 87 be 96 d7 c6 be ad 38 9f bd
       -0.35407755 -0.2655264 -0.38836354 -0.07774482
000040 c6 8c 0d be a0 65 f7 bd 25 dd b5 be d2 d9 80 bd
       -0.13823232 -0.1207993 -0.35520282 -0.06291546
000050 fc 3c d6 bd 2b 10 b5 bd 7f f7 c7 bd 02 fc e5 bb
       -0.104608506 -0.088409744 -0.09764003 -0.007018567
000060 31 22 b7 be a4 a5 c4 be 01 4a 94 be 5d 20 05 be
       -0.35768273 -0.38407624 -0.2896271 -0.13000627
000070 1d cc 42 be 2c 30 81 be d7 07 8e be 1b b1 27 3c
       -0.19023176 -0.25232065 -0.27740356 0.010235096
000080 70 fa 7d be b7 dd 1c be e8 8f 16 be df e4 70 be
       -0.24802566 -0.15318953 -0.14703333 -0.23524807
000090 fd 6c bc bd 9a 40 f7 bd a6 5e 36 be ba eb 59 bd
       -0.09200475 -0.12072869 -0.17809543 -0.053203322
0000a0 3a d5 a3 3b b7 47 b6 bd 9c 2a 83 bc dc ea 0c be
       0.004999784 -0.08900397 -0.016011529 -0.13761467
0000b0 f9 6d 42 3d 1b 45 3b be 95 35 fe bd ea 9c 54 be
       0.04746816 -0.1828808 -0.12412564 -0.20762983

tfeb.9.running_mean f4 [48]
000000 c5 de 24 bf 40 94 43 bf f7 72 8c be 61 26 74 be
       -0.6440242 -0.76398087 -0.2743146 -0.23842765
000010 50 41 0c bf 23 b5 9a be 55 81 7e be b1 54 91 be
       -0.5478716 -0.3021632 -0.24854024 -0.28384927
000020 ed 31 03 be 87 91 59 be 6c 72 87 be 39 fd 8c bf
       -0.12812014 -0.2124692 -0.26454484 -1.1014777
000030 03 fe b6 3e dd 96 98 be 6f 83 32 3d c3 86 8f be
       0.3574067 -0.298026 0.043582376 -0.28032503
000040 7d a2 ba be ad 7c 01 bf 82 a8 94 be 71 f1 09 be
       -0.36452094 -0.50580865 -0.2903481 -0.13471009
000050 19 16 9b be a6 fa 8d be bd 8a bf be 7b 5f ce 3d
       -0.30290297 -0.27730292 -0.37410536 0.10076805
000060 67 04 fd 3e f3 aa f2 be af 24 d5 be 26 3c 87 be
       0.4941742 -0.4739605 -0.4162955 -0.26413077
000070 ae 2e 0b bf 89 6f 96 be 9d 49 9c be 4f d5 5f be
       -0.543681 -0.2938197 -0.30524912 -0.21858715
000080 2e 5d 34 be 32 5c a7 be f4 38 f5 be 7a 07 95 be
       -0.1761367 -0.32687527 -0.47895014 -0.29107267
000090 ce 75 b1 be 08 26 61 be f4 dc 88 be d6 fc 16 bf
       -0.3466019 -0.21987164 -0.26731074 -0.5897955
0000a0 1b ea 29 bf aa b1 19 bf 62 52 40 be 26 63 11 be
       -0.6637284 -0.6003672 -0.18781427 -0.14197978
0000b0 52 2c e7 be 3a 7d 4c bf d8 7a 45 bf 34 83 0b bf
       -0.45151 -0.7987858 -0.7714057 -0.54497075

tfeb.9.running_var f4 [48]
000000 64 6f 90 3d 02 d4 c3 3d 62 27 e0 3d 9e 66 c8 3d
       0.07052496 0.09561922 0.10945012 0.09785198
000010 37 d6 aa 3d 39 0e a9 3d dc 3b 91 3d 52 12 c5 3d
       0.083416395 0.08254666 0.070914954 0.09622635
000020 b1 56 86 3d e9 9a fb 3d 68 10 f2 3d e0 dc 88 3e
       0.06559504 0.12285406 0.118195355 0.26731014
000030 c0 ba 8e 3d 71 9f 81 3d c6 68 27 3d 86 80 c9 3d
       0.069692135 0.06329239 0.040871404 0.09838967
000040 9f af f3 3d 7c 52 af 3d 9b cf d6 3d db f8 de 3d
       0.118987314 0.085606545 0.10488816 0.10887309
000050 2e f8 ef 3d 74 47 d0 3d ad 79 b3 3d d2 ce 8c 3d
       0.117172584 0.101698786 0.08763442 0.06875385
000060 e5 b0 9c 3d c8 94 fa 3d 71 ae 29 3e 72 e6 a9 3d
       0.076509275 0.12235409 0.1657045 0.08295907
000070 d1 27 e9 3d e3 1b da 3d de ce 13 3e 56 b7 23 3e
       0.113845475 0.1064985 0.14434382 0.15987906
000080 ca 91 61 3d 28 91 ab 3d ae a6 13 3e c4 fe 9f 3d
       0.055070676 0.08377296 0.14419052 0.078122646
000090 54 c5 c6 3d 38 ee 9f 3d fe 66 dc 3d 18 ca b8 3d
       0.09705606 0.078091085 0.10761832 0.09022921
0000a0 86 e8 1a 3e 9b 5d 04 3e 0b 7b 02 3e 35 ce 10 3e
       0.15127763 0.12926333 0.1274225 0.14141162
0000b0 45 4b f4 3d 05 6f 0c 3e c4 43 73 3e 85 05 36 3e
       0.11928419 0.13714226 0.2375632 0.17775543
