torch/trained_models/k_16_c_2_esc10_mixup_2_oldlr_fold1.pt (torch, 123154 bytes, 31 tensors)

sfeb.1.weight f4 [8]
0.19447038 0.19523999 0.19515441 2.1207561 0.19520958 0.19617057 0.19513772 0.19515824
00000000: 3e23 473e feec 473e 8fd6 473e 78ba 0740
00000010: 05e5 473e f0e0 483e 2fd2 473e 90d7 473e

sfeb.1.bias f4 [8]
-0.1321349 -0.013290181 -0.017730707 0.17279264 -0.01939783 -0.056432363 -0.022326926 -0.013969955
00000000: 5f4e 07be 0fbf 59bc fd3f 91bc 8ef0 303e
00000010: 33e8 9ebc 9f25 67bd f5e6 b6bc 3de2 64bc

sfeb.1.running_mean f4 [8]
-2.1896732e-10 -6.496162e-11 -8.8375994e-11 -8.4132606e-10 1.5934538e-11 -3.9033793e-10 -8.3178256e-11 3.4653714e-11
00000000: d2c1 70af 24da 8eae 4357 c2ae 0f43 67b0
00000010: 6429 8c2d 2e97 d6af 32e9 b6ae 9d68 182e

sfeb.1.running_var f4 [8]
1.4196721e-12 1.1714471e-13 3.7065533e-13 3.932325e-11 4.7338733e-14 3.8570865e-12 5.471517e-13 3.016285e-13
00000000: 14cd c72b aae4 032a 10a9 d02a 0bf2 2c2e
00000010: d831 5529 8cb5 872c 6f02 1a2b 3fcd a92a

sfeb.3.weight f4 [64, 8, 1, 5]
-0.024972605 -0.0679284 -0.04205208 -0.019066673 -0.0003877546 0.001947503 -0.015441005 0.006874008
-0.050489254 0.0792451 -0.09131944 -0.028449541 0.049873207 -0.032908693 -0.06400478 -0.08290499
-0.14971952 -0.012543762 0.1670894 0.08939629 -0.016784774 0.028740808 0.033246417 -0.02815787
-0.15847808 -0.09543655 0.011546792 -0.024415366 0.063479535 -0.012869164 -0.020527383 -0.0654352
0.10024355 0.07199583 0.057521634 0.032984912 0.054444604 0.0344021 0.06762648 -0.026571808
-0.117986254 -0.026732825 0.051840484 -0.021075219 0.098203614 0.051141664 0.038377285 -0.03403646
-0.0034183138 -0.016259717 0.015875159 0.054818872 -0.005345884 0.0044042426 0.020548262 -0.040206503
0.22880541 -0.36001828 0.26007256 -0.068838134 0.0025511635 0.034402687 -0.04739442 0.04591449
-0.016991794 0.06440455 -0.007478997 -0.09118397 0.03470775 0.02159874 0.026327275 -0.022807337
0.045220252 0.023202034 -0.013747762 0.0009238296 -0.0023811879 -0.03542628 -0.01139357 -0.030228522
0.06775755 -0.1007765 -0.09585753 0.013957234 0.033696707 -0.007273678 -0.0005150406 -0.004924911
-0.02984861 -0.054623876 -0.0033203412 0.016537629 0.027065374 -0.00392613 0.052786157 0.028289478
0.23117256 0.037635174 -0.21645115 -0.077458605 0.06673309 0.014746367 0.008359106 0.007136813
0.029287329 -0.017872034 -0.023131967 0.011058466 -0.008681636 0.026622301 -0.062805064 0.0725614
0.015533701 -0.07909116 0.020278793 -0.023920126 -0.046251796 0.00759861 0.016686352 -0.008543288
-0.0066059744 0.02735014 -0.02713635 -0.047468744 -0.057852555 0.016464742 -0.0025499116 -0.06445166
-0.043037698 0.06488313 0.006419844 -0.05962464 -0.029281482 0.041553434 0.06437048 -0.14032228
-0.087459415 0.057579815 0.15681066 0.0172507 0.01770757 0.023346929 -0.0030044029 -0.026868628
0.0117540825 -0.0013764127 -0.05568294 -0.027815921 -0.0332402 -0.020385839 -0.052497886 -0.10732363
-0.021384476 -0.06955681 0.041384794 -0.01862623 -0.06471779 -0.019669242 0.03878014 -0.05030895
0.0013181551 -0.022669444 -0.007206043 -0.012081262 -0.010643514 -0.086771235 -0.05527153 -0.013408319
0.036655907 -0.020465236 0.009890597 0.014923006 0.025897844 0.08369436 -0.020892153 0.037507337
0.015124056 -0.20930359 0.3247983 -0.14011677 0.006385146 0.049574103 -0.011735699 -0.039835963
0.02997303 0.06808575 0.04406441 -0.050221622 -0.034588326 -0.01404837 0.023825591 -0.05531205
0.025234673 -0.000913495 -0.006024988 0.0043483553 -0.007102924 0.008287815 -0.05487347 0.0112252105
-0.046373777 -0.02760662 -0.02746139 -0.07318509 0.029400127 0.086811006 0.03560525 -0.064083286
0.072596915 -0.063482 -0.010093847 0.02423112 0.01416829 0.06520999 0.02554876 0.2134599
-0.001989938 0.012466061 -0.17281526 -0.033968993 0.021173362 -0.045202382 0.0070772255 -0.015081934
0.033690248 0.0005842168 0.029516943 -0.005862272 0.0040596263 0.034512423 -0.09431533 -0.024850955
-0.08738839 -0.053698476 0.038294047 -0.09131028 0.06956653 0.11191191 -0.0055371467 0.010104766
0.034633957 -0.013435449 0.02940485 0.11685483 -0.03802885 0.0015676417 0.04795355 -0.01224449
0.023154123 0.023191543 -0.06923975 0.10567614 0.020789456 0.02595958 0.012163745 0.011888666
00000000: 5993 ccbc 0c1e 8bbd cd3e 2cbd b631 9cbc
00000010: 8b4b cbb9 5b43 ff3a 45fc 7cbc 5c3f e13b
00000020: d2cd 4ebd 414b a23d b005 bbbd 030f e9bc
00000030: d947 4c3d 44cb 06bd f014 83bd 17ca a9bd
00000040: 1350 19be 5a84 4dbc 7c19 2b3e 6715 b73d
00000050: 3980 89bc d871 eb3c 652d 083d 55ab e6bc
00000060: 1448 22be 3d74 c3bd c22e 3d3c bc02 c8bc
00000070: 8f01 823d 30d9 52bc 0b29 a8bc e402 86bd
00000080: 7e4c cd3d 8d72 933d ce9b 6b3d 301b 073d
00000090: 4e01 5f3d 37e9 0c3d c07f 8a3d 1fad d9bc
000000a0: c7a2 f1bd ccfe dabc b056 543d f0a5 acbc
000000b0: fa1e c93d ec79 513d 8031 1d3d d169 0bbd
000000c0: ca05 60bb 1933 85bc 9f0c 823c c189 603d
000000d0: 862c afbb 7751 903b d454 a83c 93af 24bd
000000e0: f74b 6a3e 5154 b8be 3b28 853e 02fb 8cbd
000000f0: 6c31 273b d5e9 0c3d a720 42bd d510 3c3d
00000100: 6032 8bbc 88e6 833d 6012 f5bb a9be babd
00000110: b729 0e3d d7ef b03c 4cac d73c 74d6 babc
00000120: df38 393d 3112 be3c 4b3e 61bc 282d 723a
00000130: b40d 1cbb 261b 11bd 19ac 3abc cea1 f7bc
00000140: 78c4 8a3d e963 cebd f450 c4bd e2ac 643c
00000150: 8f05 0a3d 0958 eebb ca03 07ba 2661 a1bb
00000160: 1285 f4bc 49bd 5fbd 159a 59bb ec79 873c
00000170: 34b8 dd3c c4a6 80bb 4c36 583d 56bf e73c
00000180: 80b8 6c3e 5727 1a3d 5fa5 5dbe 9ea2 9ebd
00000190: 5cab 883d bf9a 713c a2f4 083c eddb e93b
000001a0: fbeb ef3c 5f68 92bc 407f bdbc 912e 353c
000001b0: 6c3d 0ebc 0317 da3c f19f 80bd 129b 943d
000001c0: 1081 7e3c 8cfa a1bd b61f a63c 24f4 c3bc
000001d0: 8672 3dbd c3fd f83b d1b1 883c 26f9 0bbc
000001e0: ee76 d8bb 670d e03c 0d4d debc 966e 42bd
000001f0: cdf6 6cbd 11e1 863c 6b1c 27bb 3bff 83bd
00000200: 4c48 30bd 72e1 843d 8e5d d23b f738 74bd
00000210: b8df efbc ef33 2a3d acd4 833d a5b0 0fbe
00000220: ec1d b3bd d0d8 6b3d f992 203e 5751 8d3c
00000230: 770f 913c 0f42 bf3c 84e5 44bb 991b dcbc
00000240: 3294 403c bf68 b4ba cb13 64bd 37de e3bc
00000250: e026 08bd 3400 a7bc 0608 57bd 7ecc dbbd
00000260: 7f2e afbc cd73 8ebd 1a83 293d 0996 98bc
00000270: c38a 84bd 6421 a1bc edd7 1e3d c210 4ebd
00000280: f2c5 ac3a 45b5 b9bc ac20 ecbb 7cf0 45bc
00000290: 2262 2ebc 1eb5 b1bd 6664 62bd 91ae 5bbc
000002a0: 8124 163d b6a6 a7bc 2c0c 223c a07f 743c
000002b0: b727 d43c f367 ab3d 0526 abbc 4ba1 193d
000002c0: e3ca 773c ae53 56be f64b a63e c57a 0fbe
000002d0: 7d3a d13b 370e 4b3d 1747 40bc 092b 23bd
000002e0: 008a f53c 8b70 8b3d e27c 343d 30b5 4dbd
000002f0: 7dac 0dbd 222b 66bc e32d c33c e38e 62bd
00000300: f2b8 ce3c 9d77 6fba 436d c5bb a67c 8e3b
00000310: a5bf e8bb 9ec9 073c 01c3 60bd f2e9 373c
00000320: 6ef2 3dbd 4727 e2bc b5f6 e0bc 11e2 95bd
00000330: 89d8 f03c f8c9 b13d d0d6 113d 193e 83bd
00000340: b1ad 943d da02 82bd aa60 25bc 5780 c63c
00000350: 1e22 683c d18c 853d a24b d13c 3b95 5a3e
00000360: 9f69 02bb 733e 4c3c 7cf6 30be 1223 0bbd
00000370: c273 ad3c 2226 39bd 12e8 e73b 371a 77bc
00000380: c9fe 093d 2026 193a 84cd f13c 4d18 c0bb
00000390: 9d06 853b e65c 0d3d 6528 c1bd 3b94 cbbc
000003a0: aff8 b2bd eff2 5bbd 38da 1c3d e200 bbbd
000003b0: e678 8e3d 1232 e53d f470 b5bb 768e 253c
000003c0: 56dc 0d3d 5c20 5cbc 71e2 f03c 9651 ef3d
000003d0: 24c4 1bbd 5479 cd3a f16a 443d 1d9d 48bc
000003e0: b7ad bd3c 31fc bd3c 92cd 8dbd bb6c d83d
000003f0: a64e aa3c 2fa9 d43c 724a 473c aec8 423c

sfeb.4.weight f4 [64]
0.29788274 0.30983788 0.2735729 0.2045405 0.1777828 0.23493508 0.061482508 0.055544976
0.13286106 0.18036553 0.6334547 0.7553951 0.7513986 0.47951952 0.637109 0.53075147
0.5275981 0.35416502 0.6974815 0.24154803 1.1214572 1.0548072 1.309938 0.4976672
0.86887735 0.7835796 0.8542515 0.905977 0.88273907 0.9441993 0.31111938 1.0182798
0.98713356 0.3521366 0.51790816 0.1661791 0.45480877 0.48988542 0.18728429 0.26384917
0.3425804 0.24636978 0.035245106 0.10871077 0.078213125 0.7083637 0.6596139 0.56490517
0.7534076 1.2996432 0.86153966 0.5338722 0.73915726 1.1872959 0.76418203 0.9508407
1.5331924 1.2793617 0.2950053 0.91910076 0.85148853 0.6310725 0.08736671 0.28879124
00000000: 1684 983e 12a3 9e3e bf11 8c3e 1173 513e
00000010: b20c 363e d292 703e 15d5 7b3d 2183 633d
00000020: bb0c 083e beb1 383e 162a 223f 9361 413f
00000030: a95b 403f 9583 f53e 9319 233f 54df 073f
00000040: ab10 073f 1e55 b53e 268e 323f 5e58 773e
00000050: e98b 8f3f ec03 873f 0cac a73f 3cce fe3e
00000060: bf6e 5e3f ac98 483f 3ab0 5a3f 1cee 673f
00000070: 30fb 613f 0cb7 713f 0a4b 9f3e fe56 823f
00000080: c9b4 7c3f 404b b43e a195 043f db2a 2a3e
00000090: b2dc e83e 43d2 fa3e 74c7 3f3e 3d17 873e
000000a0: b366 af3e 5c48 7c3e 2c5d 103d c1a3 de3d
000000b0: 342e a03d 5357 353f 75dc 283f a09d 103f
000000c0: 52df 403f b55a a63f dd8d 5c3f d9ab 083f
000000d0: 6939 3d3f 50f9 973f 6fa1 433f 4c6a 733f
000000e0: a63f c43f 20c2 a33f ef0a 973e 304a 6b3f
000000f0: 27fb 593f f88d 213f 51ed b23d 72dc 933e

sfeb.4.bias f4 [64]
-0.0009779867 -0.09192094 -0.06568522 0.109728605 0.06745511 -0.029947886 -0.09959639 -0.06822772
-0.10018837 -0.07797673 0.1143783 0.07233326 0.09775404 0.015580626 0.10596891 0.029743973
0.015897037 0.068329975 0.021703249 -0.0013834322 0.049576238 0.17711678 0.059082262 0.16743486
0.16477466 0.04960331 0.027005423 0.017757729 0.07856254 0.07212571 0.0017207427 0.14253354
0.035022497 0.15417847 0.252956 -0.026428353 0.06887338 0.14125957 0.06218662 -0.032343294
-0.026378278 0.021233037 -0.1625593 -0.1363583 0.0536197 0.06559621 0.01736152 0.030079603
0.2195836 0.11951996 0.20026627 0.017234653 0.09112406 0.13365524 0.07441633 0.021638663
0.043116886 0.074424125 0.05246652 0.002476883 0.094442084 0.17204212 -0.05115411 0.15273172
00000000: ca2f 80ba 0c41 bcbd f985 86bd 64b9 e03d
00000010: e825 8a3d 4555 f5bc 31f9 cbbd faba 8bbd
00000020: 8f2f cdbd 44b2 9fbd 2c3f ea3d 7623 943d
00000030: 4533 c83d e245 7f3c 3a06 d93d a2a9 f33c
00000040: 813a 823c 96f0 8b3d 03cb b13c 4854 b5ba
00000050: 7410 4b3d 1a5e 353e 3e00 723d 0b74 2b3e
00000060: b0ba 283e d72c 4b3d 7a3a dd3c a878 913c
00000070: 66e5 a03d a5b6 933d 8b8a e13a 50f4 113e
00000080: c073 0f3d f6e0 1d3e 7383 813e 4680 d8bc
00000090: 7d0d 8d3d 59a6 103e 66b7 7e3d 677a 04bd
000000a0: 4217 d8bc e8f0 ad3c f275 26be 83a1 0bbe
000000b0: 55a0 5b3d 4e57 863d bf39 8e3c 8069 f63c
000000c0: 86da 603e e1c6 f43d 9a12 4d3e b02f 8d3c
000000d0: 409f ba3d ebdc 083e 9767 983d 9143 b13c
000000e0: 559b 303d ad6b 983d 22e7 563d 3353 223b
000000f0: da6a c13d cf2b 303e f986 51bd b465 1c3e

sfeb.4.running_mean f4 [64]
0.001963145 0.003451945 0.00055223133 0.00070996076 0.0045795655 0.0030124318 -0.0033783203 -0.0010248927
-0.00022583944 -0.0023102576 0.014678463 0.0044677933 -0.008441609 0.011222496 -0.0073738936 0.0026496423
0.0075354795 -0.0038254908 -0.0013275483 0.01706242 -0.0050672702 0.009927056 -0.003429519 0.0041413154
-0.00072048773 0.0010794352 -0.0035730067 0.01954639 -0.20144585 0.22017327 0.0010587149 -0.17927662
0.0017522292 -0.14759575 0.10489324 -0.029610267 -0.005829101 -0.0965432 0.0010023006 -0.029998492
0.11677277 0.08829752 -0.020439677 -0.008220481 -0.04041906 -0.0038697491 -0.013784887 0.0044998005
-0.008124024 0.001085397 0.0050729266 0.0015236321 -0.004732278 -0.1507159 0.0013624558 -0.0065649655
0.27803674 -0.25419608 -0.046668936 0.016149217 -0.14071575 -0.011356568 -0.0070783873 0.07672028
00000000: 1ca8 003b 073a 623b 9ec3 103a a91c 3a3a
00000010: 2e10 963b 386c 453b cf66 5dbb b155 86ba
00000020: 50cf 6cb9 b167 17bb f07d 703c 9166 923b
00000030: ad4e 0abc 8fde 373c b4a0 f1bb 9fa5 2d3b
00000040: 2fec f63b 16b5 7abb 2101 aeba 7dc6 8b3c
00000050: 580b a6bb 17a5 223c c8c1 60bb dfb3 873b
00000060: 1ddf 3cba d67b 8d3a 1b29 6abb c01f a03c
00000070: d247 4ebe 1a75 613e 94c4 8a3a 4a94 37be
00000080: 0eab e53a 5723 17be 44d2 d63d 3b91 f2bc
00000090: 0b02 bfbb 71b8 c5bd a15f 833a 66bf f5bc
000000a0: 9026 ef3d 55d5 b43d 1c71 a7bc 32af 06bc
000000b0: 758e 25bd 9e9b 7dbb 02da 61bc 1073 933b
000000c0: a01a 05bc e143 8e3a cb3a a63b 9cb4 c73a
000000d0: 3a11 9bbb 4555 1abe 6e94 b23a ec1e d7bb
000000e0: d55a 8e3e fd25 82be ed27 3fbd 5d4b 843c
000000f0: ca17 10be e610 3abc d1f1 e7bb 861f 9d3d

sfeb.4.running_var f4 [64]
1.2801529e-06 7.570909e-07 1.63199e-06 1.0046142e-06 6.079389e-07 1.220827e-06 8.384429e-08 5.797988e-08
2.390847e-10 1.4575238e-06 2.724692e-06 3.7265809e-06 3.2322378e-06 1.5789477e-06 5.7600378e-06 3.4023653e-06
2.4136912e-06 1.2180075e-06 3.0049512e-06 1.3703306e-06 3.7740533e-06 5.993135e-06 5.695708e-06 3.2673363e-06
3.1317702e-06 3.7752573e-06 2.3300026e-06 3.8755634e-06 1.247552e-05 1.6412516e-05 1.5346275e-06 1.13228325e-05
7.6116266e-06 6.6658317e-06 5.136497e-06 6.3412597e-07 1.9588579e-06 2.81734e-06 5.50553e-07 1.9507736e-06
4.1581625e-06 2.6568746e-06 3.4424932e-07 4.5238758e-07 4.948761e-07 4.053021e-06 4.6944374e-06 2.2757793e-06
4.6046516e-06 4.5515985e-06 4.2878023e-06 1.700786e-06 5.3181693e-06 8.1103e-06 2.4891199e-06 7.3330903e-06
2.497227e-05 2.220058e-05 2.400711e-06 6.001846e-06 6.0118614e-06 4.69668e-06 5.139793e-07 1.7509384e-06
00000000: b8d1 ab35 e43a 4b35 c00a db35 48d6 8635
00000010: 3e31 2335 4cdb a335 e30d b433 8d05 7933
00000020: 2e70 832f 23a0 c335 dad9 3636 2c16 7a36
00000030: 6ce9 5836 3bec d335 5946 c136 3154 6436
00000040: e6fa 2136 6b7a a335 aba8 4936 33ec b735
00000050: be45 7d36 a318 c936 c21d bf36 6944 5b36
00000060: 672b 5236 6d5a 7d36 245d 1c36 d60a 8236
00000070: f34d 5137 9cad 8937 66f9 cd35 32f7 3d37
00000080: 6067 ff36 0fab df36 2c5a ac36 ce38 2a35
00000090: ec74 0336 8811 3d36 b7c9 1335 09ea 0236
000000a0: 5886 8b36 c24c 3236 44d1 b834 addf f234
000000b0: a0d7 0435 2fff 8736 e984 9d36 97b9 1836
000000c0: a881 9a36 efb9 9836 f1df 8f36 9046 e435
000000d0: ba72 b236 7911 0837 c10a 2736 c40e f636
000000e0: 8b7b d137 623b ba37 e71b 2136 7763 c936
000000f0: 7fb9 c936 2d98 9d36 63f8 0935 c901 eb35

tfeb.0.weight f4 [32, 1, 3, 3]
-0.6007981 -0.7060664 -0.45661998 0.27092987 0.51045936 0.42812976 -0.21915488 -0.32974222
-0.24469456 -0.12398934 -0.86229897 0.35905936 0.5702494 -0.07427098 0.38516235 -0.51562655
-0.69583035 0.06375541 -0.6343792 -0.49888214 0.9397664 -0.31402913 -0.23898475 0.5028701
-0.5784347 -0.46917218 0.6281687 0.58209467 0.07153493 -0.45148942 -0.44859695 -0.2668098
-0.39374068 0.48971426 0.03991505 -0.4671561 0.32581133 -0.42068723 -0.5493276 0.05505628
0.1654109 -0.050251115 0.35169506 -0.302401 -0.4133513 -0.17317843 0.23845443 -0.20347331
-1.0154124 1.5853262 -1.0206183 -0.09604962 0.066848904 -0.122993335 -0.33408552 -0.05141225
0.054241464 -0.071008615 -0.23869058 -0.08059758 -0.073407665 -0.104567245 -0.0019627428 -0.055466186
0.104507536 -0.039765265 -0.026643455 0.20029294 -0.039130032 0.037636917 0.05638108 0.06031288
0.42149135 0.068587504 -0.37128857 0.35829148 0.22117908 -0.64501876 -0.17736879 -0.1099348
-0.41847676 0.11138803 -0.047077227 0.10280973 0.104707666 0.19093534 -0.08741292 0.19906513
-0.08978146 -0.05805741 0.00974906 0.048584618 0.2438249 0.029795643 -0.12778805 0.34981245
-0.27089107 -0.3853951 -0.42954296 -0.44527936 0.046172716 0.44625685 -0.50856906 -0.0022424634
0.6498144 -0.48225865 -0.06908227 0.35202518 -0.570802 0.24794792 -0.03497917 -0.39923292
0.1299508 -0.13564073 -0.2968722 0.16900168 -0.025522387 0.17723404 0.0069624013 0.22145022
-0.3844602 -0.3572578 -0.22172019 0.067077555 -0.044877574 0.23093376 0.39057413 -0.6487844
0.22393894 -0.58822477 0.945431 -0.72327673 -0.2833818 0.46006882 -0.4347494 0.6007179
-0.08992654 -0.43959638 0.4043645 0.03148461 -0.36246073 0.19963598 -0.039292343 -0.24659202
0.18915649 0.112233005 -0.41671297 -0.27128196 -0.2506584 -0.5707914 0.4891697 0.4047254
-0.14247991 0.023920285 0.28199002 -0.17522351 0.21773042 0.09394325 -0.20846906 0.27521664
-0.097980775 -0.08593415 -0.14729674 0.044752933 0.17169152 -0.39722645 -0.4965682 -0.48155943
0.080710866 0.027083563 0.3369879 0.3866353 -0.16755576 0.070100114 0.45624396 -0.27239794
-0.5040776 -0.0027752705 -0.2537636 -0.41313496 -0.49466327 -0.38867316 -0.42462957 -0.35305962
0.121323414 0.123527706 -0.048057012 0.30502176 0.43874642 0.23790175 -0.6484483 -0.2561332
0.1849466 -0.3947226 0.17775592 0.25253367 -0.43485928 0.17893751 -0.23598921 -0.37225387
-0.32034194 0.022647258 -0.0073172916 -0.041444674 -0.077711575 -0.15395997 -0.12584904 0.024402589
-0.19295613 -0.034483194 -0.30274105 0.0023360942 -0.093576804 -0.028757194 -0.050108865 -0.111134596
0.42725712 -0.07228894 -0.71928054 0.61015695 -0.07721073 -0.55205977 1.0014366 -0.47978523
-0.87621677 0.28204817 -0.001491806 -0.08382898 0.29574218 -0.055256538 -0.26795807 0.0033674822
-0.088346004 -0.13352476 0.085943595 -0.25652146 0.032285202 0.27574944 -0.46099302 -0.20989846
0.549402 -0.7696144 0.3368491 -0.015441647 0.07685578 0.117949344 -0.21724333 -0.2993531
-0.14898814 -0.25784776 -0.38225994 -0.11851392 -0.22106598 -0.63764864 0.6665993 0.037058506
00000000: e7cd 19bf c5c0 34bf 18ca e9be 52b7 8a3e
00000010: 77ad 023f d333 db3e 236a 60be f9d3 a8be
00000020: 3691 7abe 20ee fdbd a0bf 5cbf a1d6 b73e
00000030: ddfb 113f 621b 98bd 0034 c53e 1a00 04bf
00000040: f021 32bf 3292 823d ad66 22bf 7b6d ffbe
00000050: 8894 703f 6dc8 a0be 6bb8 74be 18bc 003f
00000060: 4c14 14bf 5637 f0be aacf 203f 2804 153f
00000070: e880 923d 9f29 e7be 80ae e5be 4b9b 88be
00000080: 6198 c9be d4bb fa3e f77d 233d 162f efbe
00000090: bed0 a63e 5164 d7be bca0 0cbf b282 613d
000000a0: 7a61 293e 1dd4 4dbd 6011 b43e 4ed4 9abe
000000b0: c8a2 d3be b055 31be 662d 743e 4f5b 50be
000000c0: 09f9 81bf f8eb ca3f 9fa3 82bf aab5 c4bd
000000d0: 14e8 883d eee3 fbbd 420d abbe a795 52bd
000000e0: 4c2c 5e3d f76c 91bd 4e6b 74be 5810 a5bd
000000f0: c256 96bd 5a27 d6bd 5ca1 00bb 8330 63bd
00000100: 0c08 d63d e7e0 22bd 6043 dabc 9819 4d3e
00000110: d046 20bd 2b29 1a3d d9ef 663d a30a 773d
00000120: b7cd d73e 9b77 8c3d 8919 bebe fb71 b73e
00000130: c57c 623e f31f 25bf 2aa0 35be 7f25 e1bd
00000140: 9642 d6be 681f e43d 0dd4 40bd e88d d23d
00000150: f970 d63d 8e84 433e 8c05 b3bd bbd7 4b3e
00000160: 58df b7bd 9bcd 6dbd 85ba 1f3c aa00 473d
00000170: 3cad 793e fe15 f43c dfda 02be 9e1a b33e
00000180: 3cb2 8abe 8252 c5be 0eed dbbe a8fb e3be
00000190: 9a1f 3d3d c77b e43e 9531 02bf 4bf6 12bb
000001a0: 3d5a 263f 9bea f6be 017b 8dbd a53c b43e
000001b0: 1420 12bf 0fe6 7d3e 5146 0fbd 4268 ccbe
000001c0: d311 053e 67e5 0abe a2ff 97be c70e 2d3e
000001d0: 5314 d1bc d77c 353e db24 e43b d9c3 623e
000001e0: f8d7 c4be 7fea b6be 9e0a 63be f55f 893d
000001f0: 8cd1 37bd e679 6c3e 55f9 c73e bc16 26bf
00000200: 4050 653e e695 16bf c407 723f aa28 39bf
00000210: 6b17 91be 248e eb3e 7997 debe a6c8 193f
00000220: 682b b8bd c712 e1be dd08 cf3e 02f6 003d
00000230: 7494 b9be 606d 4c3e 02f1 20bd 9e82 7cbe
00000240: 3db2 413e 6bda e53d 675b d5be 78e5 8abe
00000250: 4c56 80be 631f 12bf 7374 fa3e 2b38 cf3e
00000260: 41e6 11be 79f4 c33c ff60 903e cb6d 33be
00000270: b9f4 5e3e 5265 c03d ea78 55be 32e9 8c3e
00000280: 25aa c8bd 3efe afbd f5d4 16be da4e 373d
00000290: e7cf 2f3e 4461 cbbe 303e febe f58e f6be
000002a0: bd4b a53d 59de dd3c ae89 ac3e 10f5 c53e
000002b0: bd93 2bbe a690 8f3d cf98 e93e be77 8bbe
000002c0: 3b0b 01bf 50e1 35bb 4ded 81be 6d86 d3be
000002d0: 8144 fdbe 2b00 c7be 0c69 d9be 3bc4 b4be
000002e0: 6978 f83d 18fc fc3d 6ed7 44bd d02b 9c3e
000002f0: 5fa3 e03e 849c 733e b500 26bf e423 83be
00000300: a462 3d3e 1519 cabe a605 363e 184c 813e
00000310: e0a5 debe 653b 373e 28a7 71be 0f98 bebe
00000320: dc03 a4be be86 b93c e4c5 efbb e4c1 29bd
00000330: 3f27 9fbd afa7 1dbe 92de 00be f0e7 c73c
00000340: 4b96 45be 403e 0dbd e000 9bbe 2819 193b
00000350: 32a5 bfbd 3594 ebbc f43e 4dbd 899a e3bd
00000360: 72c1 da3e 390c 94bd c522 38bf 3f33 1c3f
00000370: a920 9ebd ca53 0dbf 132f 803f 69a6 f5be
00000380: be4f 60bf 9e68 903e b488 c3ba 87ae abbd
00000390: 856b 973e ae54 62bd cd31 89be fab0 5c3b
000003a0: c0ee b4bd b7ba 08be 3203 b03d c856 83be
000003b0: 7d3d 043d 082f 8d3e 4707 ecbe 9fef 56be
000003c0: 9ca5 0c3f 7305 45bf 7c77 ac3e f6fe 7cbc
000003d0: 9066 9d3d 6d8f f13d 0975 5ebe cf44 99be
000003e0: 5990 18be 9f04 84be 93b7 c3be 6db7 f2bd
000003f0: 1f5f 62be f13c 23bf 40a6 2a3f a9ca 173d

tfeb.1.weight f4 [32]
1.11493 0.7957555 0.51834464 0.619855 0.8626456 0.6757577 0.9422303 0.062164582
0.57250714 0.059643045 0.36252078 0.18824296 0.52163696 0.21086338 0.7236824 0.16153748
0.32696432 -0.29626045 0.7585375 0.6328694 0.43693015 0.59577835 0.5949967 0.5135011
0.6163717 0.24493937 0.4740846 0.8019658 0.7186948 0.30749398 0.10284341 0.45358023
00000000: 07b6 8e3f a2b6 4b3f 3cb2 043f d1ae 1e3f
00000010: 58d6 5c3f 75fe 2c3f 0136 713f 4aa0 7e3d
00000020: d48f 123f 444c 743d 539c b93e c3c2 403e
00000030: 008a 053f 92ec 573e 4043 393f 156a 253e
00000040: de67 a73e 73af 97be 832f 423f bb03 223f
00000050: 4fb5 df3e ee84 183f b451 183f cf74 033f
00000060: 89ca 1d3f 63d1 7a3e 37bb f23e a14d 4d3f
00000070: 62fc 373f da6f 9d3e 919f d23d ab3b e83e

tfeb.1.bias f4 [32]
-0.3007808 -0.055122804 0.043184787 -0.033546705 -0.29385272 -0.110337056 -0.26861453 -0.13246642
-0.06763241 -0.15578122 -0.024259048 0.04577569 -0.05885828 -0.022149298 -0.12766719 0.11657056
0.20440835 -0.16597578 -0.16920324 -0.091332264 0.18630189 -0.11167492 0.10312697 -0.2504801
-0.09255353 -0.2849777 0.046006158 -0.17060421 -0.16250074 -0.46209106 0.05894083 0.027494906
00000000: f1ff 99be 73c8 61bd 88e2 303d 4568 09bd
00000010: dd73 96be 65f8 e1bd d887 89be 47a5 07be
00000020: dc82 8abd 1d85 1fbe e9ba c6bc 4a7f 3b3d
00000030: 6115 71bd 7272 b5bc 30bb 02be 8cbc ee3d
00000040: 6c50 513e 8ef5 29be 9d43 2dbe 690c bbbd
00000050: ecc5 3e3e d2b5 e4bd 3c34 d33d ed3e 80be
00000060: b58c bdbd 99e8 91be f470 3c3d dfb2 2ebe
00000070: 9866 26be 3397 ecbe f16b 713d ff3c e13c

tfeb.1.running_mean f4 [32]
-0.54320633 -0.36528614 -0.27783012 -0.34539175 -0.3422337 -0.30031016 -0.36759824 0.122392654
-0.2647077 0.17361209 -0.21909419 -0.006982647 -0.37242642 -0.12628181 -0.26620975 0.024864051
-0.18379709 0.13283104 -0.35359073 -0.28875318 -0.2912477 -0.28836146 -0.53332794 -0.32090724
-0.30116254 -0.018958533 -0.17281131 -0.5097834 -0.21662338 0.085020475 -0.037387583 -0.25880104
00000000: 920f 0bbf c906 bbbe c03f 8ebe 30d7 b0be
00000010: 4139 afbe 41c2 99be d635 bcbe 00a9 fa3d
00000020: c587 87be 5ec7 313e 3a5a 60be b0ce e4bb
00000030: adae bebe 0550 01be a54c 88be b2af cb3c
00000040: 4e35 3cbe dc04 083e d809 b5be 75d7 93be
00000050: 6b1e 95be 1da4 93be 2e88 08bf f44d a4be
00000060: fa31 9abe ed4e 9bbc 73f5 30be 2a81 02bf
00000070: 85d2 5dbe 371f ae3d b923 19bd 9281 84be

tfeb.1.running_var f4 [32]
1.7213296 0.88928246 0.5065561 0.63149524 0.46056807 0.49516174 0.3828184 0.046951953
0.36538526 0.09272212 0.42117673 0.16808398 0.43354678 0.27681533 0.32331553 0.10468866
0.5049185 0.07167622 0.7330347 0.40609038 0.7470549 0.35740608 0.8629154 0.29071245
0.6065582 0.04542519 0.19787006 0.83827543 0.21616738 0.06719665 0.022856595 0.47709423
00000000: 8754 dc3f 04a8 633f a9ad 013f aca9 213f
00000010: 94cf eb3e d785 fd3e c600 c43e b150 403d
00000020: c713 bb3e 18e5 bd3d 7aa4 d73e 351e 2c3e
00000030: d8f9 dd3e bdba 8d3e 9d89 a53e 0267 d63d
00000040: 5742 013f fbca 923d 29a8 3b3f 14eb cf3e
00000050: fd3e 3f3f eefd b63e 06e8 5c3f 43d8 943e
00000060: 6647 1b3f c40f 3a3d 739e 4a3e 3899 563f
00000070: fb5a 5d3e 669e 893d c13d bb3c b245 f43e

tfeb.4.weight f4 [32, 32, 3, 3]
0.021801587 0.032988336 -0.07122945 -0.17106019 0.0071557662 0.02927432 -0.10600618 -0.09992329
-0.037654877 0.07614414 0.006107387 -0.02817432 -0.11540016 -0.016344005 -0.029053139 0.074538514
-0.035891663 -0.105684265 -0.107780315 -0.1570959 -0.116898425 -0.14276575 -0.18936348 -0.20869744
-0.035960265 -0.057543054 -0.022954756 0.06361626 0.06040519 0.043340936 -0.10648279 -0.00447988
0.029102994 0.13807401 0.072386466 0.13574743 -0.077557735 -0.007640513 -0.014800276 -0.0905267
0.04186183 0.014416268 -0.08171537 -0.033761073 -0.016830094 0.011213612 -0.06408611 0.1475389
0.09641879 -0.19623584 0.22435051 0.031027852 -0.10745159 0.08063587 -0.021703934 0.038962994
0.11028697 -0.049079467 0.022811223 0.05514553 -0.039104644 0.056858715 0.102578886 0.047089007
0.002240828 0.0024827863 0.038183663 -0.010257443 0.002904099 -0.015583747 0.0044033406 -0.0331868
0.017645763 -0.020670401 0.054341067 -0.13653079 -0.16269791 -0.058605064 0.03792643 -0.015383968
0.032748442 0.03125638 0.03407414 -0.033838883 -0.0056968895 0.0193917 -0.007735579 -0.020836534
-0.0007709664 -0.008472787 0.051734336 0.089385144 0.07331229 -0.12639926 -0.10266133 -0.1099588
-0.0016385467 -0.013982849 -0.030813526 -0.01514717 -0.086975604 -0.14072418 -0.04726259 -0.10516241
-0.1694745 -0.041711003 -0.03763908 -0.107728355 -0.04323671 -0.06293244 0.08861045 -0.060077302
-0.07000481 0.086927906 -0.046098903 -0.023950117 0.088890225 0.08096457 0.0045954124 -0.07138923
-0.03571465 -0.03555816 -0.03820241 0.075115524 -0.0072680633 -0.08417781 0.0019928138 -0.0033868393
0.07703257 0.070558585 -0.080564976 0.18786523 0.08896209 -0.019681823 0.08965564 0.063399166
0.016571956 -0.051870085 -0.011004111 -0.045923878 -0.07141237 0.042571258 -0.011922421 -0.060710315
0.09599181 0.016878337 -0.023137279 0.047645856 0.00085586926 0.026354834 0.18936451 0.014823876
-0.014315011 0.029515825 -0.0073806155 -0.016436467 0.0011262692 -0.00938694 -0.051749974 0.015746674
-0.01846893 -0.0028663273 -0.024220956 -0.0024211584 0.029173873 -0.14652993 -0.0026674075 -0.015485805
0.03824481 0.0781721 0.009721815 -0.032958586 0.04579444 -0.011570402 -0.122619264 -0.038052887
-0.024639761 -0.054636065 0.077492096 -0.0026197496 -0.083581954 -0.044690844 -0.0078071756 -0.024879886
-0.029863097 0.010787616 -0.11302772 -0.0616904 -0.003663438 -0.11159297 -0.04131708 -0.056453686
-0.0602155 0.017515365 -0.04018481 -0.10032709 -0.051733945 -0.06817174 -0.07244126 0.0014668509
0.073214844 -0.11425831 0.009499628 0.107070684 0.022269823 0.0500957 0.1563252 -0.03630332
0.022412984 0.023879722 -0.04952085 0.015424349 0.012999335 -0.033710845 0.015218762 0.046380054
-0.08254929 -0.07758664 -0.076974414 -0.08125032 -0.028319512 -0.063402556 0.0836672 0.052500557
0.07996646 0.027108131 0.050489288 -0.001314052 -0.077163406 -0.043338295 -0.03602083 -0.0023693636
0.0013534945 -0.043601274 -0.05994796 -0.06168406 -0.1116324 -0.027493315 0.0128427865 -0.097533986
0.073149726 0.03040059 0.021127207 -0.08514587 0.010380767 0.0408823 0.0006948328 0.11396372
0.0716479 -0.05298311 0.050512318 0.096825674 0.0568515 -0.023713142 0.016489364 0.1286075
00000000: 3e99 b23c c71e 073d bfe0 91bd 672a 2fbe
00000010: eb7a ea3b b3d0 ef3c c519 d9bd 95a4 ccbd
00000020: 003c 1abd 75f1 9b3d 7a20 c83b d5cd e6bc
00000030: eb56 ecbd dde3 85bc d900 eebc a6a7 983d
00000040: 2303 13bd fe70 d8bd edbb dcbd bfdd 20be
00000050: 7168 efbd 2f31 12be 80e8 41be c8b4 55be
00000060: 124b 13bd 44b2 6bbd 9d0b bcbc 3e49 823d
00000070: 6f6b 773d 4486 313d a613 dabd f5cb 92bb
00000080: 6769 ee3c 4663 0d3e 5b3f 943d 6001 0b3e
00000090: 97d6 9ebd 455d fabb db7c 72bc 1066 b9bd
000000a0: 4f77 2b3d 3632 6c3c 635a a7bd 0d49 0abd
000000b0: 44df 89bc 4cb9 373c 943f 83bd 7014 173e
000000c0: 3777 c53d 0cf2 48be 24bc 653e 1f2e fe3c
000000d0: 940f dcbd 6b24 a53d 73cc b1bc a997 1f3d
000000e0: 23de e13d 8d07 49bd 9ade ba3c 47e0 613d
000000f0: 312c 20bd afe4 683d e114 d23d 67e0 403d
00000100: dbda 123b 3eb6 223b 7966 1c3d d60e 28bc
00000110: b252 3e3b f952 7fbc e649 903b e2ee 07bd
00000120: d98d 903c f954 a9bc bd94 5e3d bace 0bbe
00000130: 489a 26be dd0b 70bd bf58 1b3d 0a0d 7cbc
00000140: 3b23 063d b106 003d 5391 0b3d a49a 0abd
00000150: f9ac babb 58db 9e3c bd7a fdbb 61b1 aabc
00000160: ae1a 4aba 72d1 0abc 62e7 533d 8f0f b73d
00000170: c124 963d cf6e 01be 1a40 d2bd 1432 e1bd
00000180: 81c4 d6ba 5218 65bc a66c fcbc d62b 78bc
00000190: 4420 b2bd 001a 10be 6b96 41bd 645f d7bd
000001a0: b98a 2dbe 28d9 2abd 702b 1abd afa0 dcbd
000001b0: fa18 31bd b9e2 80bd 6579 b53d 9e13 76bd
000001c0: af5e 8fbd 4207 b23d 34d2 3cbd 0933 c4bc
000001d0: 140c b63d c1d0 a53d 1d95 963b 8434 92bd
000001e0: 8649 12bd 6fa5 11bd 217a 1cbd 2bd6 993d
000001f0: ef28 eebb 6a65 acbd de99 023b bcf5 5dbb
00000200: 41c3 9d3d 0581 903d 40ff a4bd be5f 403e
00000210: c231 b63d c63b a1bc 609d b73d 6cd7 813d
00000220: e9c1 873c ba75 54bd 964a 34bc ad1a 3cbd
00000230: a640 92bd 335f 2e3d 4256 43bc 61ab 78bd
00000240: 5b97 c43d 7044 8a3c 648a bdbc 4d28 433d
00000250: 6a5c 603a 18e6 d73c c5e8 413e d8df 723c
00000260: 8289 6abc 2ccb f13c 17d9 f1bb c5a5 86bc
00000270: 539f 933a aecb 19bc c8f7 53bd 2bff 803c
00000280: 274c 97bc fed8 3bbb 076b c6bc 4cac 1ebb
00000290: 0cfe ee3c f10b 16be accf 2ebb 2db8 7dbc
000002a0: 97a6 1c3d b218 a03d 3f48 1f3c 95ff 06bd
000002b0: f392 3b3d c991 3dbc cf1f fbbd 58dd 1bbd
000002c0: 53d9 c9bc 11ca 5fbd 2db4 9e3d 1bb0 2bbb
000002d0: 042d abbd bf0d 37bd 56d3 ffbb e7d0 cbbc
000002e0: 74a3 f4bc 8abe 303c 147b e7bd 13af 7cbd
000002f0: 4a16 70bb db8a e4bd 193c 29bd fb3b 67bd
00000300: 87a4 76bd 627c 8f3c d498 24bd 4a78 cdbd
00000310: f9e6 53bd a09d 8bbd 155c 94bd 5943 c03a
00000320: aaf1 953d 4300 eabd 54a4 1b3c e047 db3d
00000330: 346f b63c 2631 4d3d b713 203e cab2 14bd
00000340: 6f9b b73c 689f c33c 60d6 4abd 69b6 7c3c
00000350: 2afb 543c 6214 0abd 1d58 793c 03f9 3d3d
00000360: 9a0f a9bd bfe5 9ebd c3a4 9dbd 9166 a6bd
00000370: 52fe e7bc 33d9 81bd b559 ab3d d30a 573d
00000380: 75c5 a33d df11 de3c dbcd 4e3d 453c acba
00000390: d907 9ebd 7f83 31bd 948a 13bd 5347 1bbb
000003a0: bd67 b13a 4097 32bd fe8b 75bd 6da8 7cbd
000003b0: 879f e4bd a939 e1bc 8d6a 523c e6bf c7bd
000003c0: 86cf 953d a80a f93c f712 ad3c f560 aebd
000003d0: 1814 2a3c 3374 273d 7125 363a d065 e93d
000003e0: 22bc 923d d104 59bd 01e6 4e3d 8a4c c63d
000003f0: 1edd 683d 1042 c2bc b414 873c afb1 033e

tfeb.5.weight f4 [32]
0.5856225 0.76329803 0.64439017 0.42688978 0.26334086 0.62020797 0.24721698 0.5656127
0.7190174 0.49532008 0.596194 0.78657866 0.27283505 0.8300943 0.6734517 0.5645212
0.68453753 0.37294927 0.35791326 0.529494 0.86359763 0.634914 0.5931697 0.71092284
0.8755078 0.8432144 0.24948497 0.66118145 0.7378972 0.37394145 0.8835289 0.6030133
00000000: 5beb 153f 8067 433f c1f6 243f 4c91 da3e
00000010: 9dd4 863e f3c5 1e3f 7326 7d3e fecb 103f
00000020: 8611 383f 989a fd3e 2ca0 183f 385d 493f
00000030: 09b1 8b3e 0f81 543f 5567 2c3f 7684 103f
00000040: da3d 2f3f 35f3 be3e 6840 b73e eb8c 073f
00000050: bc14 5d3f b989 223f f8d9 173f 0aff 353f
00000060: 4721 603f e6dc 573f fd78 7f3e 3043 293f
00000070: d5e6 3c3f 4175 bf3e f32e 623f 145f 1a3f

tfeb.5.bias f4 [32]
-0.13836479 -0.16770227 -0.2947426 -0.09454687 -0.06530923 -0.16164277 -0.3349702 -0.15115514
-0.27345756 -0.08580372 -0.08219598 -0.28524208 -0.19330885 -0.3144306 -0.253106 -0.33098894
-0.27319223 -0.108595274 -0.17399624 -0.163192 -0.33531147 -0.082931094 -0.16850002 -0.24809925
-0.3066386 -0.17481235 -0.055181514 -0.14253063 -0.12093478 -0.07169476 -0.2544308 -0.12086502
00000000: 80af 0dbe 25ba 2bbe 81e8 96be caa1 c1bd
00000010: d8c0 85bd af85 25be 3781 abbe 6ac8 1abe
00000020: a102 8cbe dcb9 afbd 5e56 a8bd 400b 92be
00000030: c1f2 45be 0cfd a0be 1c97 81be 6277 a9be
00000040: dadf 8bbe 3367 debd 122c 32be ce1b 27be
00000050: f2ad abbe c7d7 a9bd 458b 2cbe bb0d 7ebe
00000060: bcff 9cbe 0202 33be 0306 62bd 8df3 11be
00000070: a7ac f7bd b4d4 92bd c144 82be 1488 f7bd

tfeb.5.running_mean f4 [32]
-0.64218765 -0.91884774 -0.6559024 -0.6895184 -0.3217548 -1.1003615 -0.5202793 -0.97490174
-0.251769 -0.5980471 -0.79881996 -0.86778784 0.49839863 -0.63591063 -0.6090455 0.26155883
0.022962775 -0.37120798 0.18994689 -1.0206671 -0.2444797 -0.50095385 -0.5081394 -0.7613077
-0.81975675 -0.90609485 -0.13140522 -0.18990286 -0.59837294 -0.3503752 -0.58176136 -0.34643945
00000000: 6966 24bf 9b39 6bbf 38e9 27bf 4784 30bf
00000010: 0cbd a4be a5d8 8cbf 0631 05bf 2993 79bf
00000020: dee7 80be 9d19 19bf 777f 4cbf 5827 5ebf
00000030: 1b2e ff3e 0acb 22bf 68ea 1bbf 0aeb 853e
00000040: 6e1c bc3c f90e bebe 7081 423e 38a5 82bf
00000050: e358 7abe 833e 00bf 6c15 02bf 10e5 42bf
00000060: 94db 51bf d5f5 67bf 178f 06be e575 42be
00000070: f82e 19bf 6164 b3be 50ee 14bf 8360 b1be

tfeb.5.running_var f4 [32]
0.3936606 0.7524323 0.5471146 0.38079885 0.18625146 0.65371156 0.124573074 0.62596273
0.49397132 0.6440009 0.675425 0.5910263 0.117714494 0.8581855 0.7108964 0.19889411
0.46746358 0.16541183 0.2918006 0.5936481 0.57856995 0.5203766 0.41768944 0.8871315
0.53089046 0.9145302 0.2305655 0.35251218 0.6076736 0.30353528 0.91508704 0.36828545
00000000: e28d c93e 679f 403f b40f 0c3f 11f8 c23e
00000010: b4b8 3e3e a459 273f 2b20 ff3d 183f 203f
00000020: cfe9 fc3e 3edd 243f a7e8 2c3f 804d 173f
00000030: 4c14 f13d 0cb2 5b3f 4efd 353f e6aa 4b3e
00000040: 6357 ef3e b861 293e e366 953e 52f9 173f
00000050: 291d 143f 6737 053f 64db d53e 0d1b 633f
00000060: 70e8 073f a71e 6a3f 5d19 6c3e 7a7c b43e
00000070: 7f90 1b3f fa68 9b3e 2543 6a3f e98f bc3e

tfeb.8.weight f4 [48, 32, 3, 3]
-0.15048033 -0.018846363 -0.08820769 -0.15507503 0.04045243 -0.034401808 -0.18543513 0.16880417
0.00418487 0.03012037 -0.048059076 -0.13425891 0.040536765 -0.035410486 -0.1740653 0.01170436
-0.025058039 -0.12748446 0.105264805 -0.07453078 0.021761604 0.044339705 -0.0072066993 -0.014587216
-0.0065175844 0.03665036 0.027297227 -0.051416744 -0.047944404 0.00036678938 -0.08985583 -0.108566776
-0.06739825 -0.045667227 -0.07853804 0.050726954 -0.021710342 -0.0808862 -0.06496188 -0.019601345
-0.06059475 -0.060488332 0.021158963 0.09231368 -0.01319565 -0.13033429 -0.07328361 0.032717973
-0.102947965 -0.117144555 0.034467395 -0.09748564 -0.08654279 0.04556746 -0.034698877 -0.019003907
0.0063230605 0.008294086 -0.008590884 0.028632747 -0.020310776 0.010645869 0.043221228 0.2574063
-0.008663396 -0.077390894 0.21561936 0.040836625 -0.107806675 0.12286383 0.023127189 -0.13672504
0.056649793 -0.06665048 0.033993807 -0.081573926 -0.08987806 0.05941108 -0.0017689372 0.014184369
0.08398729 -0.113966495 -0.07025681 0.016876925 -0.15577863 -0.022117749 0.045672875 -0.1612051
-0.08342392 0.015569603 -0.020045817 -0.15006222 -0.06618499 -0.034766078 -0.07797436 0.01961783
-0.09482014 -0.075484306 0.105326325 -0.087638125 -0.14877734 0.015457196 -0.057711728 -0.12060748
0.041679237 -0.05259341 -0.116061024 0.0075852363 0.08105118 0.01975485 -0.0034585306 -0.14664316
-0.06385647 -0.02435099 -0.081323735 0.048146553 -0.029362235 -0.1310751 -0.097370744 0.11258038
-0.16504107 -0.107899874 0.14034349 -0.09158342 -0.10106647 0.11475554 -0.1183215 -0.062045135
0.06768177 -0.02751391 -0.04902457 0.085320644 -0.061350632 -0.023199765 0.18013714 0.0048220344
-0.1047392 0.06906915 0.09846401 -0.038270105 0.10276753 0.124970056 -0.0054430575 0.111113936
0.095220916 -0.021021355 -0.04833399 -0.00047621227 -0.14479586 -0.06063353 -0.047112267 -0.046095446
-0.08926156 -0.03270449 -0.047356106 -0.10282242 -0.042458605 -0.06307344 -0.09008954 -0.018987816
-0.0052872254 -0.030518949 -0.027907915 -0.050537106 -0.10307056 -0.023800617 0.0059077577 -0.05464675
-0.0146606965 0.04479806 -0.038118307 -0.089601666 -0.05649712 0.11309514 -0.084090866 -0.06676324
0.082847774 -0.002113298 0.04089082 0.186103 -0.017201874 0.009582097 0.15394549 0.020144107
-0.032865036 0.04478852 0.07659233 -0.0062154653 0.07114695 0.020205809 0.2253291 -0.06986856
0.023439994 0.22125784 -0.032300763 -0.044433612 0.1712155 -0.053690527 0.013457543 -0.05436813
0.0023809576 0.08562134 -0.02979055 -0.020976406 0.0772148 0.0036018698 0.0110194925 -0.023849802
0.0027612578 -0.009429813 0.021807162 0.06928498 0.016589513 -0.030470224 0.021200906 -0.037544914
0.12727556 -0.076872244 0.0020597598 0.079799026 -0.08098101 -0.06659798 0.036114234 -0.025722718
-0.035460994 -0.065880485 0.03653326 0.04302907 -0.06866683 -0.020440493 0.10970974 -0.032776903
-0.008668035 0.12377684 -0.13716625 -0.09146658 -0.05806468 -0.052641638 -0.05155344 -0.093846805
-0.013879546 -0.06684278 -0.08036994 -0.08950205 0.0016893115 0.08252392 -0.055541858 -0.047693536
0.089414395 -0.032452684 -0.039532628 0.10651844 0.11221155 -0.14452459 -0.09006966 0.16544949
00000000: 8417 1abe b063 9abc 3ca6 b4bd fdcb 1ebe
00000010: 72b1 253d e9e8 0cbd b5e2 3dbe 00db 2c3e
00000020: 3c21 893b ffbe f63c 98d9 44bd 2b7b 09be
00000030: e109 263d 960a 11bd 2d3e 32be a5c3 3f3c
00000040: 8446 cdbc 498b 02be 1395 d73d 98a3 98bd
00000050: 6445 b23c 8d9d 353d 2d26 ecbb 38ff 6ebc
00000060: 7691 d5bb b01e 163d 6f9e df3c 5d9a 52bd
00000070: 5a61 44bd a34d c039 5506 b8bd 4258 debd
00000080: 1808 8abd 8f0d 3bbd 8dd8 a0bd 11c7 4f3d
00000090: e3d9 b1bc aaa7 a5bd bc0a 85bd 0093 a0bc
000000a0: 3332 78bd 9dc2 77bd 9055 ad3c f40e bd3d
000000b0: 9132 58bc 5a76 05be b815 96bd 4803 063d
000000c0: 62d6 d2bd 7ce9 efbd af2d 0d3d 8da6 c7bd
000000d0: 593d b1bd f2a4 3a3d 6920 0ebd 15ae 9bbc
000000e0: ad31 cf3b ebe3 073c c7c0 0cbc 398f ea3c
000000f0: c962 a6bc 036c 2e3c be08 313d c2ca 833e
00000100: ebf0 0dbc 1e7f 9ebd 52cb 5c3e 4e44 273d
00000110: bfc9 dcbd 08a0 fb3d 3b75 bd3c a601 0cbe
00000120: 9d09 683d 0c80 88bd 173d 0b3d 3b10 a7bd
00000130: fd11 b8bd 0859 733d afdb e7ba 8e65 683c
00000140: 8701 ac3d 4467 e9bd cde2 8fbd 7a41 8a3c
00000150: 6f84 1fbe 4830 b5bc 7b13 3b3d f312 25be
00000160: 29da aabd a617 7f3c 2037 a4bc e9a9 19be
00000170: ff8b 87bd e066 0ebd 05b1 9fbd 92b5 a03c
00000180: 1031 c2bd 8497 9abd 54b5 d73d 9e7b b3bd
00000190: 1659 18be 2e40 7d3c 2263 6cbd 0e01 f7bd
000001a0: d9b7 2a3d 306c 57bd 67b1 edbd 938d f83b
000001b0: 29fe a53d ecd4 a13c 84a8 62bb a029 16be
000001c0: 2ec7 82bd ba7b c7bc 0f8d a6bd 5235 453d
000001d0: 1289 f0bc 8d38 06be 506a c7bd 8b90 e63d
000001e0: 8700 29be 9cfa dcbd 34b6 0f3e 1790 bbbd
000001f0: f0fb cebd f404 eb3d 8b52 f2bd 0a23 7ebd
00000200: bd9c 8a3d da64 e1bc fdcd 48bd 97bc ae3d
00000210: cd4a 7bbd 6f0d bebc df75 383e 2802 9e3b
00000220: 8181 d6bd 2074 8d3d 80a7 c93d 1dc1 1cbd
00000230: c877 d23d 4df0 ff3d ad5b b2bb b48f e33d
00000240: 2f03 c33d fa34 acbc ddf9 45bd 21ac f9b9
00000250: 5e45 14be dd5a 78bd cbf8 40bd 94ce 3cbd
00000260: c4ce b6bd 25f5 05bd 7af8 41bd 9094 d2bd
00000270: 13e9 2dbd a62c 81bd dd80 b8bd 568c 9bbc
00000280: 7640 adbb e002 fabc 249f e4bc ffff 4ebd
00000290: a816 d3bd 83f9 c2bc dd95 c13b 45d5 5fbd
000002a0: 6b33 70bc 2c7e 373d f121 1cbd 1481 b7bd
000002b0: 8669 67bd 6d9e e73d d537 acbd 2abb 88bd
000002c0: 18ac a93d 427f 0abb 227d 273d c991 3e3e
000002d0: f2ea 8cbc 3afe 1c3c e3a3 1d3e 4105 a53c
000002e0: 7d9d 06bd 2b74 373d 71dc 9c3d 1aab cbbb
000002f0: 7eb5 913d a786 a53c acbc 663e 3f17 8fbd
00000300: 3b05 c03c 6a91 623e ce4d 04bd 0500 36bd
00000310: 1e53 2f3e 99ea 5bbd 077d 5c3c 1eb1 5ebd
00000320: d709 1c3b 3e5a af3d 500b f4bc b6d6 abbc
00000330: cb22 9e3d 590d 6c3b 1a8b 343c a960 c3bc
00000340: 38f6 343b 817f 1abc efa4 b23c 49e5 8d3d
00000350: bbe6 873c b19c f9bc 86ad ad3c b2c8 19bd
00000360: 8654 023e 326f 9dbd 09fd 063b ac6d a33d
00000370: 5fd9 a5bd 8664 88bd 85ec 133d 73b8 d2bc
00000380: 8c3f 11bd 59ec 86bd e6a3 153d 403f 303d
00000390: 32a1 8cbd d272 a7bc 80af e03d 1341 06bd
000003a0: 6004 0ebc b67e fd3d 4f75 0cbe d552 bbbd
000003b0: 3bd5 6dbd c29e 57bd b329 53bd c132 c0bd
000003c0: 0967 63bc dee4 88bd ff98 a4bd da4c b7bd
000003d0: e36b dd3a 4d02 a93d dc7f 63bd 4c5a 43bd
000003e0: e51e b73d 1bed 04bd f7ec 21bd 5726 da3d
000003f0: 2bcf e53d 41fe 13be 7176 b8bd 976b 293e

tfeb.9.weight f4 [48]
0.5819588 0.5889686 0.39662713 0.5079468 0.3980393 0.42158434 0.38420412 0.27331102
0.5112087 0.4530549 0.48600632 0.27981603 0.39526212 0.50963783 0.6449386 0.57144594
0.6756327 0.46360087 0.5400156 0.46715125 0.56400603 0.37319764 0.3478943 0.73071057
0.5400473 0.38813317 0.4844421 0.5162567 0.52660275 0.3128227 0.5462998 0.5151205
0.63687485 0.7512388 0.3150121 0.36151809 0.36753973 0.52851075 0.14886576 0.48806432
0.4445133 0.5716161 0.49507684 0.47268137 0.5062908 0.5764542 0.32489973 0.47466412
00000000: 40fb 143f a5c6 163f b612 cb3e cd08 023f
00000010: cfcb cb3e e7d9 d73e 67b6 c43e 6cef 8b3e
00000020: 93de 023f d0f6 e73e d2d5 f83e 0c44 8f3e
00000030: cc5f ca3e a077 023f b21a 253f 484a 123f
00000040: 44f6 2c3f 185d ed3e 763e 0a3f 732e ef3e
00000050: b362 103f c313 bf3e 341f b23e d90f 3b3f
00000060: 8a40 0a3f 64b9 c63e cc08 f83e 6629 043f
00000070: 70cf 063f 4c2a a03e 4eda 0b3f f0de 033f
00000080: 3b0a 233f 3051 403f 4449 a13e e618 b93e
00000090: 2b2e bc3e 7b4c 073f 4470 183e 91e3 f93e
000000a0: 3f97 e33e 6f55 123f b67a fd3e 4b03 f23e
000000b0: 469c 013f 8192 133f 4259 a63e 2d07 f33e

tfeb.9.bias f4 [48]
-0.6130145 -0.68405646 -0.3026585 -0.5168031 -0.3229282 -0.269244 -0.49400195 -0.21843159
-0.4654399 -0.33957475 -0.3928185 -0.13330817 -0.41511536 -0.41222525 -0.48791382 -0.5285751
-0.59818274 -0.43286958 -0.36194345 -0.38143492 -0.5472154 -0.1910255 -0.31723428 -0.7390524
-0.42091656 -0.55106324 -0.33317256 -0.48495635 -0.5552087 -0.51973605 -0.42648393 -0.30814922
-0.6182781 -0.7851003 -0.13289993 -0.32277527 -0.28233224 -0.44425339 -0.0152286235 -0.5224794
-0.37301165 -0.62144464 -0.44033447 -0.6334037 -0.4118294 -0.26482785 -0.17776516 -0.57653856
00000000: 85ee 1cbf 531e 2fbf 0ef6 9abe 354d 04bf
00000010: d856 a5be 59da 89be d3ed fcbe 88ac 5fbe
00000020: 234e eebe bedc adbe 821f c9be f081 08be
00000030: 008a d4be 300f d3be d7cf f9be b350 07bf
00000040: 8122 19bf 15a1 ddbe a750 b9be 704b c3be
00000050: 4f16 0cbf 309c 43be 886c a2be 8a32 3dbf
00000060: 6082 d7be 7b12 0dbf 9895 aabe 334c f8be
00000070: 2822 0ebf 6c0d 05bf 1a5c dabe bcc5 9dbe
00000080: 7947 1ebf 55fc 48bf eb16 08be cd42 a5be
00000090: da8d 90be 2e75 e3be 7a81 79bc 36c1 05bf
000000a0: 62fb bebe ff16 1fbf 8573 e1be bf26 22bf
000000b0: 4edb d2be 8497 87be 1208 36be 0898 13bf

tfeb.9.running_mean f4 [48]
-0.5283444 -0.3316802 -0.37860492 0.20181517 -0.24415046 -0.24000235 -0.24464254 -0.15583344
-0.19693922 -0.3507738 -0.5005996 -0.13486965 -0.022909274 -0.12973034 -0.36620858 0.2310089
-0.588843 -0.4136606 -0.33636546 -0.26295415 -0.10750696 -0.5403944 0.03178956 0.13064139
-0.23138738 -0.3780011 -0.30933443 -0.09468929 -0.21266103 0.1657814 -0.37545636 -0.33553788
-0.16567889 -0.47727123 -0.13275553 -0.16122057 -0.14392273 -0.30758503 -0.18446627 -0.4116235
-0.33801413 -0.35257652 -0.27412057 0.34921288 -0.819929 -0.30695435 -0.2566904 -0.0257297
00000000: 9441 07bf fdd1 a9be 81d8 c1be a3a8 4e3e
00000010: 9402 7abe 2dc3 75be 9383 7abe cd92 1fbe
00000020: 6faa 49be a098 b3be 4c27 00bf 451b 0abe
00000030: 3bac bbbc 08d8 04be b17f bbbe 998d 6c3e
00000040: 6abe 16bf 52cb d3be 1838 acbe eda1 86be
00000050: 9c2c dcbd 4a57 0abf c535 023d dbc6 053e
00000060: d0f0 6cbe 5c89 c1be 1561 9ebe 75ec c1bd
00000070: d0c3 59be 99c2 293e d13b c0be 9fcb abbe
00000080: baa7 29be e55c f4be 11f1 07be 0117 25be
00000090: 7b60 13be c97b 9dbe bae4 3cbe 51c0 d2be
000000a0: 3010 adbe e984 b4be 8859 8cbe 08cc b23e
000000b0: dee6 51bf 1f29 9dbe ed6c 83be 18c7 d2bc

tfeb.9.running_var f4 [48]
0.12234295 0.14029457 0.06535866 0.0638117 0.036174253 0.1719875 0.06547684 0.039049204
0.1167044 0.0784327 0.14355077 0.045585956 0.08835643 0.07584786 0.10951655 0.12713285
0.10841083 0.12091549 0.18990687 0.114626154 0.12503813 0.13442904 0.0717494 0.13816465
0.10485294 0.06572452 0.08448255 0.12501635 0.13998629 0.031806946 0.116968304 0.13117279
0.10842687 0.13503744 0.056613997 0.060136523 0.065271705 0.109394126 0.06416073 0.13760494
0.091422416 0.11738819 0.07710592 0.11247892 0.13175996 0.21416675 0.07197129 0.07680692
00000000: f18e fa3d 61a9 0f3e c3da 853d b5af 823d
00000010: 742b 143d 7e1d 303e b918 863d 0ff2 1f3d
00000020: b702 ef3d 53a1 a03d f9fe 123e 57b8 3a3d
00000030: 37f4 b43d 1f56 9b3d 374a e03d 1d2f 023e
00000040: 7f06 de3d 8aa2 f73d f276 423e 1ec1 ea3d
00000050: ff09 003e c4a7 093e 59f1 923d 097b 0d3e
00000060: 23bd d63d 949a 863d 3005 ad3d 4904 003e
00000070: 9158 0f3e 0048 023d 148d ef3d 2952 063e
00000080: e80e de3d 4147 0a3e 14e4 673d b751 763d
00000090: 2cad 853d 070a e03d b366 833d 4fe8 0c3e
000000a0: ad3b bb3d 3869 f03d b5e9 9d3d 595b e63d
000000b0: 15ec 063e 874e 5b3e af65 933d f24c 9d3d

tfeb.13.weight f4 [10, 48, 1, 1]
-0.11659428 0.39702886 -0.37328398 -0.17958003 0.17082462 -0.018551834 0.21054332 -0.09114425
-0.12318447 -0.14703126 0.07531677 0.22094892 -0.023310529 0.10374382 0.08420562 0.12810759
0.22782417 0.1818293 0.0046063485 -0.07428396 -0.1479344 -0.16140161 -0.24574386 -0.20787829
-0.24553393 -0.011913358 0.3697379 -0.14708383 -0.28101176 0.22108048 0.12583601 -0.1453041
-0.055867486 -0.15127131 0.3420735 -0.26160395 -0.021911202 0.0715124 -0.27148002 -0.06892576
0.092581116 -0.040355325 0.033613913 -0.06398767 0.42848194 -0.012445842 -0.17773634 0.4682511
-0.21517937 -0.0033481326 0.085725196 -0.30777055 0.17912443 -0.07523047 -0.07881275 -0.24307811
-0.1897977 -0.050661422 -0.15117642 -0.16148655 -0.2249775 0.13357085 0.021483706 -0.33714134
-0.02139089 0.60250264 0.1292286 -0.18666504 0.32665545 0.33787453 -0.13556227 -0.26548615
0.11092792 0.06761563 0.12502535 -0.31067455 0.14924225 -0.086454496 -0.18772216 0.3996117
0.660543 -0.08857573 -0.066027164 0.11577413 -0.14676294 -0.21986656 0.07713167 -0.20765874
0.03132396 -0.18558858 -0.011249089 0.17678119 -0.0020559852 0.11978378 -0.01241141 0.11843951
0.053352065 0.11866619 0.29328835 0.13879864 -0.3632883 0.009098996 -0.22105967 0.17007549
-0.12654601 0.20863551 -0.106381856 -0.14470701 0.071080975 -0.41679054 -0.14813319 -0.19764018
-0.08335368 0.17675479 -0.10094652 0.088030376 -0.078602456 -0.014970111 0.016208803 -0.13011284
0.4023407 -0.14859733 0.19270767 -0.16851667 0.04260123 0.07029137 0.47334918 0.06400832
-0.15554479 0.26351136 -0.07720115 -0.10385447 0.11765729 0.037518762 -0.40844235 0.061198033
-0.26961476 -0.08256222 -0.37546957 -0.36578733 -0.14920004 0.01378168 -0.37229493 0.19841646
0.21161704 0.26218212 -0.03355726 -0.2515256 -0.09384034 -0.14792092 -0.20868911 -0.037305094
0.40168455 -0.1003752 0.14626977 -0.1290266 0.021149458 0.052294604 0.24310888 -0.16184077
-0.095399305 0.01803533 0.1016529 -0.2961563 -0.24114195 -0.2856504 -0.19563434 -0.12432583
-0.012350882 -0.21367036 0.16301541 0.17145497 0.008902738 0.0480765 -0.128864 0.3902092
-0.10385474 0.019631207 -0.07557083 0.42466998 0.23321658 -0.30882847 -0.014168103 0.67015254
0.10474534 -0.23374976 -0.030387012 -0.14617306 -0.1873216 -0.029854527 0.012605379 -0.13045119
-0.13857687 -0.41295692 -0.22967336 -0.06895371 -0.2059561 0.26308775 0.11026273 0.22132766
0.3266061 0.090715565 -0.39143595 -0.059906505 0.31937858 0.25584564 0.0758332 -0.08964345
0.48678133 0.17463598 0.08188181 0.44642258 -0.16424224 0.07703483 0.024737023 0.48622605
0.017667342 -0.3114702 -0.28604206 -0.12296453 -0.38954753 -0.23320661 0.3368213 0.21274377
-0.073384985 -0.22048868 -0.01778449 -0.015924115 0.12863693 0.42102325 -0.13608342 0.04513362
0.23458321 0.048311274 -0.29410598 0.13049482 -0.18285356 0.14898512 -0.11874142 -0.24745573
-0.30952606 0.4000959 -0.05656368 -0.42596927 -0.14157848 0.22788681 -0.2211823 0.17331071
0.0333102 -0.0963513 -0.24541353 -0.07971978 0.13660833 0.12236011 0.11288935 -0.07449621
00000000: fbc8 eebd 5e47 cb3e 141f bfbe d4e3 37be
00000010: a6ec 2e3e 04fa 97bc ab98 573e d6a9 babd
00000020: 2448 fcbd 5d8f 16be ae3f 9a3d 6f40 623e
00000030: b9f5 bebc a477 d43d ff73 ac3d a32e 033e
00000040: bd4a 693e 7631 3a3e daf0 963b 3022 98bd
00000050: 1e7c 17be 7746 25be 47a4 7bbe 0cde 54be
00000060: 3f6d 7bbe 3f30 43bc 494e bd3e 259d 16be
00000070: c6e0 8fbe ec62 623e 28db 003e 99ca 14be
00000080: 4ed5 64bd dee6 1abe 4224 af3e f4f0 85be
00000090: 1f7f b3bc 1875 923d 6eff 8abe f328 8dbd
000000a0: 2b9b bd3d a04b 25bd beae 093d f80b 83bd
000000b0: fc61 db3e a5e9 4bbc 8400 36be 9cbe ef3e
000000c0: fb57 5cbe 586c 5bbb b190 af3d 1a94 9dbe
000000d0: 656c 373e 6f12 9abd 9468 a1bd 78e9 78be
000000e0: 545a 42be 5a82 4fbd fecd 1abe bb5c 25be
000000f0: 8060 66be ccc6 083e 99fe af3c ca9d acbe
00000100: f33b afbc 9d3d 1a3f 8154 043e 1f25 3fbe
00000110: 623f a73e e4fd ac3e d6d0 0abe cded 87be
00000120: 2d2e e33d 107a 8a3d a506 003e bc10 9fbe
00000130: f6d2 183e 0e0f b1bd 3d3a 40be e899 cc3e
00000140: 5919 293f 3167 b5bd 4039 87bd fd1a ed3d
00000150: 0649 16be b324 61be 36f7 9d3d 7ea4 54be
00000160: 8d4d 003d ef0a 3ebe 194e 38bc 2106 353e
00000170: b5bd 06bb 3351 f53d 3a59 4bbc 6a90 f23d
00000180: b287 5a3d 4207 f33d e429 963e 3b21 0e3e
00000190: ed00 babe f513 153c 775d 62be 4528 2e3e
000001a0: 4795 01be 8ca4 553e bbde d9bd 132e 14be
000001b0: e792 913d 9265 d5be 3ab0 17be 3062 4abe
000001c0: 56b5 aabd 35ff 343e 0dbd cebd 4549 b43d
000001d0: 53fa a0bd 3245 75bc 53c8 843c 4d3c 05be
000001e0: 9aff cd3e e629 18be 2955 453e a28f 2cbe
000001f0: a17e 2e3d ecf4 8f3d d35a f23e cb16 833d
00000200: 2247 1fbe f6ea 863e a31b 9ebd a7b1 d4bd
00000210: 4ef6 f03d 46ad 193d 5b1f d1be caaa 7a3d
00000220: f20a 8abe 6216 a9bd 8c3d c0be 7a48 bbbe
00000230: e5c7 18be 8ecc 613c 719d bebe af2d 4b3e
00000240: 23b2 583e bc3c 863e 5673 09bd f7c7 80be
00000250: 5d2f c0bd 9578 17be 99b2 55be 3acd 18bd
00000260: 99a9 cd3e 8391 cdbd bec7 153e 8d1f 04be
00000270: a141 ad3c de32 563d 89f1 783e 96b9 25be
00000280: b660 c3bd d4be 933c 652f d03d cca1 97be
00000290: eaed 76be c540 92be 5e54 48be 8a9e febd
000002a0: 5b5b 4abc 67cc 5abe 83ed 263e e491 2f3e
000002b0: cadc 113c ddeb 443d edf4 03be 80c9 c73e
000002c0: cbb1 d4bd a0d1 a03c e1c4 9abd 586e d93e
000002d0: 54d0 6e3e c41e 9ebe 5521 68bc 1e8f 2b3f
000002e0: ba84 d63d 195c 6fbe 2fee f8bc 64ae 15be
000002f0: 3cd1 3fbe 7b91 f4bc cb86 4e3c ff94 05be
00000300: 18e7 0dbe 176f d3be 7e2f 6bbe 9a37 8dbd
00000310: 28e6 52be 70b3 863e 6dd1 e13d b8a3 623e
00000320: ea38 a73e 15c9 b93d 4b6a c8be 8660 75bd
00000330: 9785 a33e 33fe 823e 704e 9b3d fc96 b7bd
00000340: 673b f93e c6d3 323e a7b1 a73d 8091 e43e
00000350: 1e2f 28be 70c4 9d3d 4ca5 ca3c 9ff2 f83e
00000360: 1abb 903c 0679 9fbe 1b74 92be d4d4 fbbd
00000370: c672 c7be b7cd 6ebe d773 ac3e 81d9 593e
00000380: de4a 96bd c9c7 61be c7b0 91bc 4a73 82bc
00000390: 66b9 033e 5c90 d73e 7459 0bbe 08de 383d
000003a0: 9536 703e 0be2 453d 0f95 96be 6fa0 053e
000003b0: f73d 3bbe 8e8f 183e b42e f3bd 0965 7dbe
000003c0: 337a 9ebe 5fd9 cc3e 51af 67bd a518 dabe
000003d0: f3f9 10be 295b 693e 9d7d 62be 5d78 313e
000003e0: 4770 083d d553 c5bd af4d 7bbe 2044 a3bd
000003f0: 0ee3 0b3e f097 fa3d 8832 e73d 7891 98bd

tfeb.14.weight f4 [10]
1.6332487 2.0149896 1.974439 2.0757058 2.1335576 2.3698637 2.2427652 2.0622475
2.2098794 2.1627882
00000000: 4b0e d13f 97f5 0040 6bba fc3f 5dd8 0440
00000010: 358c 0840 d9ab 1740 7789 0f40 ddfb 0340
00000020: aa6e 0d40 1f6b 0a40

tfeb.14.bias f4 [10]
0.5839596 0.31219575 0.7099407 0.35015097 0.45434403 0.064217985 -0.013605278 0.16906594
0.28790468 -0.35797018
00000000: 607e 153f 1fd8 9f3e acbe 353f fd46 b33e
00000010: c89f e83e b884 833d ace8 5ebc 9f1f 2d3e
00000020: 3e68 933e de47 b7be

tfeb.14.running_mean f4 [10]
-2.111051e-05 -0.01728096 -0.09790658 -0.044019513 0.0869253 0.028462887 0.030844398 -0.22429936
-0.06994127 0.040114302
00000000: 7a16 b1b7 cd90 8dbc 3f83 c8bd ce4d 34bd
00000010: e405 b23d 002b e93c 64ad fc3c bbae 65be
00000020: 5e3d 8fbd e54e 243d

tfeb.14.running_var f4 [10]
0.06340928 0.07048669 0.074795835 0.045917287 0.074415386 0.08271913 0.07568519 0.07030655
0.0761599 0.06545139
00000000: b9dc 813d 535b 903d 8f2e 993d c413 3c3d
00000010: 1867 983d a668 a93d d600 9b3d e1fc 8f3d
00000020: b9f9 9b3d 610b 863d
