torch/trained_models/k_16_c_4_us8k_mixup_2_newlr_fold1.pt (torch, 380668 bytes, 41 tensors)

sfeb.1.weight f4 [8]
00000000: 0aa7 9a3e cbc7 993e 1944 f43f e5c3 993e
00000010: 06c4 993e 35e2 993e 90ab 993e 6dbf 993e
0.30205566 0.30035242 1.9083282 0.30032268 0.30032367 0.30055395 0.30013704 0.3002886

sfeb.1.bias f4 [8]
00000000: b008 fbbc 4089 4fbc 5ff0 ab3e 4f34 68bc
00000010: da82 d1bb 4352 f8bc e288 7cbc b5f1 85bc
-0.030643791 -0.012667 0.33581826 -0.014172628 -0.0063937725 -0.030312663 -0.015413495 -0.016350606

sfeb.1.running_mean f4 [8]
00000000: 7b36 2231 110c 3d30 47ef 1832 6a07 1430
00000010: 998a 38af 7227 8e31 63dd 7730 6796 cfaf
2.3605071e-09 6.8774947e-10 8.90197e-09 5.385262e-10 -1.6783942e-10 4.1372283e-09 9.0172686e-10 -3.7759948e-10

sfeb.1.running_var f4 [8]
00000000: cad5 1f2c ef1f 562a a94b 3e2e 9cec 312a
00000010: 5645 a429 e2fc d62c ef3b 692b 8e9f 002b
2.2713936e-12 1.9018097e-13 4.3268198e-11 1.5802848e-13 7.295091e-14 6.1103215e-12 8.2861403e-13 4.569616e-13

sfeb.3.weight f4 [64, 8, 1, 5]
00000000: 634a 1bbd 43d7 d4bd 0ae0 83bd 9074 edbc
00000010: 9338 e5b9 4773 443b 9ed1 c2bc 672e 2d3c
00000020: dd2f 9fbd 17e2 f93d 9d1d 29be 82b7 073d
00000030: c4af db3d cb5c cbbb 40a2 0bbe be75 b03b
00000040: 8d9e 2dbd f9b2 4bbd ff94 f83d 4d35 813d
00000050: dd88 d3bc f01e 353d 2e7f 513d 325b 31bd
00000060: c6da 79be ae71 16be 0f65 913c be0d 1abd
00000070: e8b8 c73d 3b2c a3bc 1492 01bd 7617 cebd
00000080: 6907 1e3e 4de7 e23d 863f b53d 0acb 4f3d
00000090: bf55 ab3d b4e1 583d 451d d53d f64c 27bd
000000a0: 6354 3abe af2d 28bd a021 a43d 3f4f 03bd
000000b0: 3299 1b3e de48 a13d 15e3 713d de85 56bd
000000c0: f5e0 abbb d0be ccbc 6aff 7c3c 17ca df3c
000000d0: b79e a83b 9a2f 7c3d ab7d ff3d 1b40 3c3d
000000e0: 1d2e 0c3d 93a9 56bd 2a57 363d 5552 343d
000000f0: 27f4 803b 07ed 583d e269 95bd 98ab 903d
00000100: d13b d6bc 97c3 ca3d 395f 3cbc 869a 0fbe
00000110: ac17 5b3d 9673 083d dbe9 253d 75c0 0fbd
00000120: da75 8e3d 1b52 123d cd0d adbc 7fa3 b83a
00000130: 6137 70bb 0772 5fbd b994 8fbc 8ea3 3ebd
00000140: cf0a d53d 1bfa 1ebe 6e1d 17be 6d60 ae3c
00000150: 2a2f 533d 8c6c 37bc 0818 50ba 0967 f8bb
00000160: 9f35 3cbd e2eb abbd a278 f43d 79d7 0bbd
00000170: b4d4 ca3d e6ea 6dbd 00bf 173e 022a 713d
00000180: 3c10 fc3d 8430 29bd 67f1 26bd cf95 0dbe
00000190: e740 d23d 5bf4 b93c abcb 523c 71e6 333c
000001a0: dc9e 383d 69ad e1bc 92e4 11bd c120 8b3c
000001b0: 231a 5bbc 29ac 273d 57c6 c5bd 5f71 e43d
000001c0: 1ec0 c33c 4860 f9bd 96d7 ff3c 58d4 16bd
000001d0: fbbd 91bd fd8d 3f3c 2e44 d23c c582 57bc
000001e0: 38ef 27bc 4fea 2c3d 43cb 28bd 7acc 94bd
000001f0: 5ab8 b5bd e671 cf3c 68cb 80bb 88f3 cabd
00000200: 22d4 87bd 1055 cc3d 960d 83bd 9d39 0ebe
00000210: 904e cabd 91b0 053e 0d6a 2a3e 24cf cabd
00000220: 852e 6ebd 78ac af3d 4c2c c23c cc3c a5bb
00000230: 8083 df3c 173c 133d 5861 97bb 7211 29bd
00000240: c45d 943c 5254 0bbb 5655 afbd 502f 2fbd
00000250: cf79 51bd f7ae 00bd 6391 a5bd c1d9 28be
00000260: 6012 07bd 7153 dbbd 17a7 823d 468f eabc
00000270: 7dca cbbd 53f2 f7bc 449b 743d e29a 9ebd
00000280: 35c1 123b 26bc 0cbd b0b4 34bc 580d 99bc
00000290: 9ac7 82bc 22b6 08be cf09 aebd 4dc3 a8bc
000002a0: 1add 663d 3030 01bd df8c 49be 2f39 09bd
000002b0: 79c6 c33d 5380 6d3e 8324 d6bd 80db 7ebb
000002c0: 1a0d edbd 055f 88bd 74c5 063e 05c4 8fbb
000002d0: f81a 213c 5b40 9c3d 11fc 93bc b83e 7bbd
000002e0: b1fb 3c3d a421 d73d ca22 8b3d bb0d 9ebd
000002f0: 6cd7 59bd 98ba b0bc bc24 163d 4226 aebd
00000300: c115 1f3d a995 b9ba 49f2 17bc 559a da3b
00000310: a93a 33bc f7c7 503c 33bf acbd 065b 8d3c
00000320: a291 93bd ad03 30bd 8e00 2fbd ea43 e7bd
00000330: 6dd7 393d 41c2 083e df9c 603d bac4 c9bd
00000340: f291 e43d d0d5 c7bd 0bec 033e e8cf b83d
00000350: 09e8 b53d b2f3 c43d e688 d13d befd 503d
00000360: 134d 8bbd 959a bfbd 6db2 733d 1437 7c3d
00000370: 9abb 053d 3262 8ebd 1442 323c b646 bebc
00000380: b44b 543d 4883 8b3a ca0b 3b3d a970 0fbc
00000390: 7513 d63b 81f4 5a3d 2ca5 14be 4ba7 1cbd
000003a0: e58f 09be fffe a8bd 2447 713d d8dc 0fbe
000003b0: 374f db3d 0330 303e fc7b 0bbc bade 7e3c
000003c0: a031 5a3d 6748 a7bc d85d 3a3d 8d62 383e
000003d0: 40ea 6dbd 01fa 1e3b c93e 973d 2118 9abc
000003e0: 3f12 123d fb58 123d 5e77 0c3e 5991 413e
000003f0: c3a4 e43d c518 ee3d aa1c 433e d3ed 833c
-0.037912738 -0.103926204 -0.064392164 -0.028986245 -0.00043720435 0.0029975937 -0.023781594 0.010570145
-0.07772801 0.12201326 -0.16515203 0.03313399 0.10726884 -0.00620613 -0.13636112 0.0053851297
-0.042387534 -0.04973123 0.12137794 0.063089944 -0.025822097 0.044218957 0.05114668 -0.04329986
-0.24399862 -0.14691803 0.017748384 -0.03761076 0.09752065 -0.019918552 -0.03163345 -0.100630686
0.15432514 0.110792734 0.08850007 0.050730743 0.08365964 0.052949622 0.10405973 -0.04084488
-0.18196253 -0.041059192 0.08014226 -0.032057997 0.15195158 0.078752264 0.059054453 -0.05237376
-0.005245323 -0.02499333 0.015441755 0.027318044 0.0051458734 0.061568834 0.12475141 0.045959573
0.034223665 -0.052407812 0.04451672 0.04402383 0.003935355 0.052960422 -0.07295586 0.07063979
-0.02615157 0.09900587 -0.011497312 -0.1402379 0.053489372 0.033313356 0.040506225 -0.03509565
0.06956072 0.035722833 -0.021124745 0.0014086812 -0.0036654102 -0.054552104 -0.017526971 -0.046542697
0.10402452 -0.15525095 -0.1475732 0.021286214 0.05155865 -0.011195313 -0.0007938151 -0.007580642
-0.045949575 -0.083946005 0.119370714 -0.034141038 0.09903851 -0.058085345 0.14818954 0.058877952
0.12307784 -0.041306034 -0.040757563 -0.13826679 0.102662854 0.022699526 0.012865941 0.0109802345
0.045073375 -0.027548509 -0.035618372 0.016983392 -0.013372931 0.04093567 -0.09656971 0.11154436
0.02389532 -0.12176567 0.03123073 -0.0368236 -0.07116314 0.0116915675 0.025667276 -0.0131537365
-0.010249905 0.04221564 -0.04120947 -0.07265563 -0.08873053 0.025322866 -0.003930498 -0.09909731
-0.06632258 0.09977162 -0.06399076 -0.13889165 -0.09878266 0.13055636 0.16642018 -0.0990279
-0.058149833 0.08577818 0.023702763 -0.005042648 0.027284384 0.035945978 -0.0046197586 -0.041276403
0.018111117 -0.0021259976 -0.085611984 -0.04276973 -0.051141556 -0.03141686 -0.08084371 -0.16489317
-0.03297651 -0.107092746 0.06379526 -0.028632771 -0.09950731 -0.030266916 0.059718385 -0.07744385
0.0022392992 -0.03435912 -0.011029407 -0.01868312 -0.015964318 -0.13350728 -0.084979646 -0.02060094
0.056363203 -0.031540096 -0.19682644 -0.0335018 0.0955934 0.23193483 -0.10456183 -0.0038888156
-0.115747645 -0.066587485 0.1316126 -0.004387381 0.00983309 0.07629462 -0.01806453 -0.06133911
0.04613847 0.10504463 0.06793745 -0.07717463 -0.053183958 -0.02157335 0.036656126 -0.08503391
0.038839106 -0.0014158982 -0.009274074 0.00667123 -0.010939279 0.012742988 -0.08434906 0.017255317
-0.07205512 -0.042972255 -0.04272514 -0.112922505 0.04537146 0.13355352 0.054837104 -0.09851976
0.11160649 -0.097575784 0.12883012 0.0902403 0.08882148 0.09616794 0.102311894 0.051023237
-0.0680181 -0.09355656 0.059496332 0.061575964 0.032649614 -0.06952323 0.010880012 -0.023227077
0.05183001 0.0010643983 0.04566554 -0.008754888 0.006533081 0.053455833 -0.14516133 -0.03824548
-0.13433798 -0.08251762 0.058905736 -0.14049089 0.107084684 0.17205815 -0.008513447 0.015556032
0.053269982 -0.020420266 0.045499653 0.18006344 -0.058084726 0.00242579 0.07385022 -0.018810334
0.035661932 0.03572939 0.1371741 0.18903102 0.11164238 0.11625818 0.19053903 0.016104614

sfeb.4.weight f4 [64]
00000000: 7e7e 983e dbff 7f3e 74ea 4b3e 4a80 d13e
00000010: 18a3 af3e 89d3 d23e 677c 043f d205 363f
00000020: 8be5 9d3f dc4a 493f d7a4 ca3e 4df5 153f
00000030: 67dd 123f 7d0f c03e 98d1 193f a316 ab3e
00000040: 3959 c53e 4085 ab3e 8b6d 1a3f 2489 003f
00000050: 4db8 543f 0403 d83e 6c71 303f a52a 493f
00000060: 3454 3c3f 02ce 3a3f 99a1 a03f 532b 823f
00000070: 2f40 783f 59f0 603f 066d 643f a5d9 2e3f
00000080: 4de0 9f3f 531b 963f fff8 573f a966 713f
00000090: 8db7 763f 5a8c 0f3f 911e 1b3f eb19 3b3f
000000a0: 41d0 6f3f 916e f83e 5b13 723f 1d6a 4a3f
000000b0: 0b11 403f b288 7a3f 97bb 673f 5019 5a3f
000000c0: 8cc7 5c3f 10b3 2c3f fb32 123f 5a49 0d3f
000000d0: 64c9 023f 72ff 3a3f 6b07 d33e a09a d33e
000000e0: 947e d03e b17f 173f cf75 033f ebb0 df3e
000000f0: 31ba 6f3e 71c7 c43e 685a 9c3e 0b57 c03e
0.29784006 0.24999945 0.19913656 0.4091819 0.34304118 0.41177014 0.5175232 0.7110263
1.2335676 0.7862985 0.39578888 0.58577424 0.57369083 0.37511817 0.6008544 0.33415708
0.38544634 0.335001 0.603234 0.5020926 0.8309372 0.421898 0.6892307 0.78580695
0.73565984 0.7297059 1.2549316 1.0169472 0.96972936 0.8786674 0.89228857 0.6830085
1.2490326 1.1727089 0.8436431 0.9429727 0.96373826 0.56073534 0.60593516 0.7308642
0.93677145 0.48521855 0.94560784 0.79068166 0.75026006 0.9786483 0.90520614 0.85194874
0.86241984 0.6746073 0.5710904 0.5519005 0.5108855 0.7304603 0.41216597 0.41328907
0.4072157 0.59179217 0.51351637 0.43689665 0.2341087 0.38433412 0.30537724 0.3756641

sfeb.4.bias f4 [64]
00000000: a0fd d9bc 0713 f3bd 3ead e5bc 68c8 c03c
00000010: a4d9 733d e7e2 2b3d baa1 183e 990d ba3c
00000020: 0117 003d 0bd2 513d adda c03b 80f6 763d
00000030: 2430 aa3c b4c2 9b3b 2416 68bb e964 a93c
00000040: a8f1 7a3c c199 ae3c 529c 493d 6a2b a63d
00000050: 5c72 153e 7a0d 573d 453f f73d dccc 833c
00000060: 22a9 523d 6a47 5e3d 2536 c53c 6a48 003e
00000070: d6b1 3a3e 6398 103d d3a3 9d3d e137 e33c
00000080: d975 333c a330 183d ec24 a53d 631c a93d
00000090: 9668 643e 1a64 103d 019d 5c3d ade6 6c3d
000000a0: 3ca9 4b3c 82e9 343b 9bec 613d 512f 1b3d
000000b0: b1f7 0c3d f1e4 b53c 3d1d 7b3c b81e aa3d
000000c0: ba13 013d 6bbf c03c b21b 033d 6c0d a73c
000000d0: 00c6 2f3d e36d d23d 97eb 183d 6b7f 833d
000000e0: 8a85 053b 62db 603d 33f6 763d 71d8 443d
000000f0: ddfb edbb ed1a 3a3d cd1a 91bb 5baa e2b9
-0.026610196 -0.118688636 -0.02803671 0.023533061 0.05953373 0.041964438 0.14905444 0.022711562
0.03127194 0.051225703 0.005885443 0.060293674 0.020774908 0.004753435 -0.0035413587 0.020678
0.015316404 0.02131355 0.049221344 0.08113749 0.14594406 0.052503087 0.120726146 0.016088895
0.05143083 0.054267325 0.02407367 0.12527624 0.18231902 0.035301577 0.076972626 0.027736606
0.01095339 0.03715576 0.08063683 0.082573675 0.22305521 0.035251714 0.053860668 0.057837177
0.012430485 0.0027605002 0.055157285 0.03788692 0.034415904 0.022203894 0.015326795 0.083066404
0.031512953 0.023528775 0.032008834 0.020392142 0.042913437 0.102748655 0.03733405 0.064207874
0.0020373785 0.05489672 0.060293388 0.048057977 -0.0072626905 0.045435835 -0.0044282437 -0.00043233004

sfeb.4.running_mean f4 [64]
00000000: 0223 66bd 9d17 a13d 9aaf bc3d 8706 ceba
00000010: c76e 21bb aa1f 2e3e 1909 803e 7be3 943e
00000020: 4cf4 93be 2afa 643e f1f6 573e 05b6 4fbc
00000030: 8510 30be d7e2 19be b3a5 84ba cd27 16be
00000040: 7e5a 9ebd 034a f8bd 4b16 183e 712c 1d3e
00000050: 3e87 b7bb b1f0 a1bd ae81 4b3e d4ea 303e
00000060: a3e8 5cbe 0df5 fe3d 1eb7 f23b d3f1 c13c
00000070: 915a 43be 8018 f738 d05c 4fbc eb69 97bb
00000080: 8677 7aba b4ed 06bc 20ed 203c 025d c7bb
00000090: 5758 693e bb27 f43d a89c 14be 91bb efbb
000000a0: 7aef 173a 07d6 853b 2688 053c 8427 f339
000000b0: 349e 8abd 7baa f53a 46cf 1dbc 8307 07bc
000000c0: 2acf 6c3a d5c7 daba d004 e43b d7b5 07bb
000000d0: 7805 57bb fb4e 11be d261 093a 39a2 0c3e
000000e0: e376 2d3d 91f8 93ba e6f0 053c e09d 273b
000000f0: 3fab 26bc 240e f93b 24e1 9fbd 3672 1f3e
-0.05618573 0.07865832 0.09213181 -0.0015718498 -0.0024632679 0.17004266 0.2500694 0.29079804
-0.2889732 0.22361055 0.21090294 -0.012677674 -0.17193802 -0.15027939 -0.0010120183 -0.1466362
-0.07732104 -0.121234916 0.14852254 0.15348984 -0.005600839 -0.07907236 0.19873688 0.1727708
-0.21573119 0.124490835 0.007407083 0.023674881 -0.19077517 0.00011782441 -0.012656406 -0.0046207807
-0.00095545535 -0.008235384 0.00982216 -0.0060840854 0.22787605 0.119216405 -0.14512885 -0.007316061
0.00057958777 0.004084352 0.008150136 0.00046378013 -0.06768456 0.0018742824 -0.009631937 -0.008241537
0.00090335554 -0.0016691635 0.0069585815 -0.002070775 -0.0032809656 -0.14190285 0.00052407116 0.13733758
0.042349707 -0.0011289289 0.00817511 0.0025576279 -0.010172664 0.0076005626 -0.07806614 0.15570912

sfeb.4.running_var f4 [64]
00000000: db2c ee34 83fd 2635 a2b3 3c35 cb1e a435
00000010: d310 8335 da3a 2836 5666 b636 cb80 f436
00000020: aa42 ec36 b823 8e36 0c52 a236 0f64 fd35
00000030: 783a 2436 c7a4 0036 c497 cc35 6fb7 ef35
00000040: 79b9 a435 51bf 2c36 68b9 0336 8146 0636
00000050: a42b 1636 3c95 db35 8625 7d36 343d 2336
00000060: 8ac3 8936 9e2e f335 bf5b e335 c77f 2736
00000070: a3a5 6636 a21c d435 0e52 1e36 c12f c135
00000080: c8ee 0536 9311 3036 5941 5336 1d5f 4836
00000090: 2c05 a036 d4ba 5a36 df76 8f36 b6d6 9c36
000000a0: 7f29 7836 061d 2036 f82e 6236 7402 3e36
000000b0: e3b6 1736 a94b da35 6c93 b835 b01a 1936
000000c0: e589 bc35 d6d2 6d35 fa3f 6335 ff32 6a35
000000d0: a349 8c35 8fbc e835 0472 7435 7aef e335
000000e0: 16fa 9135 8249 ce35 0ce0 b635 d19a 8935
000000f0: 39a9 3e35 7fc1 1435 134e 4935 9560 0a36
4.436359e-07 6.2208727e-07 7.029686e-07 1.2227914e-06 9.765157e-07 2.5068207e-06 5.435936e-06 7.28676e-06
7.041109e-06 4.236088e-06 4.8375277e-06 1.887909e-06 2.4471938e-06 1.91694e-06 1.5243354e-06 1.7860274e-06
1.2272932e-06 2.5741358e-06 1.9628442e-06 2.0008595e-06 2.2377144e-06 1.6360204e-06 3.772178e-06 2.4324518e-06
4.105682e-06 1.8118478e-06 1.693952e-06 2.4959315e-06 3.4369084e-06 1.5803564e-06 2.3591597e-06 1.4393519e-06
1.9957533e-06 2.6236273e-06 3.1479487e-06 2.9857686e-06 4.7689737e-06 3.259328e-06 4.2755705e-06 4.674158e-06
3.6979034e-06 2.3858752e-06 3.3703964e-06 2.8313634e-06 2.2607207e-06 1.6264286e-06 1.3751974e-06 2.281431e-06
1.4047224e-06 8.8596187e-07 8.465719e-07 8.7246e-07 1.0452244e-06 1.7340225e-06 9.1063e-07 1.6982515e-06
1.0876126e-06 1.536959e-06 1.3625263e-06 1.0252353e-06 7.1026767e-07 5.541587e-07 7.499195e-07 2.061982e-06

tfeb.0.weight f4 [32, 1, 3, 3]
00000000: 8230 adbe 8ac8 ddbe 2fc6 9abe b00f 5f3e
00000010: 6f0b af3e 4a47 ae3e 4bdf 90bd fe66 aebd
00000020: 0a84 21be 99d4 ba3c b0ed 0fbf 8801 6b3e
00000030: 9bf9 b23e 93d3 1bbd dcbb 443e 9c4b e3be
00000040: e248 a3be 6437 4e3d 26bc 6abe 801f 30be
00000050: 57a7 c63e 4ad9 cbbe 5718 b0be 478d ae3e
00000060: c789 babe be43 94be 5a7c f53e f955 833e
00000070: 8c9e c43e c861 5dbe 17ca 3dbe 59cf 06bc
00000080: e40e 18bf 6786 003e a438 dc3d 86e5 08bf
00000090: e60a f93e 09d0 57be 8fbd 03bf deaf b53e
000000a0: d0b0 b6bd c2d7 b9be 0481 ef3e ab9f 58be
000000b0: 3e26 d4be 28a7 a5be 6d5c 0f3f 97f6 a7be
000000c0: ec1f c9be d718 363f 005e ebbe 6dc7 273e
000000d0: 8add 90bd 9ca3 0bbe 4ce0 dfbe c989 54bd
000000e0: b4b7 8fbd 2374 e9bc cf07 a3be 6bfc 45be
000000f0: f9bf 78bd 26db 8fbc 7ed2 9bbd 3a42 70bd
00000100: 9a39 243e 3022 7fbd e152 a6bd f0da 653e
00000110: 252a 05be 5523 d43d 4ebe 1e3e cb8b 003e
00000120: a950 e03e 420f 693e 7420 923d 6785 ce3d
00000130: c25b f0bd 73b7 bdbe 2096 27be 9f8b d6be
00000140: 05d3 39be a711 d43d c51c 18be 2e2e 283d
00000150: 3a19 133e 248b 953e 18da 2bbe 0952 ad3e
00000160: 50a3 e5bd 0446 0bbe 7eb4 9b3d 85b6 243e
00000170: 3e5f 743e 4d43 1fbc da2c d03d 366b 773e
00000180: 0543 bfbd 0922 c9be ae6c 14bf 1ebd 07be
00000190: cf1a 9bbd a5e9 2a3e 0170 54be 6ae3 23be
000001a0: 9292 523e 45e5 ecbe 0d07 08be a42a b53e
000001b0: 5894 08bf a195 b93e 6197 9f3d 50a8 dcbe
000001c0: 71df 9c3e 46db fd3c 8fa9 a4be 6496 853e
000001d0: 799c 33bc 1b7a 4d3e a28f 7a3c a848 483e
000001e0: a74a 5ebe f02a a1bd 23e5 25bd 960e bf3d
000001f0: 51a8 8bbd fe57 103d 717a 8f3e 59fb 21bf
00000200: d857 d23e d807 aebe edc1 dc3e c301 d1be
00000210: c573 21be 3513 da3e 8af8 b7be 9515 b63e
00000220: c780 e73c 9bfe 60be 25e9 f93d 17a9 a13d
00000230: b9e9 8bbc ab6d 923d f244 f6bc 69dd 85bd
00000240: ea28 713e bd34 903d 5b87 c0be b2af 27bd
00000250: 5cd1 dbbd 6e0f 1ebf cae9 193f 311e 993e
00000260: 12ee 94be 8722 afbc a7e1 9f3e 3ed5 bfbd
00000270: 5c9c dd3c 813b 6e3d 7c00 7dbe 64ab 303e
00000280: 859b 21be b04b 28bd d2aa 8a3c e3c3 133e
00000290: f4d3 113e 499e abbe 6e6c b8be c7bb 14bf
000002a0: e58e 513e f130 a63c 8944 803e c595 e93d
000002b0: 6fe0 fd3d 0871 233e 3cc3 103e 8b76 22be
000002c0: ec27 2bbe 1a8f 57be 2383 cbbe 90ad 9bbe
000002d0: 1646 cabe 889c d8be 9fb7 f1be f31b 22bb
000002e0: fef4 3f3e 247e 9e3d 1b23 e73d 050a bc3d
000002f0: 286d 983e 7a1c a63e 2003 c4be 54c2 7ebe
00000300: d92a 54be 7d3b 4abe c0c1 903e 8e23 503e
00000310: 676c 32be ddcb f53c e526 413d cc5b 7fbd
00000320: b890 28be 547a dfbd 4e41 77be 5eb9 003c
00000330: 3779 dbbd 65c1 8bbe d007 46be e0d2 863e
00000340: b3f9 49be a4bb 61bd 29d6 1abf 935a 0f3e
00000350: 7d42 c23d 4ee5 0e3d 5a2a 4eba 1b92 a03c
00000360: a4e2 233e b1f1 8c3c 1fe3 b6be 5c1c 943d
00000370: 1fba 90bd 62d2 60bd caa6 553e 681f 6fbc
00000380: 99ad 0fbe 061d 323e 0da6 f43d 814a 9b3c
00000390: 30ba 893e 2a9f 983d e07c 20be bafa 36bd
000003a0: 7c47 13bd dac9 acbd 49e1 d93a 762e a23c
000003b0: 7bef ab3d 924a 4e3e a334 8bbe cee3 d9bd
000003c0: 8a82 ca3e 8e7f d4be 1410 893e 7cb6 653d
000003d0: 6b2f b93d d176 153e ef33 1cbe b292 33bd
000003e0: 066a 84bc da00 abbe 8559 f6be e5d5 83bd
000003f0: 87e8 bcbe d8e9 93be c022 193f 1a8f b13e
-0.3382607 -0.43317062 -0.30229327 0.21783328 0.3418841 0.34038764 -0.0707384 -0.08515738
-0.15773025 0.022806453 -0.5622206 0.22949803 0.3495606 -0.03804357 0.19212288 -0.44393623
-0.31891543 0.050345793 -0.22923335 -0.17199516 0.38799545 -0.39814216 -0.3439357 0.3409216
-0.3643324 -0.28957933 0.47946435 0.2565153 0.38402212 -0.21619332 -0.18534122 -0.0082281465
-0.5939772 0.1255127 0.10752991 -0.53475225 0.48641127 -0.21075453 -0.5146112 0.3548574
-0.08920443 -0.36297423 0.4677812 -0.21154658 -0.41435426 -0.32354093 0.56000406 -0.3280532
-0.39282167 0.7113165 -0.45970154 0.16384669 -0.07073505 -0.13636631 -0.43725812 -0.051889215
-0.070174605 -0.028497761 -0.31841895 -0.19334571 -0.060729954 -0.017560553 -0.076085076 -0.05865691
0.16037598 -0.062288463 -0.08121277 0.224468 -0.13004358 0.103583016 0.15502283 0.12553327
0.4381154 0.22759727 0.07135096 0.10084038 -0.117362514 -0.37054023 -0.16365862 -0.41903397
-0.18146904 0.103549294 -0.14854725 0.041059665 0.14365092 0.29207718 -0.16782415 0.3385165
-0.1121279 -0.13600928 0.076027855 0.1608525 0.23864457 -0.009720636 0.10164805 0.24161991
-0.09338955 -0.3928378 -0.5797833 -0.13255736 -0.07573473 0.16690691 -0.20745851 -0.1600472
0.20563725 -0.4626867 -0.1328394 0.35384095 -0.53351355 0.3624697 0.07792545 -0.43097162
0.30639222 0.030988347 -0.32160613 0.260913 -0.010962599 0.20066111 0.015293034 0.19558966
-0.21708165 -0.07869518 -0.040501725 0.09328954 -0.06819213 0.035240166 0.28023103 -0.6327415
0.41082644 -0.3399036 0.43116704 -0.40821657 -0.15766819 0.4259278 -0.35931808 0.3556334
0.028259648 -0.21972124 0.12202672 0.078935795 -0.017079221 0.07149824 -0.030062173 -0.06536371
0.23550764 0.07041309 -0.37603268 -0.04093904 -0.107332915 -0.61742294 0.6012236 0.29905847
-0.29087883 -0.021378769 0.31226847 -0.093668446 0.027052097 0.058162216 -0.24707216 0.1725288
-0.15781982 -0.041087806 0.016927157 0.14430194 0.1424101 -0.335192 -0.36020225 -0.58099025
0.20464666 0.020287009 0.25052288 0.114055194 0.12396323 0.15961087 0.14136976 -0.15865533
-0.16714448 -0.21050683 -0.39748487 -0.30405855 -0.39506596 -0.42306924 -0.47210404 -0.0024735897
0.18745801 0.07738903 0.11285993 0.091815986 0.2977078 0.324436 -0.38283634 -0.24878818
-0.2071947 -0.19749255 0.2827282 0.20326063 -0.17424165 0.030004436 0.047156233 -0.062343404
-0.16461456 -0.10912004 -0.24146006 0.007856695 -0.10716479 -0.27295986 -0.19338918 0.2633276
-0.19724159 -0.05511059 -0.6048303 0.13999395 0.09485338 0.03488665 -0.0007864587 0.019600919
0.16004425 0.017205091 -0.35720155 0.072319716 -0.0706675 -0.054888137 0.20864406 -0.01459489
-0.14031066 0.17393884 0.11945734 0.018956425 0.26899862 0.07452233 -0.15672636 -0.044672705
-0.035956845 -0.08436938 0.0016622926 0.019797545 0.08395287 0.20145634 -0.27188596 -0.106391534
0.39552718 -0.41503567 0.2677008 0.056082234 0.090422474 0.14596106 -0.15254186 -0.04384107
-0.016163837 -0.33399087 -0.48115173 -0.064372815 -0.36896154 -0.28889346 0.5981865 0.3467949

tfeb.1.weight f4 [32]
00000000: d859 e83e b562 de3e 27c6 d83e 3457 0a3f
00000010: 77d1 dd3e d27f a43e d507 cf3e 3f1a 263e
00000020: 02a6 dc3e 461e 1e3e e64f d23e 575d 1e3f
00000030: 5442 853e 17d4 da3d adbd b63e 80b2 cb3d
00000040: 8e0c 903e ceb6 ca3d 1dbf 0c3f a7f3 e53e
00000050: fee9 023f 22b1 cd3e 63df 353f 008c fc3e
00000060: 687c ac3e de17 aa3d 51aa 023e 0642 3a3f
00000070: 6317 a23e 07d2 723e f161 083e 7ec6 b13e
0.45381045 0.43434682 0.42338678 0.5403931 0.43323871 0.3212877 0.40435663 0.1622095
0.43095404 0.15441236 0.41076583 0.61861175 0.26027167 0.10684984 0.35691586 0.099461555
0.28134578 0.098981485 0.54979116 0.44912454 0.51138294 0.40174204 0.71043986 0.49325562
0.33688664 0.083053336 0.12760283 0.72756994 0.31658468 0.23712932 0.13318612 0.3472175

tfeb.1.bias f4 [32]
00000000: ee8e 53bd 9ee0 823c 050d 4dbc b105 00be
00000010: b282 e53c fed4 3cbd 9d29 dabd 29e8 82bd
00000020: a332 12be b58a c0be bc0a 87bd 0204 d8be
00000030: 2a82 9c3d 0ccc 29bd d0cd ccbc 11f3 743c
00000040: ce90 503e 20e2 cfbd 5afc 8cbc 4569 9c3d
00000050: 9af0 f3bd a580 b7bd 2dfb abbe cc4b 10be
00000060: 4f6d 23be 3dc8 803d 800a 4a3d d4cc 72be
00000070: fd98 02bd 69ad 4b3c 818a 9fbd 2f0b 893d
-0.05164998 0.015976246 -0.012515311 -0.12502171 0.028016422 -0.046101563 -0.10652468 -0.06391937
-0.14277129 -0.37605825 -0.06593844 -0.42190558 0.07642014 -0.04145436 -0.025000483 0.01495053
0.20367739 -0.10150552 -0.017210174 0.07637266 -0.119111255 -0.08960084 -0.3359007 -0.14091414
-0.15959667 0.062881924 0.04932642 -0.23710948 -0.031884182 0.012431481 -0.077900894 0.06691586

tfeb.1.running_mean f4 [32]
00000000: 7760 3dbe 4070 4dbe a33b 6abe 47f9 82be
00000010: 5366 43be 1625 d3bd d4ff f6be c035 2d3e
00000020: c780 25be 73d7 0b3e fb2b ccbd 9021 30be
00000030: b7a4 c6bd b8d6 4f3d 3a70 09be 5d57 ff3d
00000040: 36d9 b1bd 022f 643b fcfb 45be 288a 8abe
00000050: 6081 4cbe 9312 13be 736a d8be da4d f1bd
00000060: 2ff7 8cbd 3286 033e 062b 873d 494d 9ebe
00000070: 0d15 9ebd 52cc d73b f442 283e 971e 08be
-0.1849383 -0.20062351 -0.22874312 -0.2558081 -0.19082002 -0.10309808 -0.48242056 0.16915035
-0.16162406 0.13656406 -0.09969326 -0.17200303 -0.096993856 0.05074188 -0.13421717 0.12467835
-0.08684008 0.0034818058 -0.19334406 -0.2705853 -0.19971228 -0.14362554 -0.42268714 -0.11782427
-0.06883084 0.1284416 0.06600003 -0.3091834 -0.07718859 0.006585636 0.1643179 -0.13292919

tfeb.1.running_var f4 [32]
00000000: 0837 2e3e b215 0e3e 277f 433e 3c21 573e
00000010: 41c2 3d3e 6d2e ad3d e6dc cd3e 6954 733d
00000020: cfd2 113e 233c 4d3d 4fb4 ef3d f925 c43d
00000030: f336 a73d 0a0e b63c b5d2 8a3d 9827 2d3d
00000040: 9055 183e 2061 653c c124 2e3e 1a59 3e3e
00000050: 8c1d 483e b338 7b3d 4ccb 9d3e 0a41 2c3d
00000060: aeb9 e73c e079 353d e688 113d 2fa5 5a3e
00000070: 7536 333d 7a89 a93d 11f1 5c3d 4b2d 3e3e
0.1701318 0.13875464 0.19091474 0.21008772 0.18531133 0.08456121 0.40207595 0.05940667
0.14240573 0.05010618 0.11704313 0.09577555 0.081647776 0.022223491 0.067784704 0.042274088
0.1487639 0.014000207 0.17006208 0.18588677 0.19542521 0.06133337 0.30819166 0.042054214
0.028286781 0.044305682 0.035530947 0.21352075 0.043753106 0.08278175 0.053940836 0.18571965

tfeb.4.weight f4 [32, 32, 3, 3]
00000000: 8083 053e 4433 a63d f7b6 283d db1d 8a3c
00000010: 9417 223d b9cb 7b3d 6421 9bbd 5ddb 02be
00000020: 324a 6cbd 5460 003d 0e81 653b dc0b e13c
00000030: c0f1 ad3c 58cf c9ba 66a5 533d b035 55bd
00000040: 7c43 77bd 9ce6 9dbc 40ea e03c 3548 9b3c
00000050: e620 2d3c b518 0bbc d62f b8bc df26 74bb
00000060: 5a49 9a3c 9ff4 d63c 3dc4 2e3d 2634 1abd
00000070: c345 cfbc e7b9 13bd cd9c b0bd 49ba 2fbd
00000080: ee1d 50bd 2d1d 43bb af76 a73c 6375 dabc
00000090: a1b6 64bc 9eed 9f3c ba0a 0dbd d6e0 89bb
000000a0: 9b74 eb3c f1cc f4bc 2f0d 183d fc7a 39bd
000000b0: 91ec 133c 112f 2e3c 0b9d 363d 6ef5 d53c
000000c0: b4f3 e03d d35f 7c3d 2095 643d d0da 21bb
000000d0: cee2 a8bc d5f9 61bc 9bcd 863b a3a0 77bd
000000e0: 6719 87bc 88c1 b4bc 934f 89bd 10d6 26bd
000000f0: e7f8 01bd f919 fcbc 43ab a0bc 1365 3f3d
00000100: 5345 653c 248a 253d 181a b93c df05 50bc
00000110: 40b2 423d 7b40 37bd 2fb0 143c 81b9 6fbc
00000120: 7c46 1abd c2a1 89bd 0c46 79bd c6d3 45bc
00000130: 4660 cb3c 7ae1 d7bc 1d52 8c3d 6c14 3b3d
00000140: 576c 843c e0a5 313d f78b 1a3d 623d 3fbd
00000150: 322b 51bc 4896 d53b 06d2 fdbb 159c 35bd
00000160: 8d26 f0bc f6cb b5bc 6b66 31bc ccd6 ba3c
00000170: 7952 b6bb 8b4b a2bc 7290 09bd acd0 a2bd
00000180: ee50 0d3c 03dd 893d e9e6 e23d 8d09 df3b
00000190: 51e9 f03c 9ff7 3dbd 1255 c23c 97a1 d13c
000001a0: cc86 3abd 0b20 92bc f415 c83c 6856 84bc
000001b0: ce6d 213d 7624 4fbd d5ac c2bc 1094 543c
000001c0: e148 93bc ab93 64bc 2a7c 65bb 1e1a 8abc
000001d0: 49db 3abc 4805 d23c 6926 093d 1ad3 083d
000001e0: 8310 19bb c3af 0cbc 4e2d 8f3c 019a ca3c
000001f0: e490 a53b 0e89 27ba 7624 0bbb cd45 9d3c
00000200: 1b40 05bc cd36 143c 5b1e afbc da4d 8ebc
00000210: 7afd dc3c 0b4c 013d dc42 723d 70a8 e53c
00000220: 2c18 553c 657e 893c 795f f83c b938 5c3c
00000230: aa89 2b3d b731 b33c 38b4 b43a defd a6bb
00000240: b26d 44bb e9ec 22bd 5dfb b5bc a557 963c
00000250: 0c01 52bc 6c03 c1bc c4fa bc3c 844e a339
00000260: 8d45 93bc e0ab 0a3d 160a 48bc 1d58 083c
00000270: a132 f9bb 33cb dc3b bf65 3abd ee8c d53b
00000280: ed28 b8bc d55f 1e3c 3ffc bebc 9307 09bd
00000290: 65f7 2cbc 1b6e a4bc d70d ba3b 775c 1bba
000002a0: 6d34 0f3c 7308 7a3d f8cf 0abc c048 e1bc
000002b0: 0b5c 833c eb23 68bd a06e 85bd 50ff 5dbd
000002c0: 339c 38bd 5b26 233d 6376 2c3d 8c63 9c3b
000002d0: 5e9b 063d f660 c8ba 73ad 83bc f907 a23d
000002e0: d216 9cbc 94be 31bd 8bb3 b3bc 5f1a 61bd
000002f0: dfec bbbc 01fd 8e3a a561 e7bb 52b6 81bc
00000300: e14b 28bd 999c 55bc 2008 68bd e025 7cbc
00000310: f9dd 91bd bfc8 b7bd 2654 043c 5846 66bb
00000320: 9cd5 c8bc 9fca 8ebd da0c 19bd ccea cebc
00000330: 09a0 243c 4456 68bd bbd6 c2ba cdb7 d2bc
00000340: 6925 27bd 02f9 a0bd 200a 2dbd bd22 bd3b
00000350: 9057 8bbd 3f4b 07bd aa11 ffbc f4e6 edbc
00000360: fa0a cf3c 703f 8abc fe2d 83bc a97a a7bc
00000370: 0a28 f4bc cd51 e6bc b3fb e03c 0fb8 43bd
00000380: d872 10bd 1f2f cc3c 5025 1d3d 93d8 9d3c
00000390: 7b8e 353c 6905 c83c 35b7 2f3d 47f1 c5bc
000003a0: 683a 1cbd 0e78 debc f24d d93c d5ce 063c
000003b0: 8d9c 233c b92d a33b 9cf4 08bd 950d 3dbd
000003c0: a7ba 193c 51dd e6bb f55c 833b a6c5 9abc
000003d0: 2622 d83b 3c04 aebc 82d5 b0bb a115 a73c
000003e0: e188 4bbd 46ec 65bc 9889 adbb a34e dfbc
000003f0: 5bfe ee3c 0f8a 1a3d da6f 1a3d 65f0 993d
0.13038445 0.08115247 0.041190114 0.01685994 0.039573267 0.061473582 -0.07574728 -0.12778993
-0.057687946 0.031341866 0.003501955 0.027471475 0.02123344 -0.0015396876 0.051671408 -0.052053154
-0.060367092 -0.019275002 0.02745545 0.01895533 0.010566926 -0.008489777 -0.022483747 -0.0037254614
0.018833805 0.026239691 0.042667616 -0.03764739 -0.02530182 -0.036065962 -0.086236574 -0.042902265
-0.050809793 -0.0029772029 0.020442335 -0.026667302 -0.013959558 0.019522484 -0.034434058 -0.0042077107
0.028742125 -0.02988288 0.037121948 -0.045283303 0.00902857 0.010631339 0.04458336 0.026118007
0.10983983 0.061614823 0.05580628 -0.0024697073 -0.020615961 -0.013792475 0.0041138656 -0.06045593
-0.016491605 -0.02206494 -0.06704631 -0.04073149 -0.031731512 -0.030774103 -0.019612914 0.04672725
0.013993579 0.040414944 0.02259545 -0.012696712 0.047533274 -0.044739228 0.009075209 -0.01463163
-0.037664875 -0.06720306 -0.060857818 -0.0120744165 0.02482618 -0.026352633 0.06851599 0.045673773
0.016164942 0.04337108 0.037731137 -0.0466894 -0.012766646 0.006518159 -0.007745984 -0.044338305
-0.029315257 -0.022191983 -0.010827641 0.022807501 -0.0055640307 -0.019811412 -0.03358502 -0.07949957
0.008625252 0.06731608 0.11079199 0.0068065585 0.029408129 -0.046378728 0.023722205 0.025589747
-0.04553871 -0.017837545 0.02442453 -0.016154483 0.03941136 -0.05057188 -0.023764053 0.012974754
-0.017979087 -0.013951222 -0.0035016635 -0.016858157 -0.011404821 0.025637284 0.033483896 0.033404447
-0.002335579 -0.008586827 0.017477658 0.024731638 0.0050526727 -0.0006390967 -0.002123145 0.019198323
-0.00813296 0.009046269 -0.02137678 -0.017371107 0.026976336 0.03156666 0.059145793 0.028034419
0.013006251 0.016783902 0.030318962 0.013441258 0.041879334 0.021874292 0.001378662 -0.0050961813
-0.002997261 -0.039776716 -0.022214586 0.018352339 -0.012817632 -0.023561202 0.023068793 0.0003114828
-0.0179775 0.03385532 -0.012209436 0.008321789 -0.0076049124 0.0067380904 -0.04550719 0.0065170443
-0.022480452 0.009666403 -0.02331364 -0.03345449 -0.01055703 -0.020072034 0.0056779194 -0.0005926559
0.008740527 0.061043214 -0.008472435 -0.02750051 0.0160351 -0.05667488 -0.06515241 -0.054198563
-0.04507084 0.0398315 0.04210509 0.004772609 0.032863013 -0.0015287686 -0.016073918 0.07911677
-0.01905385 -0.04339464 -0.021936199 -0.05495679 -0.022940097 0.0010909141 -0.0070612007 -0.015834007
-0.04108799 -0.013037824 -0.056648374 -0.0153898895 -0.07122416 -0.08973836 0.008076703 -0.0035137143
-0.02451592 -0.06972241 -0.03736577 -0.025258444 0.010047921 -0.056722894 -0.001486502 -0.025722409
-0.04080716 -0.078599945 -0.042245984 0.0057719634 -0.068038106 -0.033030745 -0.031136353 -0.029040791
0.025273789 -0.016875952 -0.016013142 -0.020444231 -0.029804248 -0.028115178 0.02746377 -0.047782954
-0.035265774 0.024924813 0.038365662 0.01926831 0.011081333 0.024416642 0.04289933 -0.024162902
-0.038141638 -0.027156856 0.026526425 0.008228024 0.009986055 0.004979816 -0.033436403 -0.04615553
0.00938288 -0.007045426 0.004008884 -0.018893074 0.0065958677 -0.021242253 -0.005396546 0.020396056
-0.049691085 -0.014033383 -0.0052959435 -0.027259177 0.02917402 0.03772932 0.037704326 0.07516555

tfeb.5.weight f4 [32]
00000000: 9ff7 1b3e 0b9a bf3e 5d41 e73e 875a bc3e
00000010: 8c99 153e ebba 763e 424d e63e 86ff b03e
00000020: eca2 073f 50d6 e33e 4050 dd3e 7eae b83e
00000030: 7389 d23e b8df a43e 1ee6 f23e 816e c53e
00000040: 6740 da3e 33af 293e 146b d83e 3f05 5b3e
00000050: b51d dc3e d101 b33e 8157 b93e a83b e23e
00000060: 8bfe fd3e 09c9 c23e aec0 233f 1a3d c73e
00000070: 0d6e eb3e 059a ad3e 2f12 f53e c804 d33e
0.15231179 0.37422213 0.45167056 0.36787817 0.14609355 0.24094741 0.44980818 0.3456995
0.52982974 0.44499445 0.43225288 0.36070627 0.4112049 0.32201934 0.4744119 0.3856087
0.4262726 0.1657074 0.42269194 0.2138872 0.42991415 0.34962323 0.36199573 0.4418614
0.49608263 0.38044003 0.6396588 0.38913804 0.459824 0.3390657 0.47865435 0.41214585

tfeb.5.bias f4 [32]
00000000: 6e94 43bd e6ec a9bc 9a34 e2bd c081 a9ba
00000010: 811a 223d 94b3 84bc cd25 26be 2f9b b2bd
00000020: 08d4 08be a5e7 a0bd 9392 80bd fb04 95bc
00000030: 53b1 98bd c09a 9abc 53c7 1dbe 8a82 35be
00000040: 5d1a 08be 62d5 3bbe eef8 8cbd 49a8 5d3c
00000050: ceca f6bd 8524 3dbd 7e3c 44bd b88b 5dbd
00000060: a7f3 f7bd 1d55 32bd c436 4cbe a7db 07be
00000070: c21a 44be 0df8 bebd 6980 b4bd f4f6 c3bd
-0.047748975 -0.020742845 -0.11045189 -0.0012932345 0.039576057 -0.01619891 -0.16225357 -0.08721005
-0.13362134 -0.07856683 -0.06277957 -0.018190851 -0.07455697 -0.018872619 -0.15408067 -0.17725578
-0.13291307 -0.18343118 -0.06883417 0.013528892 -0.12050401 -0.046177406 -0.047909252 -0.054088324
-0.1210702 -0.0435382 -0.19942766 -0.13267384 -0.19150832 -0.09324656 -0.08813555 -0.09568587

tfeb.5.running_mean f4 [32]
00000000: e758 d6bd 8812 d3be 1995 82be bf8b 11be
00000010: 63c1 b0bc 33f2 8b3d c2c4 80bd e719 adbe
00000020: dfd9 b9be ab53 25bf 5ca9 efbe d443 c8be
00000030: 8045 a6be 8fbf 0abe 6a64 acbc 1bb6 603e
00000040: 439d 2b3d b569 ff3d 2927 7cbe 1f79 78be
00000050: bd53 92be a6a0 933d 992e e0bc a56c 4bbe
00000060: 04ab 0cbf d44e 5abd 5f2a 24bf fb67 26bc
00000070: a63d 46be a8c2 853d 35f6 46be 4109 04bf
-0.104661755 -0.41225076 -0.25504377 -0.14213465 -0.021576589 0.06833305 -0.062875286 -0.33808824
-0.36299035 -0.6458079 -0.46808898 -0.3911425 -0.324749 -0.13549636 -0.021043975 0.21944468
0.041898023 0.12471334 -0.24624313 -0.24264954 -0.28579512 0.07208376 -0.02736597 -0.19865663
-0.5494845 -0.053297833 -0.64127153 -0.010156627 -0.19359455 0.06531268 -0.19429858 -0.5157662

tfeb.5.running_var f4 [32]
00000000: 8a2b 093d 2073 033e 13d6 be3d 2489 203e
00000010: 587f 1e3d 1d98 bd3d 5c00 6c3d a860 da3d
00000020: 97c2 163e 2946 3c3e 88d5 193e 7c67 e13d
00000030: adff 013e c0e8 df3d a3d9 2f3e f7a8 823d
00000040: c1c0 da3d 4cc4 ba3c a8c9 e13d 39f5 5c3d
00000050: 854d d03d ebc9 d43d 05f7 bf3d 6550 003e
00000060: 4853 313e 559b b53d 286c 833e 4141 c73d
00000070: bf38 bd3d 8b85 b33d 745e e13d 7de8 e73d
0.033488788 0.12836885 0.09318175 0.15677315 0.038695663 0.09257529 0.05761753 0.10662967
0.14722668 0.18386139 0.15022862 0.11006066 0.12695189 0.109330654 0.17172866 0.06379884
0.10681296 0.02279868 0.11024791 0.0539448 0.10171036 0.10390075 0.09373287 0.12530668
0.17316926 0.08867518 0.25668454 0.09729243 0.09239339 0.08765706 0.11004344 0.113236405

tfeb.8.weight f4 [48, 32, 3, 3]
00000000: d118 41bc b170 93bb 1cc1 a1bc a56a e83c
00000010: 2bba debb 1548 75bd 8629 67bd 31cf 0dbd
00000020: 3fe0 77bb 5bfe 89bd a2a2 5a3d b87d 5c3d
00000030: d138 5dbd adf1 403d 7188 dbbd 9202 68bd
00000040: 7523 87bb cdc6 a2bc 029f 78bb d6c8 bb3d
00000050: d83b 3ebb a510 6abc 501d a6bd f64c 993c
00000060: 2e35 c33c dfff 5d3d 63e5 393d ff63 db3d
00000070: c8bd 2cbd 479e 08be 4de9 5f3d ce87 6abd
00000080: 39e6 a43d d7ec ce3a 1643 67bd b8ce 113d
00000090: 8071 993d 2059 b8ba 23c6 53bc 90f9 9cbd
000000a0: 4ddd 8ebd 6fc2 05bd 15e9 53bd b0ec a53c
000000b0: 04b1 9b3d 0376 11bd cde7 e23b e976 9abd
000000c0: 7c07 5cbd 132e 59bd 6f4e 8f3c 7711 6cbd
000000d0: 900b c03b 8020 0bbd 26ce 6ebc f68b 273d
000000e0: 2210 b3bc 9e4f db3d e663 2e3d 2f4c 893d
000000f0: d31e 523c 978f 8abd 62ed 473d 33aa 3d3d
00000100: 4c22 323d bc80 113d 0ce7 183e 7414 23bd
00000110: 5caa bebd 748b 8abd eb1e fcbd 427c 483c
00000120: afe1 2bbc 4648 e93c 3ba3 693d 1173 bc3c
00000130: 521d 0e3d 03d8 aa3d 9091 b2bc bb94 c0bc
00000140: 3c11 2abd 27bb 8c3d a457 4dbd 6728 75bd
00000150: 5565 a43d 7adf 8e3d 1f7d b83c b3f1 af3b
00000160: 7d21 62bc 21a8 9e3c f760 593c 9ed0 babd
00000170: 9dd8 8dbd 80a6 483d 6f69 3dbd a839 12bd
00000180: 13ab 2e3b 72f7 fd3d e25f a83c d4eb 5f3c
00000190: ae0b 733d aaa7 5e3d 75d8 c9bc ad5f 48bc
000001a0: b48d a73c 591f 89bd 2823 09bd 8f8b 3fbd
000001b0: de51 a73d 5a8a bf3b af18 e23c 7e0e b5bd
000001c0: b4ac e0bc 90df 623c 577c d4bc 0dda 1f3d
000001d0: f720 adbc 018b a6bd f652 84bc e825 dd3c
000001e0: cafe 15bc ba7b 8bbd 8cab 02bd da9c dc3c
000001f0: 9ea8 643d 2622 8cbc e24e 02be c157 01be
00000200: b43b d2bc 3df0 4f3e 9172 773c a126 8dbd
00000210: 7641 243e b14a 35bd 2e67 683d ce46 5abd
00000220: 3f2a fcbc 018f 3f3d c68a 08bd 86fe febd
00000230: d4cb 3bbe cf60 1e3d b1a6 c1bc ef82 b93d
00000240: 43bf 70bd 4a09 d9bc bc18 2d3d 2b8e bb3d
00000250: 27f0 f6bc 6083 b6bd 093d c4bd c031 b6bd
00000260: f7cc 05be c74d 51bd 184a c03c 37d7 d5b9
00000270: dff2 d23c 37c0 d53c d6ff ea3c b4e4 8dbd
00000280: f1e7 bdbd 206e 99bc 636a a9bb 1eb0 81bc
00000290: edfe a93d 1f78 2d3d 6617 1fbd 22e0 19bc
000002a0: 28ad 8e3c 2b11 80bc c090 e83b 7db5 fd3d
000002b0: 9d31 4abd b279 c1bb 320f c43c 37c8 8fbd
000002c0: 604f b53c 3e43 c83c f528 6bba 3248 053d
000002d0: ec70 e93c fa28 bebd f61e 84bc 9564 2c3d
000002e0: 8b5a 58bd 6c79 abbc 5c6f 443b 5a5d 9cbc
000002f0: 6274 7f3b f066 973b 43ba f73d 3237 043b
00000300: b637 ae3d d7c0 1f3e 2767 7f3b 5f7d 1a3d
00000310: 0c9b a3bc f6dd 1b3d c83a fc3b a484 0abd
00000320: 61ea 14bd 9298 0cbc 86fd 053d bf67 ef3c
00000330: ff4e 8b3d a10f 013e 3ffe f6bc 8de5 d2bc
00000340: 5ce9 a73d b557 37bb 7be9 fa3a b8aa 7abc
00000350: 6b03 94bd 7a20 1c3a 1008 8bbd c9e2 8abd
00000360: 6f92 37bb 3270 41bd f862 32bd cc4e 99bc
00000370: 38a8 e9bd 4575 cdbc e76b 393d 4f93 e03c
00000380: 2484 ab3c fc38 02bd c499 0e3e 279c 9d3d
00000390: 0e6e ffbc cc9a 9dbd 4ecc e53c 6949 9abd
000003a0: f3e3 1fbd 694a eebc e1b1 f7bd 4152 98bd
000003b0: d90a a23b c241 4f3d 8360 2fbc 7cfb 53bd
000003c0: 8208 cf3c 5c10 2e3d 02a3 fa3c 6194 6abd
000003d0: 0f21 a4bd ad2a b3bd 241d ed3c d2ff 953d
000003e0: 4f79 a63d 4ab1 823c 7690 723b ad1f b53c
000003f0: a72d 733c d91e aa3c 939c ee3c cea7 203d
-0.011785702 -0.004499518 -0.019745402 0.028371165 -0.0067970953 -0.059883196 -0.056436084 -0.03462142
-0.003782287 -0.067379676 0.053377755 0.053830832 -0.054009262 0.04710548 -0.107193835 -0.056643076
-0.0041241 -0.019870186 -0.0037936573 0.09169166 -0.002902737 -0.014286195 -0.0811106 0.018713456
0.023829069 0.054199096 0.045384776 0.10712432 -0.042173177 -0.13341628 0.054665852 -0.05725842
0.08051724 0.0015787137 -0.056460463 0.035597533 0.074923515 -0.0014064647 -0.012925657 -0.07664788
-0.069758035 -0.03265613 -0.051735956 0.020254463 0.076021224 -0.035512935 0.0069246055 -0.075422116
-0.053718075 -0.053022455 0.017493455 -0.057633843 0.0058607534 -0.03396654 -0.014575517 0.04090496
-0.021858279 0.10708545 0.04257574 0.06703984 0.012824732 -0.06765669 0.04881037 0.046304893
0.04348974 0.03552316 0.14931887 -0.039814427 -0.09309837 -0.0676488 -0.12310585 0.012236657
-0.010490819 0.028476845 0.057040434 0.023004087 0.03469593 0.08341982 -0.021797925 -0.02350842
-0.041520342 0.06871634 -0.05013241 -0.059852984 0.0802714 0.069762185 0.0225206 0.005369389
-0.01380193 0.01936728 0.013267747 -0.09121822 -0.06926081 0.04898691 -0.046243127 -0.035699517
0.002665226 0.12400712 0.020553533 0.013667066 0.05933731 0.054359116 -0.024639348 -0.012229842
0.020453312 -0.06695432 -0.033480793 -0.046763953 0.08169912 0.00584535 0.02759966 -0.08840655
-0.027426101 0.013847247 -0.025938196 0.03902631 -0.021133883 -0.08131982 -0.01615284 0.026995614
-0.009154985 -0.06810708 -0.03190188 0.026930261 0.05582487 -0.017106127 -0.12725404 -0.12631132
-0.025663234 0.20306487 0.015102998 -0.068921335 0.16040596 -0.044260684 0.056739025 -0.05329018
-0.030781863 0.04676724 -0.03333547 -0.1245089 -0.18339473 0.038666543 -0.023639055 0.09058177
-0.05877615 -0.026493687 0.042259917 0.09157976 -0.03014381 -0.089117765 -0.09581954 -0.08896208
-0.13066469 -0.051099565 0.02347283 -0.00040786873 0.025750576 0.026092632 0.028686445 -0.06928387
-0.09272755 -0.01872927 -0.005170153 -0.01583105 0.08300576 0.042350885 -0.038840674 -0.009391816
0.017416552 -0.015633186 0.0070973337 0.12388132 -0.04936372 -0.0059044 0.023933027 -0.0702061
0.022132576 0.024446126 -0.00089706416 0.032539554 0.028496228 -0.092851594 -0.016128045 0.04208811
-0.052820724 -0.020931922 0.0029973602 -0.019087482 0.0038979282 0.0046204254 0.120960735 0.00201745
0.0850672 0.15600906 0.0038971396 0.03771722 -0.019971393 0.038053475 0.007697437 -0.033817902
-0.036356334 -0.0085812975 0.032712482 0.029224275 0.06802177 0.12603618 -0.03015053 -0.025744224
0.08198807 -0.0027975861 0.0019143069 -0.015299492 -0.072272144 0.0005955767 -0.06788647 -0.06781537
-0.0028010865 -0.04722614 -0.043551415 -0.018714331 -0.11409038 -0.025080333 0.04526892 0.027413992
0.020937033 -0.031792626 0.13925844 0.07695799 -0.031180408 -0.07695541 0.028051522 -0.07533533
-0.03903575 -0.029088216 -0.120944746 -0.07437564 0.004945141 0.05059982 -0.0107041625 -0.051753506
0.025272612 0.04249607 0.030595306 -0.05727041 -0.08014118 -0.08748374 0.02894456 0.073241845
0.081286065 0.015953679 0.0037012375 0.02210983 0.014842427 0.020766662 0.029127395 0.03922253

tfeb.9.weight f4 [48]
00000000: 6d24 963e e75e c63e eb85 5e3e 274d 9d3e
00000010: 7ca5 c43e 2452 ad3e f073 923e ba61 603e
00000020: f2c9 7e3e 641a ad3e 90a6 6c3e 46c8 d63e
00000030: 5dcc b63e 79ae a33e 12fc e93e 7da2 b63e
00000040: 8790 be3e 1b8f cf3e 8f3d 7a3e 8315 d33e
00000050: a9ee ab3e 7d9a c43e e54e d23e 1dca aa3e
00000060: 475f 8b3e 2c10 c23e daf1 b43e 825c a63e
00000070: 0adf cd3e c8f7 af3e 249c 943e d6fe 773e
00000080: c0c0 b33e ffa4 d03e db52 a43e cfc9 c13e
00000090: feb7 933e aa83 ae3e 1029 8e3e 5547 e03e
000000a0: 635e 963e cfcd a23e a147 a93e 10fa 973e
000000b0: 4b4d d13e 1dc6 cd3e 0ff9 b03e 332c 903e
0.29324666 0.3874428 0.21730773 0.30722925 0.38407505 0.3385173 0.28604078 0.2191228
0.24881724 0.33809197 0.23110414 0.41949672 0.35702792 0.3196905 0.45700127 0.35670844
0.3721964 0.40538868 0.24437545 0.4122735 0.3358052 0.38399115 0.41075817 0.33357325
0.27221128 0.37902963 0.35340768 0.32492453 0.40209228 0.3436873 0.29025376 0.24218306
0.35107994 0.40750882 0.32094464 0.3784928 0.28851312 0.34084827 0.27765703 0.43804422
0.29368886 0.31797644 0.3306246 0.2968297 0.40879282 0.4019021 0.34565017 0.2815872

tfeb.9.bias f4 [48]
00000000: f5b3 35bd 582f 05be 4801 99bd 765b 10be
00000010: 443b d6bd f44c 46be ca2a 14bd 7028 35be
00000020: af15 62bd 282f 64bd bc33 eebd 4a3f 5cbe
00000030: 0f72 a7bd 4c05 b0bd 103f 57be 5f06 05be
00000040: 39a3 2dbe 3f8f 0dbe 3ebc 78bd 51f1 77be
00000050: e42e 5fbd f77b 17be 7122 debd 922e aebd
00000060: 2b2e 58bd a0f7 58be 52f4 5bbe 6796 b3bd
00000070: 8544 0ebe aef2 3bbe 4e20 b3bd b7ff 71bd
00000080: 6807 dfbd ed39 56be 5935 82bd bb11 1ebe
00000090: 68f6 76bd f419 0abe 9f25 afbd 2841 4bbe
000000a0: 5e0f 72bd fecd a2bd 51f7 11be d9a3 15be
000000b0: e28c dabd 897c 07be 71ba 84bd c675 d5bd
-0.044361074 -0.13006341 -0.074709475 -0.1409739 -0.10460523 -0.19365293 -0.03617362 -0.17691207
-0.05519646 -0.055709034 -0.11630961 -0.21508518 -0.08176052 -0.0859476 -0.2102015 -0.12990712
-0.16956796 -0.13824175 -0.060726397 -0.24213149 -0.054488078 -0.14793383 -0.10846413 -0.08504976
-0.052778404 -0.21188211 -0.2147992 -0.08768921 -0.13893326 -0.18354294 -0.08746396 -0.05908176
-0.108900845 -0.20920534 -0.063578315 -0.15436451 -0.060293585 -0.13486463 -0.085520975 -0.19849074
-0.059096687 -0.07949446 -0.142545 -0.14613284 -0.106714025 -0.132311 -0.064808734 -0.10422854

tfeb.9.running_mean f4 [48]
00000000: ba1d a3bc 2538 48be a8f7 dfbc ef47 abbd
00000010: 6fec cfbe 3161 86be c3af 33be 9dc3 a73c
00000020: 0780 93bd ae1c 8ebe 29ac 03bd dbfb dcbd
00000030: 9583 92be 0ada 90be bce4 6ebe eec0 82be
00000040: 5ce1 95be 3a80 b4be 155c 32be f207 7abe
00000050: 3405 91be e510 7cbe 46ab d2be c223 92be
00000060: d465 21be db80 13be f463 08be d610 b8bc
00000070: b151 c4be b52d 7cbe f5d7 b5be 1c3e 62bd
00000080: 4259 19be b8cd 74be da7b cfbe 7201 ecbd
00000090: 8f34 1fbe 98be 72be 222e f6bd ebf3 84be
000000a0: 01a1 aabd d24c 1bbe defc 64be 2544 afbd
000000b0: 1654 4bbe 5723 bdbe 9b1f d6be eb44 75bd
-0.019911636 -0.19552667 -0.027339771 -0.083633296 -0.40610072 -0.26246026 -0.17547517 0.020479018
-0.07202154 -0.27756256 -0.032146607 -0.10790225 -0.28616014 -0.2829135 -0.23329443 -0.2553782
-0.29273498 -0.3525408 -0.17417939 -0.24417093 -0.28324282 -0.2461582 -0.41146296 -0.28542906
-0.157615 -0.14404623 -0.13319379 -0.022468966 -0.38343576 -0.24626811 -0.35516325 -0.055235013
-0.14975455 -0.239066 -0.4052418 -0.11523713 -0.15547393 -0.23705518 -0.12020518 -0.25967345
-0.0833149 -0.15166023 -0.22362086 -0.085579194 -0.19856295 -0.36941025 -0.41820988 -0.05988018

tfeb.9.running_var f4 [48]
00000000: 2b99 1d3d 2a93 283d 47df a93c 7c00 093d
00000010: efad 7f3d 15ab 323d f4a8 403d f985 8e3c
00000020: d37d 003d e4d3 273d 2bf7 c23c a26a 873d
00000030: 3719 433d ebd8 573d 8e26 253d 8373 643d
00000040: 472e 183d acc8 833d ddb1 f63c 2927 123d
00000050: bd5f 393d 9954 7e3d 7c10 793d 9379 353d
00000060: 1f82 1b3d d905 473d 58d8 033d f5c1 163d
00000070: c6fd 5f3d d8a2 163d e70b 213d f13d 2c3d
00000080: c5a6 463d d1be 653d b6c9 393d b113 453d
00000090: 5480 1f3d 7f09 563d 4561 153d 19c9 833d
000000a0: 18b5 473d 10d6 193d 30df 183d 7eff 113d
000000b0: 4552 4f3d 901a 6a3d 9752 643d 823d 4f3d
0.03847615 0.04115597 0.02073635 0.033447728 0.062421735 0.043620188 0.047036126 0.017397868
0.031369995 0.04097356 0.0237995 0.066121355 0.04763147 0.052697103 0.04031997 0.055774223
0.03715351 0.064347595 0.030114109 0.035681877 0.04525732 0.062092397 0.060806736 0.044305395
0.03796589 0.04858956 0.032188743 0.036806066 0.054685377 0.036776394 0.03931799 0.04205126
0.048498888 0.05609018 0.045358382 0.048114482 0.038940743 0.05225515 0.036469717 0.06434841
0.04875669 0.03755766 0.037322223 0.035644047 0.050615568 0.05715424 0.055742826 0.050595768

tfeb.12.weight f4 [60, 48, 3, 3]
00000000: 1c86 ab3c 5e56 983c 0144 1cbd a17c a73c
00000010: 42a2 53bb c9fc e93c adfb 1ebd 3b74 b53c
00000020: 756c 9f3c 7d11 b3bb 3a92 32bc 91ca e9bc
00000030: 2872 44bc 1687 883a cfbb b73a 5a9e e93c
00000040: 1e54 7d3d 2cc7 26bc 46a6 19bd 5b95 37bd
00000050: 6158 9c3c eb3f a73c edf4 f23c c5f1 453d
00000060: 7fbf 1ebc b64f 403d 9cbe ac3d 57c3 53bc
00000070: 3aff a5bc 4032 963d 1446 a5bb b1db b9bb
00000080: 8f54 613c ebdd c6bb 5719 5fbd f388 59bd
00000090: be79 fbbc 5c03 2d3b a317 b33a 57f4 64bb
000000a0: b41e 3d3d aae0 2a3d 78ee 303d 0166 953d
000000b0: b446 913d 6ea2 9a3c 9d69 cb3c 6a14 00bd
000000c0: d5aa f9bc 121c eebc b485 8cbd 40ed a13d
000000d0: 9982 f53d aee7 c23d 74f6 373d 9fe7 fc3c
000000e0: e806 923d 602c 33bd 77f7 87bd 596f 2fbd
000000f0: 6fbc db3c 885f 253c faaf 263d 25c9 ca3c
00000100: da48 a0bc e015 933c 343c 53bd db23 1fbd
00000110: bc4d 46bd 66f3 9abd 1ebf a6bd da34 8fbd
00000120: 563a a23c 5f02 7b3d dfd9 253d d39e 8cbd
00000130: dc83 b7bd 89a8 c0ba 15b7 76bd 96e5 afbd
00000140: 1f97 8d3d 48ad 9b36 a459 a23d bcb5 b43b
00000150: a6e7 a4bc fc0c 1ebd 10e8 65bb 9c3c 76bc
00000160: 75cc e9bc 2d50 873d b7a2 76bc 32aa 123d
00000170: 9ff9 373c 1042 0c3d a561 9b3b 762f 91bb
00000180: 8e65 03bc 2385 96bd e9a3 4fbd 854e f2bc
00000190: a82e f439 047a 13bd ce48 76bc 2953 d83b
000001a0: 1956 15bd e9dd 80bc 2c2b 293d d3ab 64bd
000001b0: ac42 bf3c 17a0 023d 3330 003d 3d6f 43bd
000001c0: 7e3b c9bc 9049 7cbd 49fd d43c ec7c 6b3d
000001d0: 306b a33c 0b19 2839 5a98 1f3d 1b38 533c
000001e0: 1524 ea3c 489b 9a3d e9ba 273c 7273 99bb
000001f0: 2a3c 53bd 565a b0bd 2baf 393d 313d ccba
00000200: 6dc3 ad3c c940 283d b317 d83c 87d5 96bc
00000210: 5bd9 f2bc da3d 1ebc 8938 17be 7687 02bd
00000220: a66a 71bd 9cb1 9fbd 1bb6 4f3c ce11 d9bc
00000230: 233e 74bc dd20 283d ade6 bfbc e448 d1bc
00000240: 3ce3 ff3c ddce 4dbc 000a fb3b f12d 5abc
00000250: 2d70 41bd ec35 783c 4d09 883c 17a4 9a3d
00000260: b047 0c3d 7746 b93c c89e a8bc c4fe 97bd
00000270: 48be 9fbc 8b4d 1abb 75a3 173b 3094 3d3c
00000280: 99fa 263d dfe4 8b3d 50bf b13c d276 2c3d
00000290: a10e 2c3d f5f6 9abc 9a60 a1bb 9933 383c
000002a0: af38 1abd ddc4 8cbd fe3b 21bd 5a35 e038
000002b0: b133 19bd ab6e f6bc 9e2e b13d be97 433d
000002c0: 354c 843d c1a4 84bd 53e3 86bd 7d6e b9bd
000002d0: dabc 3abd 8774 b3bb d42b 4ebd c601 323c
000002e0: 8fab 453d 3c94 fd3c 9ac1 c23b 6130 eab9
000002f0: baf6 e3bc b101 d4bc 245c b8bc ec91 883c
00000300: 9ddf 383d 7e1e 58bd 1bca cdbc 0b5d f63c
00000310: abec 44bd 4dce 44bd f114 17bd 0ed0 f7bc
00000320: 2938 0abc 4c9c 983c c816 203d c543 b2b7
00000330: 52fc f83c b6f1 d2bb 532c 2b3c 4211 d03b
00000340: 67a4 95bc 9879 0ebd 25f0 a43c 75e2 013d
00000350: 597e dc3c 77a8 0abc a421 3abd bd75 b3bd
00000360: 268f 61bd 82de cbbc 8f87 81bd 61e4 12bc
00000370: 14d5 79bd ca1f 1a3d 230d 0fbe 8558 eebd
00000380: 6988 9ebd e464 523d d63c 143d 61c1 d3bc
00000390: 3216 a63b 100b 4f3d d5de c6bd ab5b 0f3c
000003a0: 2c1f 69bd 5f6e f6bd 4bb3 22bd 4c61 adbc
000003b0: 22e0 45bd 0e6f f3bc 7ffb 8b3c a84b 9dbc
000003c0: f95a a7bd 5d68 c4bd 9e89 bfbd 8718 4d3b
000003d0: 0bff 9fbc 4667 50bd 9d97 973d 5957 d13b
000003e0: b382 93bc 8fe4 86bc 39d4 fe3c 8a22 8ebd
000003f0: 38ba f93c 791b 1d3b 37f7 6a3d e881 db3c
0.020937972 0.01859587 -0.03815079 0.02044517 -0.0032292758 0.02856292 -0.038814235 0.02215015
0.019460896 -0.0054647312 -0.010899121 -0.028538974 -0.011990108 0.0010416235 0.0014017763 0.02851789
0.0618478 -0.010179322 -0.037512086 -0.04482017 0.019085111 0.02041622 0.029657805 0.048326273
-0.009689211 0.04695102 0.08434793 -0.012924991 -0.020263303 0.07333803 -0.0050437544 -0.005671941
0.0137530705 -0.006068935 -0.054467525 -0.05310912 -0.0306977 0.0026399707 0.001366366 -0.0034935677
0.04617186 0.041718163 0.04319617 0.07294846 0.07093564 0.01887628 0.024830634 -0.03126947
-0.030476967 -0.02906612 -0.06861439 0.0790658 0.119878 0.09516846 0.04491277 0.030872164
0.071302235 -0.04374349 -0.06638997 -0.0428308 0.02682325 0.010093577 0.040695168 0.024754116
-0.019565988 0.017954767 -0.051571086 -0.038852554 -0.048413977 -0.07565956 -0.081419215 -0.069925025
0.019803207 0.061281558 0.04049098 -0.06866231 -0.08960697 -0.0014698665 -0.060233194 -0.08588712
0.0691359 4.6395326e-06 0.07927254 0.0055148285 -0.02012999 -0.0385866 -0.0035080947 -0.015029099
-0.028539876 0.06607089 -0.015053443 0.035806842 0.011228948 0.03424269 0.0047418647 -0.0044307066
-0.008019818 -0.073496126 -0.050693426 -0.029578457 0.00046574068 -0.036005035 -0.015032006 0.0066017103
-0.036459062 -0.015730815 0.041300938 -0.055827927 0.023347221 0.031890955 0.031295966 -0.047713507
-0.0245645 -0.061593592 0.025999682 0.05749218 0.019948572 0.00016031058 0.038963653 0.012891795
0.028581658 0.07549149 0.010237434 -0.0046829516 -0.05157105 -0.0861098 0.04533307 -0.0015582201
0.02121135 0.04107741 0.026378488 -0.018412365 -0.029644659 -0.009658301 -0.1476766 -0.031867467
-0.0589396 -0.07797548 0.012677695 -0.026497748 -0.014907393 0.041046966 -0.023425424 -0.025547452
0.031236283 -0.012561527 0.007661104 -0.013316617 -0.04722612 0.015149575 0.016605997 0.07550829
0.034248054 0.022616608 -0.020583525 -0.074216396 -0.019499913 -0.0023544754 0.00231382 0.011570975
0.040766332 0.06830763 0.02169767 0.042105503 0.04200614 -0.018916586 -0.004924846 0.011242771
-0.037651714 -0.06873486 -0.039363854 0.0001069109 -0.037402812 -0.030082067 0.0865147 0.047752135
0.06459848 -0.06476737 -0.065863274 -0.09054277 -0.04559026 -0.0054765376 -0.050334767 0.010864681
0.048259314 0.030954473 0.0059434893 -0.00044668003 -0.02782761 -0.025879713 -0.022504874 0.016671143
0.04513513 -0.052763455 -0.025120785 0.030073663 -0.048077267 -0.048048306 -0.036885206 -0.030250575
-0.008436241 0.018629216 0.039084226 -2.1250811e-05 0.030393753 -0.0064375056 0.010447579 0.0063497135
-0.01826687 -0.03478393 0.020134041 0.031710107 0.026915716 -0.008463017 -0.04544224 -0.08762691
-0.055068158 -0.024886373 -0.06324684 -0.008965583 -0.060994223 0.037627973 -0.13969855 -0.116379775
-0.07740862 0.051365748 0.03619083 -0.025849046 0.005068564 0.05054766 -0.097104706 0.008749883
-0.056914493 -0.1203277 -0.03972177 -0.021164559 -0.048309453 -0.029716041 0.017087696 -0.019201115
-0.081716485 -0.09590218 -0.0935242 0.0031295137 -0.019530794 -0.05087974 0.07401965 0.0063885865
-0.018006658 -0.016466407 0.031107055 -0.069401816 0.030484304 0.0023972674 0.05736467 0.026795343
