torch/trained_models/k_16_c_4_esc50_mixup_2_fold2.pt (torch, 401518 bytes, 42 tensors)

acfe.0.weight f4 [8, 1, 1, 9]
00000000: 3146 88be 8e52 1d3c 674f 203e 7260 07bf
00000010: d57f 6fbf 4650 073f b7ba 4e3e 9d2a 263f
00000020: 5310 653e 7c68 d03e 161a 963e 4319 1bbb
00000030: 4642 013f 39cd 7bbe f0d1 08be 4583 e6bd
00000040: 9c82 d6bd 9f16 523e 63cd 36be 9d12 95be
00000050: 0640 8dbe 6e04 c4be 16c8 083e 722c b3bd
00000060: f28b fc3e 7b3b 7e3e 55e4 b4be 9012 923e
00000070: f4e5 4bbe 48e0 e33c d528 ec3e 70a2 5a3f
00000080: cb8f a9be 20b0 eebd c49c 2fbf 9c43 b2be
00000090: ddde 223e ac75 f1be dee1 99bd 42e1 03be
000000a0: 3ba5 113f f0e7 fabe 8d65 a43e 9343 78be
000000b0: 8c0d 303f 8942 1e3f c3fa e9bd 84df 00be
000000c0: 4c21 cd3e 697c 90bf 455d 283f 4727 99be
000000d0: cde3 d23d bdd5 edbd c664 023e 31c1 32be
000000e0: 559d cabd 2a05 163f fe0f 49bf 6804 5a3e
000000f0: ac8d 843f 5ef4 87bf 77bb 433e ffa5 e8be
00000100: 3bd7 7fbe fff6 4ebb a9b6 873f f379 4cbf
00000110: 7984 0f3f 6e4f bebe f4b9 4cbe 4b22 c33e
-0.26616052 0.009602202 0.1565529 -0.5288154 -0.9355443 0.5285686 0.20188414 0.6490877
0.22369508 0.40704715 0.29316777 -0.002366618 0.5049175 -0.24590005 -0.13361335 -0.112555064
-0.104741305 0.20516442 -0.17851786 -0.29115763 -0.27587909 -0.3828463 0.13357577 -0.08748712
0.4932552 0.24827377 -0.35330454 0.28529787 -0.19911939 0.027816907 0.46124902 0.8540411
-0.33117518 -0.11654687 -0.6859858 -0.34817207 0.15905328 -0.4716009 -0.07513784 -0.12878898
0.56892747 -0.4900508 0.32108727 -0.24244528 0.6877067 0.61820275 -0.11424782 -0.12585264
0.40064466 -1.1287967 0.6576732 -0.2991278 0.10297356 -0.11613033 0.12733755 -0.17456509
-0.0989329 0.5860163 -0.7854003 0.21290743 1.0355735 -1.062145 0.19114481 -0.45439145
-0.24984448 -0.0031580327 1.0602618 -0.7987358 0.5606151 -0.37169975 -0.1999281 0.381121

acfe.1.weight f4 [8]
00000000: a85a 703f 9afb 273f b500 213f 0f35 563f
00000010: 574b 0c3f 4b62 183f 55f6 193f 3c6c 153f
0.9388833 0.6561829 0.62891704 0.8367471 0.5480246 0.59524983 0.601415 0.5836828

acfe.1.bias f4 [8]
00000000: 0dcf 863d fcc5 733d 0a84 273e 082e 173e
00000010: 511d 093f 5fac e53e d987 3f3e a1f2 653f
0.065824606 0.059514984 0.16358963 0.14763653 0.5356036 0.4485807 0.18704166 0.8982335

acfe.1.running_mean f4 [8]
00000000: b77d 88b6 ab6f 24b9 3a97 0e39 1c1a 1c37
00000010: a8f3 92b8 d4b3 a736 8682 47b6 1d53 a437
-4.067751e-06 -0.00015681858 0.00013598512 9.304404e-06 -7.007207e-05 4.9979226e-06 -2.9729285e-06 1.9589026e-05

acfe.1.running_var f4 [8]
00000000: 6d7c 303c fefa db3b ec93 e53b 14fd 323c
00000010: 5370 6d3b 3337 383b e1bf f53a 44c7 3c3b
0.010771853 0.00671327 0.007006159 0.010924596 0.003623028 0.0028109073 0.0018749201 0.0028805295

acfe.3.weight f4 [64, 8, 1, 5]
00000000: 8044 b3bd 35b4 d53d 9788 b8bc 4c15 cf3d
00000010: 02ee 6dbc bb0a 0abe f939 0ebe ce50 93bd
00000020: 703d 393d f5f6 edbb 899c 80bd 1213 553d
00000030: 888a 71bb 3e29 d73b afba 09bd b52b 25be
00000040: 3b32 fabd 524d b3bd f177 1e3e 8dd3 30bd
00000050: f699 c73c 9248 023d ab8c bebd 0f33 ae3d
00000060: 994b 53bd 39bc 95bb c6e6 f0bb bc53 243c
00000070: 543e 69bd 340b db3d 122e 04bd 7fd7 38bd
00000080: 6300 e73c 150a 03bc 90ae 15b9 01de 8f3d
00000090: 3844 3b3d 5189 4dbd a1e0 543e ad29 9bbd
000000a0: a27c aebb 5f69 a0bb 1c06 05ba b67a 51ba
000000b0: 7102 f2b9 8187 8a3b aa75 d6ba 74f9 0ebb
000000c0: e5de 27bb 9db9 07bb 0147 aebb ddaa 9fbb
000000d0: 5a7c e6ba 151c daba 4b1e 4cbb 9c85 1bbb
000000e0: 7086 a7bb e84d babb 732f d1bb d3c7 a2bb
000000f0: e335 a5bb 624d 05bb e7a3 eab9 d7c9 033a
00000100: 52c8 cc3a 3d71 a23b 3efe 433b 87de a6ba
00000110: a8ff c2b7 7a8b 46bb 02f0 efba 4b6e 72bb
00000120: e062 b8bb 8475 1ebb 8a9b baba 8ee1 9ebb
00000130: a3ce edbb 0dfe 41bb 3998 6b3a fd71 b939
00000140: 38b2 93ba 0755 41ba 48c4 31ba 5e2e 9439
00000150: 2072 1b39 70f9 5539 11a5 48b9 6384 97b9
00000160: ea73 87b9 935f 7cb9 b5a5 3dba ab68 a8ba
00000170: c493 8bba c0c9 34ba 6ba5 1eb9 0d60 d9b9
00000180: 7160 3dba 3b39 4fba 2ade 9dba 12b9 cdba
00000190: 5b4d 09b8 3151 d0b9 06ba a939 ee86 7e3a
000001a0: 94fe 103a 7d53 ba39 c789 0cb7 1d9d 70b9
000001b0: c4bd 43ba 652d 55ba ca25 1fba 50b2 ebb9
000001c0: 7a23 12ba c919 e3b9 809a eeb8 7edf 76ba
000001d0: 63eb 0aba c443 f437 e519 8fb9 a739 4eba
000001e0: ef26 103d f303 dcbd 1b6c cabd 84f1 16be
000001f0: cd42 e0bd a31b 2c3d 098a f93d 53b6 1f3e
00000200: ede9 0a3e cf89 313d 26ca 7e3e c86b 163e
00000210: f259 3c3d 7b17 b33c f9f7 f33b 967d e0bd
00000220: 7210 93bd 298e 8bbd 7fc6 ecbd 57a3 26be
00000230: 6aa3 823d 04c0 4b3c 908c 83bd a57d 5dbd
00000240: 38f3 593c e8c8 8bbd b27a bfbd fcd2 92bc
00000250: 0285 cb3c 8d52 4dbd 0aaa a33c e373 9f3c
00000260: 4457 a8bc 351e 9cbc c163 98bd 691c 183d
00000270: 2722 b63d 02b8 0cbd c6ad 95bd ef8e 97bd
00000280: 67d1 e4b9 406f 27ba 56c7 1fba bfda 7dba
00000290: d3b3 acba c780 3cb9 b30b 273a 676b 213a
000002a0: c4b0 e939 bf36 293a e437 a4b9 abb1 12ba
000002b0: ba17 11ba 9e03 43b9 b728 cdb9 d6ec 73ba
000002c0: 3d59 0339 89c3 00b6 e7e4 f639 6639 9c3a
000002d0: 5d0d d238 1db8 0fba 0a76 ebb9 c36a cbb9
000002e0: 57d4 c2b9 2b42 f4b9 c32d 78b9 be41 ca39
000002f0: a668 ce39 78e3 93b9 1a87 a939 0551 a5b8
00000300: faa8 7cba a9ee 2b3a a824 8b39 1220 3f3a
00000310: 5d0b 273a 48e2 1cb6 ab16 bfb9 a0c6 d1b9
00000320: 0da8 96be f9ec 37be b32d ab3c 817e a23e
00000330: 59b6 d6bc 4d11 f4bd 44d7 f8bd ebad 10bd
00000340: 0be6 9bbd fbf3 80bd ae35 f1bd 1416 d2bd
00000350: b810 99be 865f 60bd e0ec 413d 31d2 85be
00000360: 4770 6bbd 5ebb 7e3e 150f 833d 06d2 d8bd
00000370: a35c 1bbd 5894 fabd 5d73 0e3d f6a3 bb3c
00000380: a995 373e c59d bbbd d399 e4bd 67d5 babd
00000390: f644 093e e815 063d 619d ccbd c63a fcbc
000003a0: b536 c03d 10cf 4a3d 2c70 b4bd 6155 abbd
000003b0: afcb c3bd 126f 333c f474 9e3d 0c24 95bd
000003c0: 66b8 23bb cf60 8c3a 22e1 0b39 651f 503a
000003d0: 1bfe 003b 96a8 25bb d83e 2cbb 36e8 f5ba
000003e0: 182e feba 7663 b4ba 2ece 80b9 5a87 98ba
000003f0: 31c3 d4ba ae5c 12bb 416b 1bbb 3e05 7fbb
-0.087533 0.104347624 -0.022526069 0.10111484 -0.0145220775 -0.13480656 -0.13889302 -0.07193147
0.045224607 -0.0072621056 -0.06279857 0.05202014 -0.0036856253 0.0065661957 -0.0336253 -0.16129954
-0.12216612 -0.08754982 0.15475442 -0.0431705 0.024365406 0.03180749 -0.09304174 0.085058324
-0.051585767 -0.004569557 -0.007351729 0.010029729 -0.056944206 0.10695496 -0.0322705 -0.045127388
0.028198427 -0.007998009 -0.00014274777 0.07024766 0.045719355 -0.050179783 0.20788814 -0.075763084
-0.005324916 -0.0048953737 -0.0005074458 -0.00079910026 -0.00046159656 0.004227579 -0.0016361971 -0.0021816166
-0.0025615033 -0.002071 -0.005318523 -0.0048726634 -0.0017584667 -0.0016640449 -0.0031145986 -0.002373076
-0.0051124617 -0.0056855567 -0.00638383 -0.0049676686 -0.005041824 -0.0020340313 -0.00044754075 0.000502733
0.0015623665 0.0049573467 0.0029906179 -0.0012731113 -2.3245651e-05 -0.0030295537 -0.0018305781 -0.003699201
-0.005627021 -0.0024178931 -0.0014237028 -0.0048486656 -0.007257299 -0.002960089 0.00089872215 0.00035370878
-0.0011268323 -0.0007375036 -0.00067812623 0.00028263306 0.00014824467 0.00020406186 -0.00019134978 -0.000288996
-0.0002583557 -0.00024068197 -0.000723447 -0.0012848576 -0.0010648896 -0.0006896518 -0.00015129677 -0.0004146103
-0.0007224149 -0.00079049513 -0.001204436 -0.0015695414 -3.273539e-05 -0.00039733344 0.0003237279 0.0009709437
0.0005531099 0.00035538888 -8.376729e-06 -0.00022946713 -0.0007466937 -0.00081320695 -0.00060709997 -0.00044955546
-0.00055747444 -0.00043316025 -0.00011377502 -0.0009417458 -0.00052993576 2.9118622e-05 -0.00027294378 -0.0007866867
0.03519338 -0.10742941 -0.09883901 -0.14740568 -0.10950241 0.042018544 0.12184531 0.15596895
0.13565798 0.043344315 0.24881801 0.14689553 0.045984216 0.021861782 0.007445332 -0.109614536
-0.07180871 -0.06814224 -0.115612976 -0.16273247 0.06378825 0.012435917 -0.064232945 -0.054074902
0.013302617 -0.06825429 -0.09349574 -0.01792287 0.024843697 -0.050127555 0.019978542 0.019464439
-0.020549424 -0.019057373 -0.074409015 0.03713647 0.08893233 -0.03435517 -0.07308535 -0.07400309
-0.00043643566 -0.0006387122 -0.0006095072 -0.000968378 -0.001317615 -0.0001797705 0.0006372288 0.0006157667
0.00044572924 0.0006454996 -0.0003132216 -0.00055959326 -0.00055348466 -0.00018597997 -0.00039130982 -0.00093050057
0.00012526377 -1.9187303e-06 0.00047091322 0.0011918962 0.000100160694 -0.0005482452 -0.0004491064 -0.0003879872
-0.0003716077 -0.00046588606 -0.0002366817 0.00038577424 0.0003936935 -0.00028207502 0.0003233485 -7.882904e-05
-0.00096382166 0.00065586955 0.00026539457 0.00072908506 0.00063722377 -2.3377524e-06 -0.00036447248 -0.00040011574
-0.29425088 -0.17961492 0.020895815 0.3173714 -0.026209997 -0.11917362 -0.12150434 -0.03532211
-0.076122366 -0.062965356 -0.11777817 -0.10258117 -0.29895568 -0.0547786 0.047345042 -0.26136926
-0.057480123 0.24876162 0.06399361 -0.10586934 -0.037930142 -0.122353256 0.034777988 0.022905331
0.17928185 -0.091609515 -0.11162152 -0.091227345 0.13405213 0.032735735 -0.09990955 -0.030789744
0.093854345 0.049513876 -0.088104576 -0.08365894 -0.09560334 0.010951774 0.07737151 -0.07282266
-0.0024981736 0.0010710004 0.00013339942 0.00079392485 0.0019682709 -0.0025277487 -0.0026282575 -0.0018761221
-0.0019392399 -0.0013762552 -0.00024567678 -0.0011637018 -0.0016232488 -0.0022333073 -0.0023715051 -0.0038913037

acfe.4.weight f4 [64]
00000000: f589 853e 597e ce3a a4d4 2d39 b394 7a3e
00000010: f9c7 ea36 790d d73e 799a 8139 e363 863e
00000020: 40b4 033f 9c07 273f 4e06 0c3f 0f28 2b3f
00000030: 4802 ba38 c19f 873f b7c5 b43e 3c51 353e
00000040: c57b 373f cd38 5c3f 6111 ef3e 4e18 243f
00000050: 3e6b 193f 9be4 0e3f 1466 093f a048 be38
00000060: 2de2 173f 66a5 2b3f 4e70 4139 cdcb 763e
00000070: 3265 a03e 5e47 e43e 45c1 c43e 6764 fd3e
00000080: a384 483f b8f8 e337 0bd9 a33f bb03 2339
00000090: 905a 403f 1f0b 3c3f 5592 49b7 b250 92bb
000000a0: efb4 b83e 330a f13e 62f0 2d39 0ec7 e73e
000000b0: 0d3b 9139 f89d 4d3f 172d 283f 1ef7 343f
000000c0: fd45 6e37 c984 d43e 9827 7036 b064 333f
000000d0: e455 073f b9c2 183f 47f0 1d3f 95b2 3c3f
000000e0: 8bc1 e13e 0ae6 ac3e d134 8d3e b481 7638
000000f0: 9e77 953e 875c 973e f8b1 bf3a e23f 793e
0.26081815 0.0015754207 0.0001657778 0.24470787 6.9970233e-06 0.42002466 0.00024719888 0.26248083
0.51446915 0.65245986 0.5469712 0.66858 8.869596e-05 1.0595628 0.35307094 0.1770677
0.7167323 0.8602417 0.46692947 0.64099586 0.59929264 0.55817574 0.53671384 9.0734335e-05
0.5932949 0.67049253 0.00018447751 0.24101181 0.31327206 0.445857 0.38428703 0.49490663
0.7832739 2.7176327e-05 1.2800611 0.00015546281 0.7513819 0.7345447 -1.2014604e-05 -0.004465186
0.3607554 0.47078094 0.00016588115 0.45269054 0.0002770055 0.80319166 0.656938 0.7068957
1.4202201e-05 0.41507557 3.5785833e-06 0.7007551 0.52865434 0.59672123 0.6169476 0.73709995
0.44092974 0.33769256 0.27579358 5.8771766e-05 0.29192823 0.2956278 0.0014625182 0.24340776

acfe.4.bias f4 [64]
00000000: 1be7 28bd c00e 19bc a6f3 29bb e9b3 0f3e
00000010: cabe 03bb 54ea a03b b783 e6bb 6abb 07be
00000020: 4fc7 6f3e 9de5 ebbc a37d 893d efff a0bc
00000030: f133 63bb cd74 c9bd 5730 b33c 8a45 a53b
00000040: ebd1 563d 20a2 b4bd 3a34 ff3c afd3 8dbd
00000050: c5e8 7bbc 1993 973d 8d4e b3bd 909c 8eba
00000060: 2b61 93bc 07ef dfbd 0eb3 77b9 dad8 6c3d
00000070: dffa 003e 2d50 e73c ffc6 47bd e1d7 a8bc
00000080: b65a 16bd 5a15 b7b9 0c12 06be 4804 73bc
00000090: ab05 d8bc b57b 92bc 1da7 e8ba a3ba b1bb
000000a0: 8b46 f53b 0815 8bbc 065f 68b9 1b52 dc3d
000000b0: c845 b2b9 7a09 38be e8ca 38bc a759 183c
000000c0: 1849 96ba 2e28 7f3e 5409 5cba 7479 c03b
000000d0: 77bf 23bd d926 babd 818d a5bc ae0f de3a
000000e0: 7407 783d 56b7 ed3d 5e2b c03d 25e7 c7bc
000000f0: 6263 753e b21d 803c d7bd 4cbd 76a6 853d
-0.041236024 -0.009341896 -0.002593258 0.14033474 -0.0020102733 0.0049107466 -0.0070347446 -0.13255087
0.23415874 -0.028796012 0.067134164 -0.019653289 -0.003466841 -0.09836731 0.021873636 0.00504369
0.052446287 -0.088199854 0.031152833 -0.06925141 -0.015375321 0.074011035 -0.08755217 -0.00108804
-0.01799067 -0.10934263 -0.00023622459 0.057823993 0.125957 0.028236473 -0.04877376 -0.020610752
-0.036707602 -0.00034920388 -0.13092822 -0.014832564 -0.02636989 -0.017881254 -0.0017749999 -0.00542386
0.007485216 -0.016977802 -0.00022160643 0.10757848 -0.00034002797 -0.17972365 -0.011278845 0.009298719
-0.0011465875 0.24917671 -0.0008393724 0.0058738533 -0.039977517 -0.09089441 -0.020209076 0.0016941929
0.060553983 0.11607234 0.09383272 -0.02440221 0.23963693 0.01563916 -0.049985733 0.065258905

acfe.4.running_mean f4 [64]
00000000: 5a2f 963d 9477 04bd c093 b9bb 828b 5dbe
00000010: 2624 a2ba 8704 f0be 8d65 c4bb c32b 76be
00000020: 53f1 65be 27c6 d4be a9b9 9c3e c7b8 b3bc
00000030: 4cd3 f9ba 885e 4bbf 53ac e1bd 7f87 eabc
00000040: dfa8 c0be e5d4 cbbe e367 48be 94c2 4bbf
00000050: d8db 8bbe 3ea1 9dbe cc4e 36be ac28 99bb
00000060: 8e34 15bf 744b 3ebf 037b 9bba ef1c 22bf
00000070: a760 0bbf 17ea d0be 4a6b 09be 6c28 cfbe
00000080: 0b1c 35be 3e5a 3dba a68b 04bf 402e 67bb
00000090: dbaa c2bb 81c5 9fbf 6f2b ef3a 6c01 cf3c
000000a0: 7bf8 2dbf 119e eebe dfbf 4eba 6bff f1bd
000000b0: 7ff7 dbba 4a4b 98bf df59 2bbf 1f4a 15bf
000000c0: a667 9b38 4b33 1bbe ce4c e4ba e211 a1be
000000d0: aabb 92be 5956 ffbe ad1c b2be d36a 0abf
000000e0: e56d d43d b3bd 42be 20d0 883d 6002 19bc
000000f0: e77d 25bc 87af 9dbe c872 eebd 6dcc 6b3d
0.0733325 -0.0323406 -0.005663365 -0.2163525 -0.0012370392 -0.46878454 -0.005993551 -0.24040131
-0.22455339 -0.41557428 0.30610397 -0.021938695 -0.0019060164 -0.7944112 -0.11019196 -0.028629063
-0.37628838 -0.39810863 -0.1957088 -0.7959378 -0.27316165 -0.3078708 -0.17803496 -0.004674038
-0.5828332 -0.7433388 -0.0011862222 -0.633254 -0.54444355 -0.40803596 -0.13419834 -0.40460527
-0.17686479 -0.0007223225 -0.51775587 -0.003527537 -0.0059407777 -1.2482148 0.0018247197 0.025269233
-0.67957276 -0.4660497 -0.00078868674 -0.11816295 -0.0016782134 -1.1897976 -0.6693401 -0.58316225
7.410282e-05 -0.15156285 -0.0017417909 -0.31458956 -0.286588 -0.49870566 -0.34787503 -0.5406925
0.10372523 -0.19017677 0.06680322 -0.009338945 -0.010100818 -0.3079798 -0.116429865 0.057568002

acfe.4.running_var f4 [64]
00000000: ba51 e53d 86b0 253a 29c0 ae37 3ea7 0d3e
00000010: 49c7 2c37 1431 8b3e 155f e238 7325 c73d
00000020: 260e ba3e b578 043f 2291 da3e 40fe 1d3f
00000030: f0ca cf37 af38 823f d216 5f3e 78f5 a93d
00000040: 57b0 113f 0cad 463f 147f d13e 5a2b 103f
00000050: e4d5 253f 3ad6 0e3f 6168 cc3e e87d b138
00000060: d1b0 e33e 9644 1f3f c774 5435 639f 2d3e
00000070: c1f4 803e 7b7a b33e cfe2 683e 7ae6 a83e
00000080: 097d 1f3f 02bf f034 3cb6 713f f41d d039
00000090: 0380 0d3f 5869 1c3f 8177 ba36 fed6 e339
000000a0: 3048 ea3e dfa7 0e3f 36a7 0935 380b 7e3e
000000b0: 6dff da35 c331 ea3e 5765 9f3e 89dc ec3e
000000c0: 32f4 2b35 61ca 493e e25d d136 f0b6 a73e
000000d0: 227a 413e 6433 7e3e 21be 863e efa1 0e3f
000000e0: 2713 743e bd27 5c3e 8386 5b3e 8b7c 143b
000000f0: f8bf 743e 36e5 153e c519 633c 45f4 c03d
0.11197229 0.00063205545 2.0831898e-05 0.13833329 1.0298399e-05 0.2718588 0.0001079423 0.0972394
0.3633892 0.51746684 0.42688853 0.6171608 2.4770823e-05 1.0173548 0.21786049 0.082987726
0.569097 0.776078 0.40917265 0.5631615 0.64779496 0.55795634 0.39923385 8.4634696e-05
0.44470838 0.6221403 7.914609e-07 0.16955332 0.25186732 0.35054383 0.2274277 0.3298834
0.62300164 4.484246e-07 0.9441869 0.00039695168 0.55273455 0.6109824 5.557144e-06 0.00043456996
0.457582 0.557249 5.12798e-07 0.24808967 1.6316604e-06 0.4574109 0.31132004 0.46262005
6.4057815e-07 0.19706108 6.239615e-06 0.32756758 0.18894246 0.24824291 0.26316932 0.5571584
0.23835431 0.21499534 0.21438031 0.0022657241 0.23901355 0.14638218 0.013861124 0.09421591

tdfe.0.weight f4 [32, 1, 3, 3]
00000000: ac34 37bf 87ce e5bd c302 2d3f 16af 03bf
00000010: bcdf aabd a19c 573e b617 0abf aa27 cdbd
00000020: af9c fd3e a9f1 013e b3e9 ef3d 1ac3 bf3d
00000030: 618e 023c ddee 14bd 9878 b2bc 4b7e 15be
00000040: 40a2 49be 9bf7 5fbe adcf b13e 44aa cb3e
00000050: b2ac 51bf e2da 9a3e 6813 533e 45be 28bf
00000060: 5b6a 953d 1acc 5b3e 014a c5be 14b2 c93c
00000070: b255 c03c dbec 673c 9f5d 92be 5e9d aabe
00000080: 6923 a3be bad0 363e 93e6 413e 7599 5a3e
00000090: 2bde d3bd f7ba 3bbe d9b5 31be 6171 9a3d
000000a0: d054 9c3d f1f3 0b3e 43a1 003e c935 ce3d
000000b0: aeed e63d ac16 683f 96ed 4ebf f329 68be
000000c0: ebdf 0d3e eab2 85be 838a b9bd 9106 0bbf
000000d0: 5421 c03e f3f4 8b3d 73e8 eebd cea6 1ebe
000000e0: 41fe 0cbe 01c5 8a3c 7ed0 293d 5fbb 083e
000000f0: d9e6 e3bd 9b40 0cbe 8a05 d0bd 15e7 febd
00000100: e90b 4bbe 6854 8bbd de9c 6ebe 26ad 78be
00000110: 0dac 24be f2f0 0dbd 6f40 56bd ec06 503e
00000120: 0604 14be 9ca0 733e b258 5ebe 962a 3bbf
00000130: 8a44 b23f 54bc 60bf ac62 54be b435 c33e
00000140: e85f a5be be25 973d a06e aebe b156 e33d
00000150: 5e8c cb3e 98b9 b1be 9951 9abe 2eaa fcbd
00000160: 5f92 89be dade 353e 2989 563c cab0 163b
00000170: f02f abbb 3669 de3d 0965 0a3e bf0c 253e
00000180: 5623 3cbe 726e 8bbe cef5 89be 5aec b33d
00000190: fb70 7fbe 1a76 9abe 6a09 a33e 35b1 80be
000001a0: c3b3 9fbe ef44 1c3f e1a4 143d e181 03be
000001b0: b2ac 46bf 2a81 003f 3e50 743e d5ef fcbe
000001c0: 9d95 4e3e 7f10 d83d 7af4 d8be 30b7 613e
000001d0: 65eb c43d 8bd9 b2bd caa2 42be fbd8 29bd
000001e0: a199 45be 6e98 45be 9a42 4ebe 2a9d 40bd
000001f0: c1f4 1ebe 08d8 34be 20c2 393f acbd 8cbe
00000200: 2ccf 22bf a694 e23e 8548 5fbe 4019 18bf
00000210: fbd3 d93e b7b5 80be f732 c0be b83e 1fbe
00000220: b4d3 36be 69ca b4bd d485 35be d42f e0bd
00000230: f011 f93d f25d 16be 6683 2f3d e5a9 9e3e
00000240: 6546 e63e b9eb 3abc 4249 93be a29a 9f3e
00000250: 86fb 13bd 6ccf 58be 3f19 b63e 40e6 a3bd
00000260: 1632 7fbe 673d 983d 6bfc 1c3d 9cdc 033d
00000270: 6bf8 173d 7583 3b3d 1488 903d 2e98 3e3c
00000280: c9c1 bb3d 8916 4e3c a9b7 b03e eb92 b1bd
00000290: c302 b1be 3ae9 c83e e961 01be cfdc 9cbe
000002a0: 01d8 603e d89f 9fbd b9d4 8fbe c950 97bd
000002b0: 75ba 47be 5cd2 18be bc78 4abe 0b7f 65be
000002c0: 9971 53be 9acc 25be 5ff4 e8bd 756a 70bd
000002d0: 9b6e 54be d327 07bd ebce f23d cb53 a6be
000002e0: 0c9e d23c 8d6f f53e d15b 95be d165 57bd
000002f0: 0070 0c3f 2340 263c 7d56 9cbd c2ba 27be
00000300: 4b19 ae3c 1b37 19be be27 56be 102a ffbd
00000310: 856e 63bd fe4d 72bd 218c 163f a4aa 89bd
00000320: 8dce 25bf f8e7 663d face 9abd 7419 c1be
00000330: dd86 ae3e 3e31 d0bd e572 d0be e839 d1bc
00000340: 0ce6 bbbd 472e 42be e468 d33c 1083 a5bc
00000350: aff7 60be d350 363e 0f14 973d 66a0 1dbe
00000360: dee9 17be 267c 52be 886e 20be c162 96bd
00000370: 1252 b4bd 63bc 2abe 6644 173e 5c4e a73c
00000380: 2456 63bc 8f16 b5bd 059a 10bd 5233 18be
00000390: 8115 0a3d d5ea 543e 6337 3e3d 7df9 8f3d
000003a0: c980 723e 4db8 9f3d 3964 a53e dbb8 2fbf
000003b0: e787 293e 088e c53e b5e8 63bf 2809 803e
000003c0: 214a 9c3e 8473 20bf be36 623e 5d80 a0be
000003d0: 8533 56bf 1f10 7f3f 545f 7ebe be3a e0be
000003e0: ca50 a43e c4a7 753c f36c d2bd f235 e9bd
000003f0: 9d49 373e fd91 0bbd db96 b8bd 0989 acbc
-0.71564746 -0.112210326 0.6758234 -0.51439035 -0.08343455 0.21055843 -0.5394243 -0.10017331
0.49533603 0.12689842 0.117144965 0.093633845 0.007968516 -0.03636061 -0.02178602 -0.14598958
-0.196908 -0.21871798 0.34728757 0.3977834 -0.8190414 0.3024512 0.20612872 -0.6591533
0.07295676 0.21464577 -0.38533023 0.024621047 0.023478363 0.014155592 -0.28587052 -0.33323187
-0.31862953 0.1785306 0.18935613 0.21347602 -0.103451096 -0.1833304 -0.17354526 0.075411566
0.07633364 0.13667275 0.12561516 0.100688525 0.112758026 0.90659595 -0.8083128 -0.22672252
0.13854949 -0.26113063 -0.09059622 -0.54306895 0.37525427 0.0683383 -0.1166543 -0.15493318
-0.13768865 0.016939642 0.0414586 0.13352726 -0.11128015 -0.1369652 -0.101573065 -0.12446419
-0.19828762 -0.068032086 -0.23302028 -0.24284801 -0.16081257 -0.03465361 -0.052307542 0.2031514
-0.1445466 0.23791736 -0.21713522 -0.73111856 1.3927166 -0.87787366 -0.20740765 0.3812691
-0.32299733 0.073802456 -0.34068775 0.111005194 0.3975553 -0.3471191 -0.3014038 -0.12337147
-0.26869485 0.17760792 0.013094225 0.0022993558 -0.0052242205 0.10859911 0.13515104 0.16118143
-0.18372855 -0.272327 -0.26945347 0.08785315 -0.24945442 -0.3016823 0.3184312 -0.25135198
-0.31191835 0.61042684 0.036290053 -0.12842514 -0.7760726 0.5019709 0.23858735 -0.49401727
0.2017426 0.105500214 -0.4237402 0.22042537 0.096152104 -0.08732899 -0.19007412 -0.041466694
-0.19296886 -0.19296429 -0.20142594 -0.047024883 -0.15523054 -0.17660534 0.72561836 -0.27488458
-0.6359737 0.44254035 -0.21805008 -0.5941353 0.4254454 -0.25138637 -0.37538883 -0.15551269
-0.17854196 -0.08827669 -0.17726833 -0.109466225 0.121616244 -0.14684275 0.04284992 0.30988994
0.44975582 -0.01140874 -0.2876683 0.31172663 -0.036128543 -0.21172875 0.35566136 -0.08002901
-0.2492145 0.074335866 0.038326662 0.03219281 0.037102144 0.045779664 0.07057205 0.011632962
0.09167821 0.012578615 0.34515122 -0.086706005 -0.3457242 0.39240438 -0.12635006 -0.30637214
0.21957399 -0.0779416 -0.28091982 -0.073884554 -0.19504721 -0.14923996 -0.19772619 -0.22411744
-0.20648803 -0.1619133 -0.11374735 -0.058695275 -0.20745318 -0.032996964 0.11855873 -0.32485804
0.025710128 0.4793667 -0.29171613 -0.052587334 0.548584 0.010147127 -0.07633684 -0.16379836
0.021252295 -0.14962427 -0.20913598 -0.12459195 -0.05552532 -0.05915641 0.5880757 -0.06722
-0.64768296 0.056373566 -0.07559009 -0.37714732 0.34087268 -0.10165642 -0.40712658 -0.025540307
-0.09174737 -0.18962966 0.025806852 -0.020204097 -0.21969484 0.1780427 0.07376873 -0.15393218
-0.14835307 -0.20555171 -0.15667164 -0.073430546 -0.08804716 -0.16673426 0.14772186 0.020423107
-0.013875518 -0.08842193 -0.035303134 -0.14863327 0.033711914 0.20792706 0.04643954 0.07030008
0.2368194 0.077988245 0.32303026 -0.6864144 0.16555749 0.38584924 -0.8902696 0.25006986
0.30525306 -0.6267626 0.22091195 -0.31347933 -0.8367236 0.99633974 -0.24841052 -0.43794817
0.32092887 0.014993612 -0.10274687 -0.113872424 0.17899175 -0.034074772 -0.090131484 -0.021061437

tdfe.1.weight f4 [32]
00000000: 84e1 b93e 71d4 5b3e 8379 b23e 76cb 833e
00000010: b510 113e 15b8 e73e a832 6c3e 5d23 033f
00000020: c879 d53e d418 363f 13a5 5d3e cb71 713e
00000030: 493f bb3e 4950 123f 29b5 b43e bf8a 6c3e
00000040: c3fd 233e c852 333e 38df de3e 62f4 8e3f
00000050: bf6a 373e 1286 873e a187 0e3f 2bdb 363e
00000060: bba2 893e b5a9 123e 4bd9 fd3e ffec 0f3f
00000070: eb4a 723e e72d 1c3e e2ba b63e 07ec 7e3e
0.36304867 0.21467759 0.3485833 0.25741166 0.1416653 0.4525763 0.23066199 0.51225835
0.41694474 0.71131635 0.21645002 0.23578565 0.3657172 0.57153755 0.35294464 0.23099802
0.16014771 0.17512047 0.43529677 1.116833 0.17911814 0.26469475 0.55675703 0.17857043
0.26881966 0.1432255 0.49579844 0.56221 0.23661391 0.15251885 0.35689455 0.24894725

tdfe.1.bias f4 [32]
00000000: 2dde 903e dbc0 473d 1131 673e 0a53 f73d
00000010: 0c96 4e3e 4346 693d ae2a 393e 8226 9dbd
00000020: 59ed b43d e0ec 51be 2b33 5b3e 5f3e 6e3e
00000030: ea50 e43d 680a 413d 9fab d53e f4b0 0f3e
00000040: 1422 c83d 8840 aabe dae6 5cbf c103 d1be
00000050: fe91 5d3e 54be 9f3e 815b 89bd 9f5f 493e
00000060: 44f2 023e 317d 813e f61c 70bc dde9 4bbd
00000070: 3b79 00bf ef8f edbe 9782 0b3e a2d8 e73e
0.28294507 0.048767906 0.22577311 0.12076385 0.20174426 0.056951772 0.18082687 -0.076733604
0.08834333 -0.20500517 0.21406238 0.2326598 0.11148246 0.047129065 0.417325 0.14032346
0.09772125 -0.33252358 -0.8628975 -0.40823177 0.21637723 0.31199896 -0.06706906 0.19665383
0.1278773 0.25290826 -0.014655342 -0.049783576 -0.50184983 -0.46398875 0.13624035 0.45282465

tdfe.1.running_mean f4 [32]
00000000: 8bd7 69be b1c6 babd 7bdd d4bd 6e53 cebd
00000010: 12c4 6b3d f39f 16be 856e 3fbe 67ea 9bbe
00000020: 0282 20be e726 57be b28b cfbd 9a10 82bd
00000030: 56f4 ddbd a731 dbbe 2629 81be 95d2 01be
00000040: 8d6f a43d 1418 0d3e bf53 b7bd 825b ebbe
00000050: ab44 b43d bf6e 89be 168d 6bbe 5c28 10be
00000060: 4562 69be 3651 0a3e 59e9 3ebe df36 77be
00000070: dfa1 0c3c a092 063e f5cd 9bbe c332 28be
-0.2283613 -0.09119929 -0.103938065 -0.10074507 0.057560034 -0.14709453 -0.18694504 -0.30452272
-0.15674594 -0.21010934 -0.10134067 -0.06350823 -0.10837619 -0.4281132 -0.25226706 -0.12677987
0.08029089 0.13778716 -0.0895152 -0.45968252 0.0880216 -0.26842305 -0.23003039 -0.14077896
-0.22791393 0.13507542 -0.18643703 -0.24142025 0.008583515 0.1314187 -0.3043057 -0.16425614

tdfe.1.running_var f4 [32]
00000000: cff0 7f3e 6c80 9c3d ca2f 123e cd44 713e
00000010: bdd7 893d c1ff e23d ded8 f13d 0c7d 6d3e
00000020: 56ed 583e 9166 ec3d bb0a 0e3e 791b 0b3e
00000030: a173 f63d d66c bd3e a11b 903e 00f1 933d
00000040: 3feb 823d d072 1c3d c9c3 8c3d c239 da3e
00000050: 7488 a83d c71e 163e 3681 493e 123f 783d
00000060: 6a58 0e3e 1b2f 9a3d 9582 423e 90ae 673e
00000070: b5d3 1f3c 956b 0e3d 235e a53e 164a de3d
0.24994205 0.07641682 0.14276043 0.23561402 0.06730602 0.110839374 0.11808942 0.23192233
0.21184286 0.115430005 0.13871281 0.13584699 0.12033773 0.36997098 0.2814608 0.072237015
0.06392526 0.03819543 0.068732806 0.4262219 0.08229151 0.14660178 0.19678196 0.060607024
0.13900915 0.07528516 0.18995126 0.22625184 0.009755065 0.034770567 0.32298383 0.108539745

tdfe.4.weight f4 [32, 32, 3, 3]
00000000: bfe8 d1bb e622 55bd 6ed0 a43d 9e38 0cbd
00000010: d52a 7cbd 70b3 b0bc ea97 5abd 39b0 85bd
00000020: 725a c23d 01c2 1b3d fdaf 9f3c 056e 323d
00000030: 1991 80bc 22e7 01bc b388 87b9 68a2 94bd
00000040: e9a9 b0bd 2020 abbd 4ecd a6bc 9ca9 d2bd
00000050: d59f 2c3d aeed edbd 7cb0 28be 9286 d0bd
00000060: 2286 8c3d 561e 07bc deef f13d 8002 01be
00000070: 9500 ddbd ee45 c4bd 71b8 6f3d 9782 9f3d
00000080: d96b b43d 415e 72bd fdea 2fbc 6572 e8ba
00000090: 803d 25bd f377 01bd 0deb 48bc 9c51 8ebc
000000a0: c5d2 3ebc ffa5 d3bb 9b26 213b 7fc8 393d
000000b0: 49a4 6c3d b947 b1bc 44fc 0f3c 5914 51bd
000000c0: bfdc cbbd 317d b8bd 9d66 05be 7b87 25bd
000000d0: 0470 89bd e4f9 a3bd 6fdf f53b e071 fb3b
000000e0: 1f2b 923c 96b3 6bbd 2030 46bd 2d6e 5abd
000000f0: e829 403c 3aa7 063d c354 ae3c 5454 7a3c
00000100: 43b2 2d3d 7f19 d23c 7297 e03c d726 6b3c
00000110: 6a04 d73c e56c 1bbd 7ea7 75bc 8e8b 933b
00000120: 83af 36be 5d74 6abe 1393 34bd 84d7 0bbe
00000130: e8a8 20be 52a4 91bd c472 673d 64f5 e13d
00000140: afaa b13d 3f6d 0dbd 188e 80bb 90c8 f43c
00000150: e701 a2bd 874c 98bd a09b 123c e7e7 bfbb
00000160: 73d7 98bc 7451 babc 287f d6bd 97d6 f5bd
00000170: a43d e9bd 74ba 95bd 2e32 62bd deb6 53bd
00000180: e1e6 3cbd 1ae0 fdbc b1ed 27bd 9b63 f1bd
00000190: 7ac5 aabd 1c22 abbc 191a 143d ad41 2e3d
000001a0: d6a6 153d fb88 9c3c 830a 8f3d cb5e ef3c
000001b0: 1b81 a2bb 7b0e c0bc 10ca f43c c2bd 12be
000001c0: 3b92 adbd d0ac 0bbe 34c5 84bd 0b8b 9d3d
000001d0: b4fc 76ba 4901 b23d b530 d13d 2613 dd3d
000001e0: 9ca2 563d 0aee 353d cc3a 043d 6d68 26bd
000001f0: 34eb 40bd 1e39 81bd a392 72bc 3abe 10bc
00000200: 6773 8c3d 4611 dcbd e338 9cbd 0cec 5abd
00000210: 75dc 3f3c 3002 bcbc 5ea0 04bd 7007 9e3c
00000220: 90a6 aa3c 2ee1 163d 8e24 a23c 5876 883c
00000230: 5e46 2e3d ff1b 24bd c5a8 29bb a7df 2d3d
00000240: 8bc7 b4bd 80e0 d4bd 619c 2cbd cd13 e8bd
00000250: 6272 c4bd 8c97 9dbd 5ff7 883d 85d9 c83d
00000260: 68f8 883d c6f1 583c 07d2 633c b605 493c
00000270: 425d dd3c 71cd f63c d0d7 c23c 7f52 283d
00000280: 5dbe 2c3d 2932 3d3d fa89 933c a682 ba3c
00000290: cb9d b73c f831 3dbb cb1a 823c 0e5f bd3c
000002a0: fcb4 99bc e9d6 cb3c d6c3 ec3c 99ae cd3d
000002b0: a85b 193e f992 0a3e 6d7c 193d 422d 843c
000002c0: e1f9 ba3c 0f40 8e3d ec37 593d 46dc e73c
000002d0: 074e 0dbe db4f 2abe fd5c b8bd c392 37bd
000002e0: 6254 45bd 09c2 f73c da57 bdbc 5993 263d
000002f0: 39c7 053e 6d6a b43d 4e9e c33d 19c6 e43d
00000300: 316c 8f3d 2734 6f3d ed58 8c3d e9f5 9abd
00000310: abc3 c6bd 74a9 a6bd fdc1 733c f90d 01bd
00000320: 6bc9 403d a7c9 9fbd c776 c4bd e2d8 20bd
00000330: 22d5 d2bd 8aee 15bd 18f6 86bd 6207 df3c
00000340: b68e 203d 8700 923d 0a18 5a3c 3570 d93a
00000350: b0c5 073c bb2a 82ba 0e5f 403c 0445 97ba
00000360: 44fc 7a3d 6239 9c3d e2d8 c93d fe2b 033d
00000370: 856b 953c 7033 8f3c 40b8 85bc 7e80 63ba
00000380: f97c 28bb a3a7 81bd bc6c 69bd 3685 d7bc
00000390: 5856 febb 836d 0bbb 6fc2 a43c 9724 a63b
000003a0: c47a 523d de0d ad3d d134 aabd 88a1 e9bd
000003b0: 9bdd 663b ea2e e0bd f4d1 e6bd 2af8 6bbd
000003c0: 0e18 7e3d e373 953c 40f8 d83d 3e9f 87bd
000003d0: 47c9 3bbd ca57 413e eaf7 ebbd 0145 2dbe
000003e0: b08f eebd 7e33 13be a548 53be 8cf4 2bbb
000003f0: a0b2 683c 7204 8b3c a04e c23c fa17 133d
-0.0064059193 -0.052035235 0.08047567 -0.03423368 -0.061564285 -0.021569937 -0.053367533 -0.065277524
0.09489907 0.038026813 0.019493097 0.043561954 -0.015694188 -0.0079286415 -0.00025851055 -0.07257539
-0.08626158 -0.08355737 -0.020361569 -0.10286257 0.042144615 -0.116175994 -0.16473573 -0.10181917
0.06861521 -0.008246979 0.11813329 -0.1259861 -0.10791127 -0.095836505 0.058525506 0.0778858
0.08809633 -0.05917192 -0.010737178 -0.0017734288 -0.040341854 -0.031608533 -0.012263072 -0.017372899
-0.011646931 -0.0064589973 0.002458966 0.045357224 0.057773862 -0.021640645 0.008788172 -0.051044796
-0.09954213 -0.09008253 -0.13027425 -0.040412407 -0.067108184 -0.08006647 0.007503442 0.007673487
0.017842827 -0.057544313 -0.04838574 -0.053327728 0.011728741 0.032874323 0.021280652 0.015278894
0.04240633 0.025646923 0.027415965 0.014352522 0.026247222 -0.037945647 -0.0149935465 0.00450272
-0.1784039 -0.22895952 -0.044085573 -0.13656431 -0.15689433 -0.0711142 0.056505933 0.11033133
0.086751334 -0.034528013 -0.003923189 0.029880792 -0.07910519 -0.074364714 0.008948237 -0.0058565023
-0.018657422 -0.022743918 -0.10473472 -0.120038204 -0.1138871 -0.07310954 -0.055223636 -0.051688068
-0.04611862 -0.030990649 -0.040998165 -0.11786576 -0.08338447 -0.020890288 0.0361577 0.042543102
0.03653606 0.019108286 0.06984427 0.029220005 -0.004959238 -0.023444405 0.029881507 -0.143302
-0.08475157 -0.13640141 -0.06482926 0.07692536 -0.0009421811 0.086916514 0.10214368 0.10794668
0.05240117 0.044416465 0.032282636 -0.040626932 -0.047099307 -0.06309722 -0.014805469 -0.008834416
0.06857949 -0.10745482 -0.07628038 -0.053447768 0.011710276 -0.022950262 -0.0323795 0.019290656
0.020831376 0.03683584 0.019792821 0.016657993 0.042547576 -0.04006576 -0.0025887948 0.04244962
-0.08827122 -0.103943825 -0.042141322 -0.11331902 -0.09592129 -0.07694921 0.06687807 0.098071136
0.06688005 0.013241237 0.013905055 0.012269428 0.027022008 0.030127259 0.023784548 0.0410943
0.042173732 0.046190415 0.018010128 0.022767376 0.022414109 -0.0028868895 0.015881917 0.023116615
-0.018763058 0.02488275 0.028901976 0.100430675 0.1497637 0.13532628 0.037472177 0.016134862
0.02282423 0.06945812 0.053031847 0.028303277 -0.13799296 -0.16632025 -0.09002111 -0.044817697
-0.048176177 0.03024389 -0.02311318 0.040667865 0.13064279 0.088093616 0.095516786 0.11170597
0.07003058 0.058399346 0.06852899 -0.07566435 -0.097052895 -0.08137789 0.014877793 -0.031507466
0.047067087 -0.07802134 -0.095929675 -0.039269336 -0.10294558 -0.03660444 -0.065899074 0.0272252
0.0391986 0.07129007 0.013311395 0.0016589226 0.0082868785 -0.0009930948 0.011741413 -0.0011540954
0.061275735 0.076281324 0.0985582 0.032024376 0.018239746 0.017480582 -0.016323209 -0.00086785096
-0.0025709255 -0.06330802 -0.056988463 -0.026308637 -0.007761758 -0.002127499 0.020112244 0.00507028
0.05138661 0.084499106 -0.08310855 -0.11407763 0.0035227302 -0.10946448 -0.11270514 -0.057609715
0.06203466 0.018243736 0.10594225 -0.0662217 -0.04584625 0.18881145 -0.11521895 -0.16920854
-0.116485 -0.14375111 -0.2063318 -0.002623829 0.014202744 0.016969893 0.023719132 0.035911538

tdfe.5.weight f4 [32]
00000000: 068f 1d3f 254b ab3e 9a57 223f e5d7 413e
00000010: db1d 573e 225e e23e 7f94 003f 8c4f fb3e
00000020: a467 7dbd fd45 193f 72d5 fd3e a715 d83e
00000030: 54e8 dc3e bd5b f33e 90d6 943e 8826 013f
00000040: 0a7b 813f 1cb6 1d3f 1376 043f 523d a33e
00000050: 040f 083f a521 e03e 5ee1 023f c12c 3ab8
00000060: 6a46 023f 5cfa 5c3f 9998 673e 0df9 b63e
00000070: 1043 d53e b80b ce3e 1abe a23e 0586 c63e
0.6154636 0.33455768 0.6341492 0.18930013 0.21007483 0.44212443 0.5022659 0.49084127
-0.061866418 0.5987242 0.49576908 0.4220402 0.43146002 0.47530928 0.29069948 0.5044942
1.0115674 0.61606 0.51742667 0.3188272 0.5314791 0.4377567 0.51125133 -4.4387536e-05
0.50888693 0.8631952 0.22616805 0.35736886 0.41652727 0.40243316 0.3178566 0.38774124

tdfe.5.bias f4 [32]
00000000: 7760 b4bd b106 c2bd 1d39 5cbe 6307 213d
00000010: c355 9f3d 2ba0 e8bd 599b 59bd db85 d5bd
00000020: dd6c b3bd dd1c 42be 2e83 c3bd 8904 40bd
00000030: d61f 383d b19a 2abd 715e 433e 2ab3 e5bd
00000040: e8c5 94be b67e 4abc 8b76 d6bd 9e20 563e
00000050: de0c 2b3d 71a0 1a3d af38 debd 2ecd 84ba
00000060: 31b6 0bbe d297 6abe b535 a33c c647 c93d
00000070: 8c52 613d 04fa 83be 3813 173d 5c30 4f3e
-0.08807462 -0.094739325 -0.21506162 0.039313685 0.077800296 -0.113586746 -0.053126667 -0.104259215
-0.087609984 -0.18956323 -0.09546505 -0.046879325 0.044952236 -0.04165143 0.19078995 -0.112158135
-0.2905724 -0.012359312 -0.10471829 0.2091088 0.041760318 0.037750665 -0.10850655 -0.0010131949
-0.1364372 -0.22909477 0.01992307 0.09828143 0.055010363 -0.25776684 0.036883563 0.20233291

tdfe.5.running_mean f4 [32]
00000000: 249b 7abf bf08 68be 65a8 fc3d 95a0 90be
00000010: 3e8e fb3d 93e6 91be b78f 3ebf 39ce adbe
00000020: ea04 9cbd bc62 51bc 0eee 74bc 99d2 a5be
00000030: c61c e2be 4368 47bf 102d d7bf 7b6f 7dbd
00000040: 7823 83bf f873 c7bf 7420 f4bc 4e3b 85be
00000050: 7a70 c4be b824 37bf dcd4 09be ce49 0b3b
00000060: c863 4abe 99ac 81bf 4de8 c3be eac0 89be
00000070: 282b 43bd 9e43 663f 23a8 1cbf cc49 47bf
-0.97892976 -0.22659586 0.12336806 -0.28247514 0.1228299 -0.28496227 -0.7443804 -0.33946398
-0.07618125 -0.012779888 -0.014949335 -0.32387236 -0.44162577 -0.77893466 -1.6810627 -0.061873894
-1.0245199 -1.5582266 -0.029800631 -0.26021808 -0.38367063 -0.71540403 -0.13460106 0.0021253708
-0.19764626 -1.0130798 -0.3826317 -0.26904994 -0.04764858 0.89946926 -0.61194056 -0.7784698

tdfe.5.running_var f4 [32]
00000000: 1237 0d3f c9c6 a43e b752 aa3e 745d 1a3e
00000010: bbde 453e f039 5f3e 7ddb df3e 22dc b83e
00000020: 96ee 423b f5a8 8a3e e874 da3e 6699 8f3e
00000030: 95d7 c23e 336a d63e 8a06 973e 39fb b63e
00000040: 864a 813f 991d 5f3f 7a28 a73e 0b18 7c3e
00000050: 168a a23e 7afe 5a3e 1c75 813e e26c 2235
00000060: 7afc a63e f9fd 2a3f 01cf 0c3e 3d31 ca3e
00000070: 9ab9 2e3e e317 6d3e 75fb bf3e e66b d03e
0.55162156 0.3218291 0.3326623 0.15074712 0.19323246 0.21799445 0.43722144 0.36105448
0.002974426 0.2708203 0.42667317 0.2804672 0.380551 0.418779 0.29497176 0.35738543
1.0100868 0.8715454 0.3264807 0.24618547 0.31745976 0.21386138 0.2528466 6.050815e-07
0.326145 0.6679378 0.1375084 0.3949069 0.17062989 0.23153643 0.37496534 0.4070732

tdfe.8.weight f4 [48, 32, 3, 3]
00000000: 3ae7 c0bc e378 ff3b 61d6 6f3c 9d0d 8ebd
00000010: 2459 a73c 4d8f 71bd 8516 26bd 1c07 48bd
00000020: 31ac 7bbd 4374 66bd c35d d2bb f851 0bbd
00000030: 524d d53d b177 693d b254 b6bc 877a fcbb
00000040: 9ab7 893d a552 90bc 23c7 dd3d df59 833d
00000050: 5086 903d 05b2 803d 0124 6a3d bd68 2cbb
00000060: 6e6d 22bd 9b04 91bd 98d0 cbbc e6a1 51bd
00000070: 3faf f8bc 7c3e 55bd f8f5 77bd 4e88 86bd
00000080: 57fb 3fbd 98b2 14bd c4af 4dbd 8e33 80bc
00000090: 2465 22bd d2ca 84bd 8cbc 50bd 2c44 4ebc
000000a0: c779 69bd b73b c5bd 91a0 a3bd 89c0 2ebe
000000b0: 035e 09be aaf2 b7bc 8e66 e33c cf08 353c
000000c0: b66d 75bd 856d 523c de7b 79bc d537 7ebb
000000d0: 9d05 c9bc abfe 75bc 795b 283d 9159 46bd
000000e0: f68f 24bd 62fd 22bc dc69 cabd a6f5 33bd
000000f0: 6522 b3bd 5b1d 19be 35d4 aebd 704a d73c
00000100: e05a 03bc 1b18 223d 63e9 18bd 759c 953c
00000110: 2ad3 403d 1629 f4bc 0fa4 c83c ac9b 2d3b
00000120: 0ef0 83bb 01ba d7bb f82e c8bb 0e26 163c
00000130: 352f 713b de12 4c3a 8bb1 633a e946 5bba
00000140: 9e1e e53b 5b95 ca3d a4b0 5f3d 5d46 3c3d
00000150: 5746 93bd 40aa db3c e593 593d fd15 7fbc
00000160: 8d6a 18bd 0992 92bc 1ad9 243c cb8d 7aba
00000170: c5db e73c b7a0 c93c 7a8f c83c 0bd2 c53b
00000180: c70b 31bd 8da9 a1bd 120f edbc a26e b03c
00000190: 4202 21bd 9693 c4bb 3a32 4ebd 9472 c3bd
000001a0: 7d74 d1bd 4930 cf3b 3b95 0b3d d7d4 613a
000001b0: 9312 1cbb 36a5 f03c 1097 283d a99c 54bd
000001c0: 7b2f c6ba 906a b7bd 69ec 1bbd e00e a1bd
000001d0: 402a 97bd 7433 f13c f716 603c d4fd 193d
000001e0: 49d4 0e3d dcb2 50bd d875 d83b 3c96 cd3c
000001f0: b496 d0bd 7719 d4bc 9a9b 32bd 1117 9abc
00000200: 2955 dbbc d309 69bd 4d62 73bd bea5 b4bd
00000210: 22bb f8bd de4e 1dbe 9f31 27be 0d07 82bd
00000220: ea1f 67bd 8a50 44bd 890c 64bd 6f42 613b
00000230: 809e d5bc 2e23 8ebc 6a08 a6bb 7493 abbd
00000240: 62c5 1a3d ce73 1d3d 38f6 533d c9cd 87bd
00000250: 4a73 80bd 2b3f 80bd d47d a0bd 26bb bfbd
00000260: 6004 fabd bb28 ea3c 6388 473d 21ee 343d
00000270: e15c aabd 5240 98bd 6851 a6bd fe61 88bd
00000280: 1beb b7bd 2a71 e2bd b055 5d3d 9308 463d
00000290: 080d 4a3d 2943 bebd 2770 33bd 051f 103a
000002a0: fda8 25bd 723c 453d 8461 5f3d 29a5 16bd
000002b0: 592e 7ebd c881 9fbc 3b69 69bb 563f 68bd
000002c0: 3e16 62bd 95cc 76bc 8da8 993c 37f5 4fbc
000002d0: 5d5d 0cbd 6f0b 8b3d d8ac 9fbc e3f4 95bd
000002e0: 1a1e 473d 521e 063d 59be 7dbc e896 7f3d
000002f0: aac3 343d 409d ba38 6a83 bf3c 3d5d 9e3c
00000300: 794f 0f3d bfac 833b 7903 5b3c 4e99 463c
00000310: f71a 3abc 3a79 1e3d 8b1d 03bd 7b72 6bbc
00000320: f118 603b dae2 8fbb b335 83bd 7105 49bc
00000330: ec9c 88bd d556 eebd bec8 9bbd 72f1 4db8
00000340: 4b90 a2b8 683c e5b7 82a0 b4b8 cbfc 11b9
00000350: e367 19b9 5ceb 97b8 6c54 1eb9 09bb 38b9
00000360: 5509 b8bd 5797 eabc 1fd3 e8bb cecb 86bd
00000370: ba31 a1bd c2e0 65bd 2edb 2d3b 46c8 a03c
00000380: ac0b 8fba e805 d63a e3d0 033d 0563 993d
00000390: 05e2 03bd 5ab1 08bd 0781 67bd 2cf7 94bd
000003a0: 60cc b1bd 3ae3 e9bd b05e 1fbd 2ef6 43bd
000003b0: 0f74 10bd c872 6dbc 7ca7 f2bc 7b20 15bd
000003c0: fbca f0bc 9512 1ebc 8d19 72bb a82d 4cbd
000003d0: 8938 46bd 95c6 26bd a025 1e3c f923 d03c
000003e0: 1b3b 463d b060 a6bc 0c04 afbc 7bd2 3f3d
000003f0: ce63 453d 19e7 a13d 28d3 cf3d c6ac 81bc
-0.023547757 0.0077963932 0.014638514 -0.0693619 0.020428248 -0.058974553 -0.04054882 -0.048834905
-0.06144351 -0.05626322 -0.0064198687 -0.03401372 0.10415138 0.056998912 -0.022257183 -0.007705036
0.06724472 -0.017617533 0.10828998 0.06413626 0.07056868 0.062839545 0.057163242 -0.0026307546
-0.03965514 -0.070809565 -0.024879739 -0.05117979 -0.030357001 -0.052061543 -0.06053731 -0.06568967
-0.046870556 -0.036303133 -0.05021645 -0.015649583 -0.039647236 -0.064839974 -0.050961062 -0.012589496
-0.0570009 -0.0963053 -0.0798961 -0.17065634 -0.13414769 -0.022454578 0.027758863 0.011049463
-0.05991908 0.012843494 -0.015227286 -0.0038790603 -0.02453881 -0.015014331 0.04110286 -0.04842526
-0.040176354 -0.0099481065 -0.09883472 -0.04393544 -0.087467946 -0.14952604 -0.08536569 0.026280612
-0.008017272 0.03957377 -0.03733195 0.018263081 0.04707638 -0.029804748 0.024492292 0.0026490493
-0.0040264195 -0.0065834527 -0.0061091147 0.009164346 0.003680182 0.0007784794 0.0008685819 -0.00083647534
0.0069921752 0.098917685 0.054611817 0.04596554 -0.07191151 0.02681458 0.05311956 -0.015569207
-0.03721099 -0.0178919 0.010061527 -0.0009557872 0.028303036 0.024612768 0.024482477 0.006037002
-0.043224122 -0.07893667 -0.02893785 0.021537129 -0.039308794 -0.005999039 -0.05034087 -0.095433384
-0.102272965 0.0063228947 0.034077864 0.00086147845 -0.0023814782 0.029375654 0.04115969 -0.051907215
-0.0015120351 -0.08955872 -0.038067255 -0.07864165 -0.073811054 0.02944348 0.01367735 0.037595585
0.03487042 -0.050951824 0.006605845 0.025096051 -0.10184994 -0.025891049 -0.043605424 -0.018809827
-0.026774006 -0.056894135 -0.05941992 -0.08820675 -0.12145068 -0.15362117 -0.16327523 -0.06349001
-0.05642692 -0.04792837 -0.055676017 0.0034371873 -0.026076555 -0.01735076 -0.005066921 -0.08377734
0.037785895 0.038440518 0.051748484 -0.06631047 -0.0627199 -0.06262048 -0.078365 -0.093618676
-0.12207866 0.028583875 0.048714053 0.04417241 -0.083184965 -0.07434143 -0.08120996 -0.066593155
-0.0898039 -0.110567406 0.054036796 0.04834802 0.049328834 -0.092901535 -0.04380813 0.00054977863
-0.040444363 0.04815335 0.054536358 -0.036778603 -0.06205592 -0.019471064 -0.00356157 -0.056701027
-0.055196993 -0.015063425 0.01875713 -0.012692741 -0.034268726 0.0678929 -0.019491598 -0.07322099
0.04861269 0.03274376 -0.015487277 0.062399775 0.044131912 8.898461e-05 0.023378093 0.019331569
0.0349879 0.0040183957 0.013367527 0.012121512 -0.011358968 0.03868983 -0.032010596 -0.014370556
0.0034194554 -0.0043910565 -0.06406727 -0.012269364 -0.066705555 -0.11637656 -0.07606648 -4.9100672e-05
-7.7516386e-05 -2.7327056e-05 -8.612966e-05 -0.0001392245 -0.00014629918 -7.24408e-05 -0.00015099504 -0.00017617283
-0.08986155 -0.028636618 -0.0071052457 -0.065818414 -0.07870813 -0.05612255 0.0026528346 0.019626748
-0.0010913513 0.0016328664 0.03218163 0.074895896 -0.03219797 -0.03337226 -0.056519534 -0.07273707
-0.086815596 -0.11420293 -0.03890866 -0.047842197 -0.035266932 -0.014492698 -0.029620878 -0.03640793
-0.029393664 -0.009647985 -0.00369415 -0.04984823 -0.04839376 -0.040716726 0.009652525 0.025407778
0.04839621 -0.020309776 -0.021364234 0.04683159 0.048190884 0.079054065 0.10147697 -0.015829455

tdfe.9.weight f4 [48]
00000000: e8c9 c83e 7300 993e 42e5 d43e fce7 e33e
00000010: 7789 da3e 9cab 833e 475c c83e 8726 9d3e
00000020: 7119 b13e 7cb2 d03e b976 f13e 5c2d dc3e
00000030: 170d 1f3f 6491 1a3f f51f e33e 2b4d c23e
00000040: 4c13 013f a39f c63e 4f22 e43e 8c88 cf3e
00000050: 1da3 b13e 2375 f43e c1e9 b63e 9122 013f
00000060: f97d cf3e 3dea a63e b860 013f 3648 d33e
00000070: 7255 aa3e d019 8e3e 07d0 a83e 0e59 9c3e
00000080: c22f 043f d082 053f 949f 1a3f bb6c bf3e
00000090: f032 ce3e 4c20 8f3e 4216 f13e 0fcc b63e
000000a0: 73c7 b63e 0971 d53e 6b05 013f 0091 dd3e
000000b0: a3de af3e 98c9 c83e 258b 743e 500f c43e
0.39216542 0.29883155 0.4158116 0.44512928 0.42683002 0.25716865 0.39132902 0.30693457
0.34589723 0.40761173 0.4716089 0.43003356 0.6212935 0.603781 0.4436032 0.379495
0.5042007 0.38793668 0.44557425 0.40533864 0.34694758 0.47745618 0.35725215 0.5044337
0.40525797 0.32600585 0.50538206 0.4126603 0.33268315 0.27754068 0.32971212 0.30536693
0.5163537 0.5215273 0.60399747 0.37387642 0.40273237 0.27954328 0.47087294 0.3570256
0.35699043 0.416878 0.5039889 0.4327469 0.34349546 0.39216304 0.23881204 0.38292933

tdfe.9.bias f4 [48]
00000000: 92db a4bd 35d3 1d3c a17d 7abe 3f21 56be
00000010: c179 18be 4743 afbc 5537 3bbc fb40 d53c
00000020: c14d bcbd e85f 823c b4b7 37be de29 d6bd
00000030: d69e 26bf 9f40 71bd 73e8 70be 2007 04be
00000040: bd02 d2be 9469 33bd 7f17 5dbe 8c9f 55be
00000050: 062e 8fbc beac e0bd 2e29 6fbc dd84 38be
00000060: a52f 3cbe 6e78 9fbe b3d0 3ebe 1a77 6ebe
00000070: 6aa3 07be fa3a efbd a973 1bbe fb1a 11be
00000080: 63fa c3be d70f 58be 7277 8dbe 74b1 12bd
00000090: d95b 4bbe a6fc 2b3d c6c9 45be 337e a9bd
000000a0: c85f bbbd 3300 85be 8bf5 0fbe 2848 8dbe
000000b0: ef25 3bbe 4dc1 59be 51cb 303e 00b9 03be
-0.08049692 0.009632875 -0.24461986 -0.2091112 -0.14890195 -0.021394385 -0.011426766 0.026031962
-0.09194518 0.015914872 -0.17941171 -0.10457204 -0.65086114 -0.058899518 -0.23526172 -0.12893343
-0.41017714 -0.04380186 -0.21590994 -0.20861644 -0.017478 -0.10970448 -0.01459722 -0.18019433
-0.1837755 -0.31146568 -0.186343 -0.23287621 -0.13245931 -0.11681171 -0.1518084 -0.14170448
-0.38276967 -0.21099792 -0.27630192 -0.035813764 -0.19859256 0.04198899 -0.19315252 -0.08276024
-0.09149128 -0.25976714 -0.14058511 -0.27594113 -0.1827619 -0.21265145 0.17265059 -0.1286354

tdfe.9.running_mean f4 [48]
00000000: 4cbe 7bbf f751 b8be 994f b03c 0464 9bbe
00000010: 5377 a7be d749 5ebe 9e0a 33bf b55c 13bf
00000020: b8ca 2cbe bbaf 08bf e1f5 85be cfb0 12bf
00000030: c68f 84be 62b9 38bf 9ccc 203f 3b95 3fbe
00000040: 7716 07be 7855 cdbe 5f43 6bbe 6b7c 84be
00000050: 3d69 0cbf 12a3 1cbf 1c09 1abf 4de8 b5bd
00000060: c126 93be 8b93 c63e d535 2abf b582 89be
00000070: 665b ebbd 0811 03bf dc03 5cbe 8a2f bcbe
00000080: b957 2fbe 9d27 81be 678a 20bf c0ef 57be
00000090: aa6c 31bd 7e39 413e f232 dabe 172b dcbd
000000a0: 6780 eabd 1156 56be 7017 c8be 4324 aebe
000000b0: 2e4d a4be 7713 febe b5e8 b8be 262c 463d
-0.98337245 -0.36000034 0.02152233 -0.30349743 -0.32708225 -0.21707855 -0.69938076 -0.57563335
-0.16874206 -0.53393143 -0.26164153 -0.5730104 -0.2589094 -0.7215787 0.6281221 -0.1870927
-0.13192163 -0.4010427 -0.22974919 -0.25876173 -0.5484808 -0.61186326 -0.6017015 -0.088821985
-0.28740504 0.3878444 -0.6648839 -0.26857534 -0.11492042 -0.5119786 -0.21485847 -0.3675502
-0.17123307 -0.25225535 -0.62711185 -0.21087551 -0.04331652 0.18869588 -0.42616993 -0.10750406
-0.11450272 -0.20931269 -0.3908038 -0.3401204 -0.32090133 -0.49624225 -0.3611504 0.048381947

tdfe.9.running_var f4 [48]
00000000: aeb5 173e b900 903d 2a5e 063e 8347 9e3d
00000010: 910a 423e cc76 f53d 3b94 1f3e dcb3 a13d
00000020: 97c5 343e 8e30 0a3e cd92 2e3e b76d e53d
00000030: b46d ae3d 2dbf 863e c5e0 e53d e2c2 db3d
00000040: a62f bc3d 3b5f 103e 1d10 ee3d f84c df3d
00000050: 2213 113e c078 263e c649 e73d 14fe 4a3e
00000060: bf63 ed3d b1f5 903d 1ea8 143e 296d e23d
00000070: 6f10 c43d d47a a23d fde5 c93d 1f8e a33d
00000080: 8dbb c83d 9b12 e83d fa10 2c3e bffb 003e
00000090: 1bb9 ab3d 63bd c43d 6ac7 113e bbae 9e3d
000000a0: c8da e63d a0aa ee3d 6c9e 363e b569 c63d
000000b0: 8269 923d a02b f53d 6f02 d23d 0b69 de3d
0.14815399 0.07031388 0.13121858 0.077284835 0.18949343 0.11985549 0.15583889 0.078956336
0.176535 0.13495085 0.17048188 0.11202567 0.08517018 0.2631773 0.11224512 0.1073053
0.09188776 0.14098828 0.11624167 0.109033525 0.14167455 0.16257 0.11293368 0.19823486
0.11591291 0.07078112 0.14517257 0.11055977 0.09573447 0.07933584 0.0985832 0.07986092
0.098013975 0.11331674 0.16803351 0.12596034 0.083849154 0.09606435 0.14236227 0.07748171
0.11272198 0.11653638 0.1783387 0.09688131 0.0714903 0.119712114 0.102543704 0.10859879
